trained_models/lstm_model_1630335672.pt (torch, 72791 bytes, 5 tensors)

_lstm.weight_ih_l0 f4 [256, 3]
-0.10352612 0.052753344 0.03415748 0.06546162 0.12308264 -0.024282834 -0.04649366 0.04052826
0.16033451 0.06218679 -0.026715105 0.1218385 -0.08442919 -0.062163707 -0.072446905 -0.11241122
-0.079215094 0.16047466 -0.04299952 -0.09847917 -0.03880873 -0.060460363 -0.047253676 0.11890145
0.09287872 0.07922829 -0.0533573 0.08682295 0.07612161 -0.06648426 0.0021453514 0.09319937
-0.026208146 0.016406631 -0.075720206 0.04560405 -0.0144348685 -0.055511508 -0.056319598 0.114259765
-0.0028598034 0.12904449 0.0044831764 -0.032385115 0.15671672 0.10637383 -0.113790646 -0.05556713
-0.00083878334 0.03162977 0.09219727 -0.07059608 -0.09504421 -0.050933853 0.059332464 0.010614067
-0.10630004 0.060498968 0.018987948 0.090477526 0.049262688 -0.062860474 0.09242109 0.044636242
0.05676126 -0.12207505 0.1068572 0.0029254085 -0.045228958 0.026710093 -0.092141256 0.09780956
0.09953224 0.059532672 -0.074120715 0.0088578835 0.013620701 -0.107303634 0.053557634 -0.08277059
0.12694311 0.014697271 -0.0005155585 0.08203749 -0.016739873 -0.06094607 0.13188185 -0.103888325
0.102983065 0.05786507 -0.10717279 -0.0016443811 -0.1480903 0.024925875 0.061287045 0.009554438
0.12038378 -0.019221727 0.051201295 0.057799064 0.101628974 -0.07006266 -0.029268838 -0.10270248
-0.030705879 0.13964732 0.0076338258 0.016024638 0.03744662 0.1284475 0.10261204 0.055822466
-0.04059879 0.06256806 -0.109338276 0.041415088 0.10075234 -0.0722429 -0.0055962424 0.018414436
0.01109781 0.009783686 -0.00040870742 0.07498134 0.1328661 0.13176888 0.12801489 0.07856678
0.021930056 -0.049168225 0.11084759 0.117207624 0.08106364 0.09347061 0.12192532 0.060213935
0.057823874 0.10356216 -0.09311371 -0.018002681 0.043466803 -0.11115147 0.056637812 0.07185413
-0.0089918105 0.17981789 -0.06115646 0.06336147 -0.063800104 0.07733972 -0.056258567 0.13028994
-0.066979855 -0.018451117 0.014604957 0.09958362 0.055488627 0.067168295 -0.047588907 -0.10695101
-0.05636984 -0.084899016 -0.046611555 -0.07577553 0.120198674 -0.12082274 0.05234653 0.00041120654
0.07287046 -0.052288298 -0.06930289 -0.013192163 -0.052852556 -0.01898525 0.0023181003 0.014815857
-0.027452188 0.09500225 0.022033889 0.16178976 0.021349585 -0.046177134 -0.033178855 0.01573318
0.092421144 -0.0527024 0.11896564 -0.11353866 0.12963922 0.0030213755 0.037857823 -0.05908057
-0.103519164 0.07835873 -0.02297429 0.097186945 0.07383393 0.13430126 -0.060665946 -0.035476107
0.038140193 0.04066859 -0.0921404 0.11121758 0.04327331 -0.036804378 -0.056935377 0.016378699
0.07535321 0.028525993 -0.022973366 0.064455815 0.117350884 0.12097899 -0.05104587 0.009222058
0.08188915 0.12739813 -0.025672063 0.036659803 -0.0140933385 0.03499471 0.12905502 0.123756245
-0.0015832148 0.090253845 0.068124026 0.077769 -0.098981954 0.12549484 0.05068859 -0.088996604
-0.01209986 -0.05626267 -0.055143904 0.11268831 0.019835062 -0.046022154 -0.03183625 0.07835783
-0.051769823 0.117375456 0.09474964 -0.022860518 -0.06108033 -0.068518765 -0.0353761 0.058098428
0.07403795 -0.10748649 0.0037841569 0.1582511 0.10638713 -0.02970949 0.09978526 0.10275476
00000000: 8105 d4bd e413 583d b7e8 0b3d be10 863d
00000010: c012 fc3d cbec c6bc 2370 3ebd f600 263d
00000020: bb2e 243e 93b7 7e3d a3d9 dabc 7786 f93d
00000030: 36e9 acbd 5f9f 7ebd 0b5f 94bd db37 e6bd
00000040: 863b a2bd 7853 243e 4420 30bd 72af c9bd
00000050: e7f5 1ebd 49a5 77bd 128d 41bd 9a82 f33d
00000060: 3337 be3d 7142 a23d 2f8d 5abd 3bd0 b13d
00000070: a6e5 9b3d e628 88bd 0699 0c3b 50df be3d
00000080: 77b2 d6bc 3367 863c 3213 9bbd 50cb 3a3d
00000090: 3a80 6cbc 0960 63bd 61af 66bd 0601 ea3d
000000a0: 8a6b 3bbb 3d24 043e 9ce7 923b 41a6 04bd
000000b0: 597a 203e 86da d93d 120b e9bd 5c9a 63bd
000000c0: cce1 5bba 388e 013d ecd1 bc3d ad94 90bd
000000d0: 8aa6 c2bd 04a0 50bd 9906 733d a0e6 2d3c
000000e0: d6b3 d9bd c4cd 773d 9d8c 9b3c 484c b93d
000000f0: acc7 493d febc 80bd 4547 bd3d 7ed4 363d
00000100: 7f7e 683d 7c02 fabd f3d7 da3d 36b8 3f3b
00000110: 0042 39bd 20cf da3c 8eb4 bcbd 6150 c83d
00000120: 8fd7 cb3d 88d8 733d 9acc 97bd a820 113c
00000130: 5c29 5f3c 02c2 dbbd 405f 5b3d a183 a9bd
00000140: 60fd 013e d3cc 703c 8c26 07ba 4603 a83d
00000150: 0f22 89bc 96a2 79bd 090c 073e 67c3 d4bd
00000160: c9e8 d23d ec03 6d3d 687d dbbd 4688 d7ba
00000170: fca4 17be 5931 cc3c 2008 7b3d 388a 1c3c
00000180: c58b f63d e276 9dbc 73b8 513d b6be 6c3d
00000190: da22 d03d 037d 8fbd 34c5 efbc ae55 d2bd
000001a0: e58a fbbc b5ff 0e3e 2c25 fa3b 1a46 833c
000001b0: a161 193d be87 033e 4326 d23d 19a6 643d
000001c0: eb4a 26bd af23 803d bfec dfbd dea2 293d
000001d0: 3e57 ce3d 16f4 93bd af60 b7bb dfd9 963c
000001e0: 97d3 353c c14b 203c c847 d6b9 d18f 993d
000001f0: 0d0e 083e 6cee 063e 5616 033e 9fe7 a03d
00000200: a9a6 b33c 9f64 49bd 1004 e33d 8d0a f03d
00000210: b204 a63d 856d bf3d fbb3 f93d e3a2 763d
00000220: bad8 6c3d 6618 d43d 67b2 bebd 5c7a 93bc
00000230: 3f0a 323d 62a3 e3bd 0dfd 673d 4228 933d
00000240: 6352 13bc 2e22 383e 327f 7abd a9c3 813d
00000250: a1a9 82bd 4a64 9e3d 626f 66bd ba6a 053e
00000260: bc2c 89bd cc26 97bc a149 6f3c 7ff2 cb3d
00000270: 0b48 633d 888f 893d 96ec 42bd 2209 dbbd
00000280: 10e4 66bd 89df adbd c2eb 3ebd 3330 9bbd
00000290: b92a f63d ea71 f7bd 5169 563d 3597 d739
000002a0: 1c3d 953d 412c 56bd acee 8dbd f123 58bc
000002b0: ec7b 58bd f486 9bbc 45eb 173b 35be 723c
000002c0: 69e3 e0bc 8a90 c23d 6a80 b43c 37ac 253e
000002d0: 53e5 ae3c 3c24 3dbd 8de6 07bd dfe2 803c
000002e0: 4c47 bd3d 79de 57bd 42a4 f33d f586 e8bd
000002f0: 25c0 043e 4502 463b ce10 1b3d 78fe 71bd
00000300: db01 d4bd 8b7a a03d 9434 bcbc f309 c73d
00000310: 3e36 973d 4586 093e db7c 78bd 654f 11bd
00000320: e438 1c3d 1c94 263d 1bb4 bcbd 0bc6 e33d
00000330: 5b3f 313d 30c0 16bd 1235 69bd 9f2c 863c
00000340: c952 9a3d 58af e93c a432 bcbc 6901 843d
00000350: a955 f03d d5c3 f73d 7915 51bd 1d18 173c
00000360: 80b5 a73d a874 023e 384e d2bc 9728 163d
00000370: bfe7 66bc 9d56 0f3d 0027 043e ea73 fd3d
00000380: e083 cfba 02d7 b83d 9c84 8b3d 5a45 9f3d
00000390: 0db7 cabd b881 003e d79e 4f3d da43 b6bd
000003a0: 7e3e 46bc af73 66bd 93de 61bd 21c9 e63d
000003b0: 247d a23c ba81 3cbd ba66 02bd 127a a03d
000003c0: 980c 54bd 8b62 f03d 190c c23d fb45 bbbc
000003d0: 5e2f 7abd 9153 8cbd 88e6 10bd 9ef8 6d3d
000003e0: 35a1 973d e021 dcbd 9eff 773b 940c 223e
000003f0: 7fe1 d93d 5161 f3bc 375c cc3d 1671 d23d

_lstm.weight_hh_l0 f4 [256, 64]
0.10043422 0.023519123 0.13821541 0.08256909 0.109055504 0.08077969 0.013120038 -0.030280998
0.08209507 -0.0810764 -0.090482175 0.040993493 0.01817093 -0.026355006 -0.09453043 -0.03709567
-0.029868439 -0.061330136 0.030437969 0.103943646 0.0642581 -0.03876229 -0.03886592 -0.078149416
0.12889437 -0.045669116 0.124818586 0.112129554 -0.061491642 -0.045156863 0.07106422 0.10251564
-0.076962 0.111456834 -0.05670744 -0.02653557 0.14100643 0.08286462 -0.0097068 0.045492712
0.11831812 0.093220405 0.03370276 0.008949843 0.023602039 0.021438956 0.099362515 -0.03500621
-0.15667255 0.055631425 0.07882616 -0.07883876 0.15246692 0.11242467 -0.020576753 0.08027137
-0.016349467 0.03352875 -0.10430679 0.06886409 -0.033612262 -0.03402353 0.00464909 0.13200568
-0.06682786 0.13061357 0.11144345 0.04675176 0.06913439 0.07610315 0.07561594 0.017019508
-0.08481918 0.045069747 -0.12393824 0.11910167 0.1054074 0.09317431 0.0024782862 -0.09636323
0.011889573 0.009852922 0.071175076 0.0044018063 -0.006854555 0.07199745 0.067981064 -0.0639912
-0.07416699 0.04927407 -0.056421008 0.0033583287 0.077896796 -0.118808575 -0.0008010916 0.00771271
0.077480145 -0.042167284 -0.029188778 0.024678351 -0.022734093 0.020249516 0.007662388 -0.10339063
-0.011229906 0.10202903 0.06269881 -0.07658778 0.093410365 -0.04436457 -0.07053973 -0.075820185
0.024448415 -0.084314875 -0.006821548 -0.0034421843 0.15777817 0.10487219 0.089049615 0.1130572
-0.10150952 -0.017621424 -0.006742034 0.0778899 -0.013017204 0.057455506 -0.045107253 0.028805591
0.14106996 0.027067726 0.02710821 -0.12676753 -0.084569156 -0.028864723 0.062817566 -0.0866282
0.084524594 0.068994045 0.07142611 0.03598816 -0.02842361 0.08628265 0.011217762 -0.055313215
0.005338746 -0.08834006 -0.06509475 -0.020474942 0.03633975 0.009579025 -0.14362504 -0.01575034
0.112071455 0.023971694 -0.059284307 0.057142608 -0.051803846 0.05671413 0.01370124 0.029255083
0.05479633 -0.0905736 -0.10137349 0.09655376 0.0025370792 0.104950584 -0.03871534 0.06936701
-0.0693905 -0.073287666 -0.055017397 -0.0676331 0.026623296 -0.011865317 0.057982925 0.11291873
-0.053337533 -0.037223667 0.108464755 -0.09935378 0.020282237 0.1026784 0.038325462 0.014531831
-0.006571248 0.071564026 -0.035145115 -0.0412185 -0.0056316676 -0.11073597 0.113071 0.11241843
0.041950766 0.0045596273 0.042144094 0.053453542 -0.008089455 -0.04907204 -0.011534932 0.05209985
-0.09479743 -0.03255173 0.05387471 0.061660662 0.031576432 0.09558466 -0.0060671815 -0.0053078276
0.026752569 0.061687548 0.05629033 0.084551565 -0.1190473 -0.078003734 0.021954283 -0.0712692
0.034731485 -0.08695152 0.009245352 0.082730964 -0.059053946 -0.0039882036 -0.01987909 -0.03421606
0.010889125 0.038261 0.043735027 0.107228674 0.032134116 0.08874275 -0.0454448 -0.062123615
0.021691527 -0.04799684 -0.09641279 -0.09053863 0.08264887 -0.10744142 0.09197105 0.060498506
-0.027246336 0.12600987 0.043288622 -0.05893693 0.14278384 0.04970833 0.014889216 0.004725264
-0.09056408 -0.103576064 -0.10880822 0.0905278 -0.10989718 0.107212156 -0.043635372 -0.123337515
00000000: 75b0 cd3d 2dab c03c 5788 0d3e fc19 a93d
00000010: 7e58 df3d d26f a53d 6ef5 563c db0f f8bc
00000020: 7621 a83d 620b a6bd b84e b9bd cbe8 273d
00000030: 34db 943c 74e6 d7bc 2c99 c1bd a1f1 17bd
00000040: a8ae f4bc 4f35 7bbd 0c59 f93c 68e0 d43d
00000050: c099 833d 35c5 1ebd df31 1fbd cd0c a0bd
00000060: e3fc 033e 8a0f 3bbd e3a0 ff3d 2ea4 e53d
00000070: a9de 7bbd 67f6 38bd 1e8a 913d b8f3 d13d
00000080: 419e 9dbd 7b43 e43d 1046 68bd 2061 d9bc
00000090: fd63 103e edb4 a93d 4509 1fbc 9156 3a3d
000000a0: c550 f23d 57ea be3d e80b 0a3d 5da2 123c
000000b0: 1059 c13c c0a0 af3c 937e cb3d ac62 0fbd
000000c0: c56e 20be c7dd 633d 9c6f a13d 3776 a1bd
000000d0: 4a20 1c3e e83e e63d 9490 a8bc 5165 a43d
000000e0: 51ef 85bc 7155 093d cc9e d5bd 9e08 8d3d
000000f0: 03ad 09bd 425c 0bbd 6557 983b 7f2c 073e
00000100: 0cdd 88bd 90bf 053e 773c e43d c67e 3f3d
00000110: 5596 8d3d f8db 9b3d 88dc 9a3d 7f6c 8b3c
00000120: aeb5 adbd 0e9b 383d 55d3 fdbd 94eb f33d
00000130: d6df d73d 2cd2 be3d be6a 223b 165a c5bd
00000140: 7ccc 423c 266e 213c 3dc4 913d 073d 903b
00000150: 2d9c e0bb 6673 933d a839 8b3d d10d 83bd
00000160: dde4 97bd 9bd3 493d b719 67bd 6817 5c3b
00000170: 5b88 9f3d e951 f3bd 5900 52ba e7ba fc3b
00000180: e9ad 9e3d 9ab7 2cbd 4e1d efbc 412a ca3c
00000190: d93c babc 50e2 a53c c514 fb3b 77be d3bd
000001a0: a4fd 37bc 99f4 d03d 3c68 803d 0eda 9cbd
000001b0: ef4d bf3d a0b7 35bd 2277 90bd 9d47 9bbd
000001c0: 0b48 c83c 47ad acbd 4b87 dfbb 4596 61bb
000001d0: 9a90 213e 3bc7 d63d a55f b63d 898a e73d
000001e0: 39e4 cfbd ce5a 90bc 48ec dcbb bd84 9f3d
000001f0: 1c46 55bc 7756 6b3d 62c2 38bd b4f9 eb3c
00000200: a574 103e 23bd dd3c 0912 de3c 59cf 01be
00000210: 9832 adbd b675 ecbc 7fa6 803d 206a b1bd
00000220: 3b1b ad3d c04c 8d3d da47 923d 5268 133d
00000230: a1d8 e8bc f5b4 b03d b4ca 373c 1c90 62bd
00000240: a6f0 ae3b a2eb b4bd 6550 85bd 11bb a7bc
00000250: fdd8 143d 58f1 1c3c 7112 13be db06 81bc
00000260: b885 e53d 4960 c43c 1ad4 72bd 5e0e 6a3d
00000270: 4530 54bd 134d 683d 2a7b 603c 5ba8 ef3c
00000280: 1e72 603d a77e b9bd e89c cfbd fabd c53d
00000290: 2045 263b 55f0 d63d fa93 1ebd 4a10 8e3d
000002a0: 9b1c 8ebd d817 96bd ec59 61bd 3983 8abd
000002b0: 1919 da3c bf66 42bc 817f 6d3d ef41 e73d
000002c0: 7578 5abd d877 18bd c522 de3d ff79 cbbd
000002d0: ef26 a63c 0e49 d23d 29fb 1c3d eb16 6e3c
000002e0: a053 d7bb 2990 923d 53f4 0fbd bbd4 28bd
000002f0: da89 b8bb 8ac9 e2bd c591 e73d a23b e63d
00000300: 91d4 2b3d ed68 953b 499f 2c3d 1af2 5a3d
00000310: a289 04bc c3ff 48bd 03fd 3cbc a766 553d
00000320: 2825 c2bd f654 05bd baab 5c3d e48f 7c3d
00000330: 4a56 013d e4c1 c33d 35cf c6bb 49ed adbb
00000340: 3428 db3c 15ac 7c3d b090 663d 5f29 ad3d
00000350: 12cf f3bd 6cc0 9fbd 78d9 b33c 96f5 91bd
00000360: 9a42 0e3d a313 b2bd d179 173c da6e a93d
00000370: 8de2 71bd 7aaf 82bb 79d9 a2bc 2426 0cbd
00000380: 4d68 323c 91b7 1c3d 8023 333d b59a db3d
00000390: 109f 033d c2be b53d 5424 3abd 5575 7ebd
000003a0: 6eb2 b13c 5698 44bd 1274 c5bd 516c b9bd
000003b0: d043 a93d 3f0a dcbd 515b bc3d 48cd 773d
000003c0: b533 dfbc bb08 013e 694f 313d da67 71bd
000003d0: ed35 123e f69a 4b3d e6f1 733c 63d6 9a3b
000003e0: a979 b9bd b01f d4bd d8d6 debd a466 b93d
000003f0: c611 e1bd 0c92 db3d 01bb 32bd 6198 fcbd

_lstm.bias_ih_l0 f4 [256]
0.122768 0.011041662 -0.026647743 -0.03456864 -0.05806631 0.05659525 0.048309606 -0.034225
0.10655993 -0.002697947 -0.08352061 0.058277015 0.12322655 -0.09855499 -0.06313092 -0.08906713
0.0862015 -0.07707439 -0.06525572 -0.04340251 -0.044624005 0.09078049 0.0826209 -0.02264647
-0.078139216 -0.049500193 -0.039467223 0.014645314 0.14080822 -0.09654923 -0.099445686 -0.12184312
-0.06477288 0.079890475 0.01434429 -0.035993356 -0.008097453 -0.051987767 -0.041169703 0.11648058
-0.025921253 0.03435026 0.017086582 0.048769947 0.010709099 0.03482131 0.0026227585 -0.08029631
0.1596127 0.11837296 0.0023751138 0.046055052 -0.04536367 0.013667466 0.05630495 0.094950475
0.030080253 -0.09386176 0.100078054 0.053421944 0.00018057333 -0.10530503 -0.0033561853 0.11969106
0.10736135 0.053770706 -0.06016062 0.031547584 -0.054935373 -0.09394469 0.03829704 0.095004804
-0.000688704 0.038733542 -0.06564525 -0.110848375 0.0995296 -0.099190064 -0.062807046 0.122645974
-0.06960167 0.111957885 0.08363211 -0.035247315 -0.03823375 0.0943012 0.086744666 -0.078303196
-0.09741446 -0.009336495 0.054816794 -0.08955114 -0.07725928 -0.006964134 0.029907122 -0.0961658
-0.06703555 -0.017580869 0.06969508 -0.10978042 0.049360275 -0.022938563 0.04045827 -0.066487975
-0.03545585 0.1269564 0.09152976 0.005729983 -0.021287885 -0.03488486 0.04682571 0.10509196
0.081528574 0.0026466537 -0.017152436 -0.09352217 0.15586892 -0.10711412 0.01033143 0.1217798
-0.0751468 0.06890541 -0.026803201 -0.031526066 -0.07872117 0.046086404 -0.10637165 -0.011921289
0.124038145 0.12155961 0.043024063 -0.11334196 0.053799067 0.029741896 0.075372405 0.099219054
-0.06034071 0.01694044 -0.096590295 0.023927178 0.0044054654 0.12629795 -0.011646099 0.12514712
-0.129513 0.123200886 0.09915829 -0.09178537 0.08471607 -0.10374606 -0.030303016 0.089182295
0.11192037 0.04050483 0.05245675 -0.014988888 0.03488346 0.057931323 -0.07908848 -0.06859298
0.05009863 0.015916022 0.09707783 -0.012875239 0.07554689 0.004573374 0.060125478 -0.05506669
-0.10170568 -0.08002026 0.009729316 -0.008961826 0.023469867 -0.02510972 0.1311223 0.037190348
0.045982726 -0.031200524 -0.032733884 0.012901356 -0.035865188 0.050039828 0.012112438 0.104708076
0.058320712 0.113257855 -0.07176398 -0.043029707 -0.096125074 -0.084647626 -0.0061352225 -0.0126488
0.12824494 0.049962595 -0.043371525 0.020484697 0.023738924 0.07215982 0.08264066 0.08031679
-0.10326303 -0.07207833 0.09064841 -0.09086088 -0.10848709 0.03177119 0.037988566 -0.044283763
-0.04142233 0.079554655 0.10773522 -0.04007526 -0.028470457 0.102607675 0.05116839 0.048340682
-0.017744025 0.118591994 0.086246 0.039581724 0.10774652 -0.09543308 -0.09562592 -0.10318632
-0.034940846 -0.071647085 0.08267306 -0.08985831 0.071490124 0.017923255 -0.02586616 0.06357433
0.13660254 0.09665247 -0.065211914 0.1062913 0.066642806 -0.010684631 0.065179124 0.08567697
0.1747464 -0.034117404 0.03184768 0.08519599 -0.055700794 0.06670429 -0.06314611 -0.06623438
0.05757097 0.033013597 -0.039484043 0.13172163 0.019319069 -0.06415478 0.05996149 -0.0056728018
00000000: ca6d fb3d 16e8 343c 5e4c dabc d997 0dbd
00000010: f0d6 6dbd 6cd0 673d 4be0 453d 832f 0cbd
00000020: 183c da3d 0ad0 30bb db0c abbd e1b3 6e3d
00000030: 345e fc3d 33d7 c9bd c94a 81bd d468 b6bd
00000040: 698a b03d 2ed9 9dbd caa4 85bd d5c6 31bd
00000050: a9c7 36bd 1feb b93d 2535 a93d 1785 b9bc
00000060: 7407 a0bd b7c0 4abd 62a8 21bd e6f2 6f3c
00000070: 0830 103e 9abb c5bd 2eaa cbbd e388 f9bd
00000080: a5a7 84bd 9e9d a33d 5004 6b3c c56d 13bd
00000090: 2eab 04bc 20f1 54bd 90a1 28bd 5f8d ee3d
000000a0: cf58 d4bc dcb2 0c3d 29f9 8b3c ffc2 473d
000000b0: 3775 2f3c caa0 0e3d 96e2 2b3b 6472 a4bd
000000c0: 8371 233e 866d f23d cca7 1b3b 39a4 3c3d
000000d0: 41cf 39bd 82ed 5f3c 05a0 663d 6575 c23d
000000e0: dd6a f63c 983a c0bd b9f5 cc3d f8d0 5a3d
000000f0: 4958 3d39 2aaa d7bd 72f3 5bbb 9620 f53d
00000100: 44e0 db3d ac3e 5c3d fb6a 76bd 0a38 013d
00000110: ea03 61bd 1366 c0bd 5bdd 1c3d e191 c23d
00000120: 258a 34ba 10a7 1e3d 0471 86bd 7904 e3bd
00000130: 2dd6 cb3d 2924 cbbd fba0 80bd d02d fb3d
00000140: 528b 8ebd 2d4a e53d 5047 ab3d 7d5f 10bd
00000150: fe9a 1cbd fd20 c13d 30a7 b13d 6d5d a0bd
00000160: 3b81 c7bd 19f8 18bc 9387 603d 9766 b7bd
00000170: 1d3a 9ebd 6433 e4bb c8ff f43c 93f2 c4bd
00000180: ef49 89bd c105 90bc 4bbc 8e3d 8fd4 e0bd
00000190: 002e 4a3d a7e9 bbbc 92b7 253d d92a 88bd
000001a0: 273a 11bd dc00 023e f473 bb3d 95c2 bb3b
000001b0: ee63 aebc 6de3 0ebd 51cc 3f3d 743a d73d
000001c0: 74f8 a63d 7b73 2d3b 4483 8cbc 8d88 bfbd
000001d0: 1a9c 1f3e a65e dbbd 2845 293c b067 f93d
000001e0: 91e6 99bd 481e 8d3d 6392 dbbc 7a21 01bd
000001f0: 9138 a1bd 19c5 3c3d 61d9 d9bd 8351 43bc
00000200: b607 fe3d 3ff4 f83d 003a 303d d41f e8bd
00000210: 695c 5c3d 47a5 f33c d95c 9a3d 5c33 cb3d
00000220: d227 77bd adc6 8a3c 22d1 c5bd ee02 c43c
00000230: b95b 903b 4054 013e 48cf 3ebc 9126 003e
00000240: 0e9f 04be bf50 fc3d 8013 cb3d f8f9 bbbd
00000250: 9e7f ad3d d078 d4bd 083e f8bc 35a5 b63d
00000260: 8236 e53d 65e8 253d e4dc 563d f493 75bc
00000270: f5e1 0e3d 6549 6d3d 24f9 a1bd 7a7a 8cbd
00000280: 3934 4d3d 5162 823c bed0 c63d abf2 52bc
00000290: 54b8 9a3d 3edc 953b 2246 763d 9c8d 61bd
000002a0: 114b d0bd a9e1 a3bd b667 1f3c 9fd4 12bc
000002b0: e143 c03c e6b2 cdbc ed44 063e e854 183d
000002c0: 6258 3c3d 3e98 ffbc f713 06bd 3660 533c
000002d0: 60e7 12bd 90f6 4c3d 3f73 463c 3071 d63d
000002e0: b3e1 6e3d bcf3 e73d fef8 92bd eb3f 30bd
000002f0: 39dd c4bd bc5b adbd fa09 c9bb ea3c 4fbc
00000300: a452 033e 94a5 4c3d 57a6 31bd 86cf a73c
00000310: 2278 c23c 87c8 933d 823f a93d 217d a43d
00000320: 917b d3bd ce9d 93bd e0a5 b93d 4515 babd
00000330: 7b2e debd 8222 023d e699 1b3d e462 35bd
00000340: 76aa 29bd 8ded a23d 48a4 dc3d f525 24bd
00000350: e03a e9bc f923 d23d f295 513d e100 463d
00000360: eb5b 91bc 5ce0 f23d bea1 b03d 7220 223d
00000370: 35aa dc3d 6b72 c3bd 86d7 c3bd 5953 d3bd
00000380: 221e 0fbd b5bb 92bd 7e50 a93d a207 b8bd
00000390: 6a69 923d cad3 923c 45e5 d3bc 4233 823d
000003a0: 89e1 0b3e bbf1 c53d d38d 85bd 41af d93d
000003b0: 067c 883d 970e 2fbc a27c 853d 6877 af3d
000003c0: b8f0 323e b1be 0bbd b772 023d 3c7b ae3d
000003d0: 8426 64bd 429c 883d bf52 81bd e4a5 87bd
000003e0: 8acf 6b3d 4439 073d 05ba 21bd 09e2 063e
000003f0: 0643 9e3c 9563 83bd 2e9a 753d e9e2 b9bb

_lstm.bias_hh_l0 f4 [256]
0.12622432 -0.11075559 -0.082289755 -0.063836865 0.10738911 0.07234841 0.04045004 -0.015226613
-0.029706797 0.13305801 0.11266204 0.12113375 0.0034760342 -0.11148727 0.12416662 0.06083363
0.10628785 0.021906808 0.06287866 0.12860043 0.109469175 0.0826724 0.010524458 0.06511066
0.07506341 -0.049056362 0.0069053136 -0.013227448 0.11602732 0.0190663 -0.021627933 0.11778259
-0.10869035 -0.11728092 0.10370787 -0.019634401 0.114557385 0.068323694 -0.07915963 0.0394308
0.08147022 0.13632266 -0.048795257 0.01583427 0.0844287 -0.07525798 -0.019668385 -0.053627647
0.037282314 0.0925732 -0.077592306 -0.12607418 -0.044959936 0.03655974 0.0030663507 -0.032408908
0.08886106 0.017001683 -0.015808864 -0.080882184 0.019868424 -0.11580456 -0.028639521 0.0976015
-0.069116175 0.10539086 0.098587364 -0.11533075 -0.06267807 -0.06749346 -0.046619583 0.14123408
-0.05458027 0.09447738 0.13982782 0.019653648 0.12752587 0.034338474 0.124584064 -0.064138696
0.018344047 0.048723157 -0.11650002 0.039250314 0.054949738 -0.07957191 0.06468735 0.06546366
-0.061668362 -0.11325527 0.084189765 0.11323588 0.10227735 -0.04195785 0.06871421 -0.08757122
0.051785573 -0.11211132 -0.09000067 0.049807288 -0.008040883 -0.109549426 -0.07534499 0.02701555
0.13094977 0.022788841 -0.07061364 0.1304993 -0.026874322 0.10748387 0.1215843 -0.006052613
0.046301324 0.09970082 0.03933227 0.06473587 0.16349277 0.10028197 0.071186334 -0.050954286
-0.07822237 -0.10278981 0.050871305 -0.055792134 0.12000813 0.11801731 0.03231864 0.09124025
-0.088995665 0.03601526 0.092330344 -0.07252102 0.051766533 0.06601826 -0.021791859 0.019020097
-0.052461397 0.0013582945 0.01836757 0.0025240153 0.097024985 -0.04244106 -0.02652233 0.0736425
0.06799402 0.06947685 -0.07754731 0.10922384 0.12128852 0.042368323 0.04922015 -0.12931009
0.056544174 0.10776851 -0.05476818 0.06854967 0.0015051818 -0.07241717 0.13399233 -0.06056046
-0.07566188 0.046774887 -0.03219574 -0.010637762 0.09829906 -0.09461 -0.06679588 0.0037985004
0.09337842 0.11394041 -0.023559455 -0.040087182 -0.10133336 -0.0055061253 0.12846106 0.05840526
-0.008804878 -0.08747991 0.034297436 0.039500028 -0.023952227 0.06266465 -0.0057886722 -0.07015453
0.03617898 -0.0054426887 0.030573316 -0.018199118 -0.01888055 -0.08183156 0.13819219 0.1307467
-0.02237081 -0.07911154 0.027401147 -0.111816764 0.11090449 0.05313691 0.10288531 0.1157534
-0.07288083 0.121186584 0.07008919 -0.0129206665 -0.0797005 -0.05180828 0.097812034 -0.0123804435
-0.028669663 0.06886261 -0.12752788 0.05404449 -0.06982707 -0.042544868 -0.005497112 -0.09114263
-0.0005510319 0.0031761294 0.11976508 0.017040215 -0.042748682 -0.04613636 -0.03043748 0.043790344
-0.10319019 0.019935368 0.032733526 -0.062604934 0.11817693 -0.029963523 0.094008416 -0.004559615
0.02469129 0.024191031 0.096136294 0.12925495 -0.0730293 -0.115233265 0.03895524 -0.105469756
-0.025440903 -0.09624384 -0.046963688 0.029000262 0.040581442 0.07765371 0.110720925 -0.020555258
-0.043649208 -0.08573009 0.1103665 -0.08320797 -0.014462054 -0.049908973 0.0342624 0.1177659
00000000: f340 013e d4d3 e2bd 8887 a8bd e7bc 82bd
00000010: d2ee db3d 672b 943d f1ae 253d 0b79 79bc
00000020: ab5b f3bc 5c40 083e 5bbb e63d f914 f83d
00000030: 2dce 633b 7053 e4bd 124b fe3d af2c 793d
00000040: 72ad d93d e875 b33c 87c6 803d d5af 033e
00000050: 6031 e03d 2650 a93d c76e 2c3c bd58 853d
00000060: d8ba 993d 53ef 48bd f845 e23b f0b7 58bc
00000070: bb9f ed3d ee30 9c3c 102d b1bc 0038 f13d
00000080: 0c99 debd fb30 f0bd cb64 d43d 53d8 a0bc
00000090: 109d ea3d 4bed 8b3d 721e a2bd 3182 213d
000000a0: dcd9 a63d 2b98 0b3e 89dd 47bd dfb6 813c
000000b0: f4e8 ac3d db20 9abd 981f a1bc aaa8 5bbd
000000c0: 57b5 183d 0597 bd3d b7e8 9ebd 9719 01be
000000d0: e927 38bd aabf 153d d4f4 483b 34bf 04bd
000000e0: cafc b53d 1d47 8b3c 9781 81bc 8fa5 a5bd
000000f0: 1bc3 a23c f12a edbd 6e9d eabc 4ce3 c73d
00000100: c88c 8dbd 2ad7 d73d 2ce8 c93d 8732 ecbd
00000110: 5c5d 80bd 033a 8abd 2df4 3ebd ab9f 103e
00000120: 908f 5fbd 5b7d c13d 062f 0f3e b000 a13c
00000130: 2496 023e 80a6 0c3d ee25 ff3d 265b 83bd
00000140: 4146 963c ef91 473d 9097 eebd f0c4 203d
00000150: fa12 613d 99f6 a2bd cd7a 843d d011 863d
00000160: f797 7cbd 61f2 e7bd af6b ac3d 37e8 e73d
00000170: ca76 d13d ffdb 2bbd 09ba 8c3d 8a58 b3bd
00000180: 1c1d 543d 9f9a e5bd 4552 b8bd ba02 4c3d
00000190: e8bd 03bc 735b e0bd 794e 9abd b74f dd3c
000001a0: b217 063e aaaf ba3c e29d 90bd 9ca1 053e
000001b0: 8a27 dcbc 8120 dc3d 3101 f93d ff54 c6bb
000001c0: 75a6 3d3d f22f cc3d e01a 213d 3d94 843d
000001d0: a66a 273e a260 cd3d 24ca 913d 71b5 50bd
000001e0: 0d33 a0bd 7783 d2bd 6e5e 503d 4b86 64bd
000001f0: d3c6 f53d 0fb3 f13d 8d60 043d 2bdc ba3d
00000200: 5c43 b6bd bd84 133d b117 bd3d e785 94bd
00000210: 2509 543d 9534 873d d784 b2bc 09d0 9b3c
00000220: c3e1 56bd cd08 b23a 9677 963c f369 253b
00000230: 09b5 c63d add6 2dbd 5b45 d9bc e1d1 963d
00000240: 7340 8b3d e149 8e3d 20d1 9ebd c0b0 df3d
00000250: 1e66 f83d 688a 2d3d 119b 493d dd69 04be
00000260: dd9a 673d bdb5 dc3d 9954 60bd c563 8c3d
00000270: 8549 c53a 744f 94bd 4935 093e 3f0e 78bd
00000280: 9ef4 9abd 0697 3f3d aedf 03bd 024a 2ebc
00000290: 0451 c93d e3c2 c1bd 47cc 88bd 43f0 783b
000002a0: 2f3d bf3d 9759 e93d c2ff c0bc 7532 24bd
000002b0: dd87 cfbd ba6c b4bb 4c8b 033e 5b3a 6f3d
000002c0: 5642 10bc ab28 b3bd 787b 0c3d c8ca 213d
000002d0: 7637 c4bc 5356 803d e7ae bdbb 2ead 8fbd
000002e0: 6930 143d 9558 b2bb e474 fa3c 5116 95bc
000002f0: 62ab 9abc 4e97 a7bd 4182 0d3e 77e2 053e
00000300: fd42 b7bc 3b05 a2bd 5f78 e03c 3000 e5bd
00000310: e521 e33d 17a6 593d 89b5 d23d 1e10 ed3d
00000320: 8b42 95bd ac30 f83d ec8a 8f3d 34b1 53bc
00000330: 043a a3bd eb34 54bd ad51 c83d 58d7 4abc
00000340: a4dc eabc d707 8d3d ab96 02be c15d 5d3d
00000350: 7f01 8fbd 8743 2ebd 1e21 b4bb fda8 babd
00000360: 2073 10ba 9c26 503b 6547 f53d ec97 8b3c
00000370: 3e19 2fbd 7bf9 3cbd 0658 f9bc 815d 333d
00000380: 6155 d3bd 7f4f a33c 9713 063d 0437 80bd
00000390: bf06 f23d 1076 f5bc 7c87 c03d d368 95bb
000003a0: 6345 ca3c 452c c63c 1be3 c43d 695b 043e
000003b0: 6390 95bd 6bff ebbd 888f 1f3d 8700 d8bd
000003c0: 7169 d0bc 7e1b c5bd ff5c 40bd f591 ed3c
000003d0: ba38 263d e908 9f3d a7c1 e23d 8063 a8bc
000003e0: 83c9 32bd 4293 afbd d507 e23d f168 aabd
000003f0: 40f2 6cbc 5a6d 4cbd bb56 0c3d 402f f13d

_fc.weight f4 [1, 64]
0.111994445 0.09056862 0.11223074 0.071299054 -0.044485416 0.06139059 -0.13213946 0.03676848
0.049140505 0.11676082 -0.006761237 -0.03733172 0.027590219 -0.064913735 -0.12913091 -0.048544995
-0.11862801 0.053080637 -0.037705775 0.12424673 0.027059028 -0.09716651 -0.06768779 -0.13052224
-0.07999988 -0.059685186 0.08551416 0.02207732 0.13054161 -0.07307381 -0.051521055 0.05723491
0.042306364 0.0754561 -0.06448229 0.088965826 0.060000423 0.019119246 -0.025972068 -0.09179312
0.07049321 0.131268 -0.061296854 0.0016889587 0.016514571 0.07205896 0.02828561 0.031038452
-0.15736619 0.011248574 -0.035471715 0.09665027 0.10202731 -0.12237179 0.040140983 -0.10625241
-0.11299883 0.13331646 -0.12566568 -0.12032427 -0.099342704 0.03811365 0.03924753 0.11314813
00000000: 585d e53d 0a7c b93d 3bd9 e53d 3d05 923d
00000010: 5736 36bd b374 7b3d 914f 07be 8c9a 163d
00000020: 8e47 493d 4c20 ef3d 5e8d ddbb 25e9 18bd
00000030: e204 e23c 7ef1 84bd e53a 04be 1ed7 46bd
00000040: 3ef3 f2bd 156b 593d 5f71 1abd 1275 fe3d
00000050: e5aa dd3c 3cff c6bd e59f 8abd 9fa7 05be
00000060: fad6 a3bd 7478 74bd 0c22 af3d 7fdb b43c
00000070: b3ac 053e b9a7 95bd be07 53bd 276f 6a3d
00000080: 7049 2d3d ba88 9a3d 4a0f 84bd b733 b63d
00000090: 01c3 753d f79f 9c3c 60c3 d4bc 08fe bbbd
000000a0: be5e 903d 1e6b 063e 6912 7bbd 0d60 dd3a
000000b0: 9149 873c a693 933d 39b7 e73c 5a44 fe3c
000000c0: 9a24 21be f04b 383c ca4a 11bd 94f0 c53d
000000d0: b2f3 d03d 109e fabd df6a 243d dd9a d9bd
000000e0: ee6b e7bd 1c84 083e 81ae 00be 926c f6bd
000000f0: 3074 cbbd 0f1d 1c3d 05c2 203d 35ba e73d
