trained_models/rnn_model_1630335376.pt (torch, 19735 bytes, 5 tensors)

_rnn.weight_ih_l0 f4 [64, 3]
-0.10055386 0.075892664 -0.118013695 -0.123029746 -0.013716858 -0.100298755 -0.073558584 0.08266047
0.1187922 -0.014561724 0.079703726 0.015028079 0.04974367 0.06937475 -0.035358187 -0.09942366
0.08924554 -0.027648779 -0.07425814 -0.106544174 0.07755271 0.026259962 -0.09410814 -0.096287556
-0.09516986 -0.12073907 -0.019873314 0.0556897 -0.11257397 -0.109847635 -0.011304596 0.11126285
-0.0526427 -0.018336842 -0.07861298 -0.0016797772 0.052004702 0.008111537 -0.0026214719 -0.11575501
-0.11869937 0.0010104633 0.062308285 -0.09923025 0.06713926 -0.0863076 -0.10859527 -0.009297954
0.048241 -0.05392547 0.12781875 -0.07868669 0.1066805 0.07389611 0.08113459 -0.031617984
0.056715827 0.08410693 0.11446207 -0.047102775 0.11877839 0.0954461 -0.081533544 -0.068518974
-0.11749275 -0.018095184 -0.02190466 0.109467715 -0.101112254 -0.07847693 0.044511393 -0.09304475
-0.015233167 -0.042170107 -0.10831169 -0.08729486 0.0914805 0.00869317 0.017538747 -0.09079544
-0.14447866 0.06123784 -0.061033793 -0.08564479 -0.08981545 -0.10161006 0.08343561 0.091552235
0.068912156 -0.15185137 -0.13376386 0.0628439 -0.10338289 -0.0068096556 0.09747353 0.047504324
0.068922274 -0.072725184 0.08006814 -0.07560304 0.1056081 0.010799441 -0.094061255 0.098736554
0.107190795 0.019043228 0.03794092 0.07800167 -0.06641148 0.026740877 -0.018506285 -0.045503713
-0.034546904 -0.099037 0.060489558 -0.021934327 -0.03214803 0.050717793 0.02887723 -0.12435526
0.11274925 0.10584994 -0.06873624 0.08933679 -0.0034599327 -0.121634044 0.05005898 -0.12314641
0.09694234 -0.053723343 0.09918231 -0.090658106 -0.09992801 -0.010475902 -0.009352168 -0.025926575
-0.10697686 0.10379196 -0.10283391 0.016341137 0.14476588 0.027559765 0.07704986 -0.06352835
0.0046378584 0.0628509 -0.014371721 0.0029576723 -0.042116277 0.09560333 -0.06180159 0.11753049
-0.0040309876 0.095549636 0.03247349 -0.013039893 0.09115946 -0.07364675 0.0041085538 0.0026674443
0.017774906 0.076691955 0.0065991897 0.002300913 -0.15588906 0.09828324 -0.036272094 0.10732473
0.08114754 -0.08843897 0.04766631 -0.060985863 -0.062368426 -0.039124884 -0.0986147 -0.018415153
-0.07265883 -0.048638124 -0.09719713 0.10845164 -0.08789957 -0.024114775 -0.06735079 0.0414346
0.058836997 -0.05671648 -0.11298536 -0.04976666 0.029836617 -0.0990529 0.0688395 -0.09646848
00000000: 2fef cdbd 9d6d 9b3d 2ab1 f1bd 05f7 fbbd
00000010: acbc 60bc 6f69 cdbd e2a5 96bd e449 a93d
00000020: 5349 f33d 4c94 6ebc b53b a33d 5538 763c
00000030: 05c0 4b3d 5914 8e3d bfd3 10bd a29e cbbd
00000040: 5ec6 b63d b17f e2bc a714 98bd d533 dabd
00000050: f5d3 9e3d 221f d73c c5bb c0bd 6932 c5bd
00000060: 6ae8 c2bd 0c46 f7bd 5ccd a2bc e21a 643d
00000070: 2e8d e6bd ccf7 e0bd ea36 39bc c7dd e33d
00000080: df9f 57bd 2537 96bc d8ff a0bd f82b dcba
00000090: e202 553d 41e6 043c 00cd 2bbb f610 edbd
000000a0: a818 f3bd 8671 843a f936 7f3d 3b39 cbbd
000000b0: 4f80 893d 0ac2 b0bd 3267 debd 7256 18bc
000000c0: 5b98 453d f4e0 5cbd ebe2 023e 7d26 a1bd
000000d0: 4e7b da3d d856 973d e429 a63d dc81 01bd
000000e0: db4e 683d 4140 ac3d 176b ea3d d7ee 40bd
000000f0: 1642 f33d 3f79 c33d 0ffb a6bd ad53 8cbd
00000100: 0aa0 f0bd 5a3c 94bc 6771 b3bc 9c30 e03d
00000110: f113 cfbd 83b8 a0bd 9451 363d 3f8e bebd
00000120: 8994 79bc 90ba 2cbd 85d2 ddbd a6c7 b2bd
00000130: 215a bb3d cc6d 0e3c 6bad 8f3c f6f2 b9bd
00000140: 37f2 13be 88d4 7a3d 92fe 79bd 8966 afbd
00000150: 2af1 b7bd ef18 d0bd 4ae0 aa3d bd7f bb3d
00000160: d121 8d3d ed7e 1bbe 65f9 08be 4db4 803d
00000170: 69ba d3bd 8823 dfbb 34a0 c73d e593 423d
00000180: 1f27 8d3d f1f0 94bd c4fa a33d c4d5 9abd
00000190: 0f49 d83d 23f0 303c 30a3 c0bd 6436 ca3d
000001a0: d986 db3d 8b00 9c3c f067 1b3d 57bf 9f3d
000001b0: be02 88bd af0f db3c 7e9a 97bc 1a62 3abd
000001c0: 0e81 0dbd e9d3 cabd e6c3 773d 9eaf b3bc
000001d0: a7ad 03bd 76bd 4f3d f18f ec3c f8ad febd
000001e0: 14e9 e63d dac7 d83d 96c5 8cbd 35f6 b63d
000001f0: 0ac0 62bb 451b f9bd a50a 4d3d 2f34 fcbd
00000200: b589 c63d 020d 5cbd 1820 cb3d f5aa b9bd
00000210: 0ea7 ccbd 1ea3 2bbc d639 19bc f863 d4bc
00000220: af16 dbbd e190 d43d 969a d2bd d9dd 853c
00000230: 823d 143e 04c5 e13c 51cc 9d3d 271b 82bd
00000240: 2df9 973b f9b7 803d 5e77 6bbc 82d5 413b
00000250: 1e82 2cbd aecb c33d aa23 7dbd d3b3 f03d
00000260: 6016 84bb 87af c33d ec02 053d 46a5 55bc
00000270: d0b1 ba3d 1bd4 96bd 0ca1 863b 4ad0 2e3b
00000280: ae9c 913c ac10 9d3d 043e d83b eaca 163b
00000290: 62a1 1fbe b948 c93d 0c92 14bd 11cd db3d
000002a0: ae30 a63d 7e1f b5bd c03d 433d 50cc 79bd
000002b0: 0976 7fbd 6a41 20bd 81f6 c9bd 60db 96bc
000002c0: 27ce 94bd c538 47bd 4a0f c7bd e51b de3d
000002d0: b104 b4bd 598c c5bc 36ef 89bd 54b7 293d
000002e0: 10ff 703d 8a4f 68bd de64 e7bd 20d8 4bbd
000002f0: ec6b f43c 3fdc cabd b9fb 8c3d 4491 c5bd

_rnn.weight_hh_l0 f4 [64, 64]
0.080394104 0.075439245 -0.01592323 -0.084983744 -0.0065610297 0.042442206 -0.0010515029 0.026171427
-0.067558005 0.074752755 -0.10305823 0.018724883 -0.011461057 -0.0946868 -0.020463457 -0.09547861
0.03097772 -0.021702696 0.08677596 -0.09014929 -0.0728051 -0.11222892 -0.113677844 -0.09325894
-0.09425487 0.09438642 0.11176993 -0.058333863 -0.01912032 0.043055512 -0.043718155 -0.075483546
0.04582142 0.07649897 0.10784847 0.107049264 0.087045304 0.02399342 -0.05411487 -0.052700393
-0.070140705 -0.0668158 -0.13908261 0.057558477 -0.041287974 0.072289005 0.09150559 0.09097963
0.020167692 -0.106531665 0.05043964 -0.0389197 -0.1283926 0.036510423 -0.03444085 -0.13440073
0.11706426 0.04721895 -0.051378924 0.09901623 -0.07507611 0.022854611 -0.031043675 -0.09384918
-0.11419083 -0.010295952 -0.08555188 -0.12619683 0.116122186 0.005589307 -0.09920607 0.105282955
0.031875107 0.108611055 -0.01451669 0.11402652 0.099987626 0.09371328 -0.019522866 0.00032399173
-0.1118459 -0.09374595 -0.073539995 -0.08446736 0.023393026 -0.11071954 0.124832004 -0.083384894
-0.02338541 0.07546119 -0.013007217 0.009593473 -0.07886489 0.06144413 -0.08735591 0.002495569
-0.109483 -0.058024164 0.045420997 0.06437047 -0.028960628 0.08651779 -0.06735573 0.035142258
0.035765726 0.033375025 -0.0130127715 -0.11222406 0.008545248 -0.03528591 0.08530053 -0.118977666
0.083653264 0.05003785 -0.095271416 0.012879234 0.052795924 0.030885467 0.13682993 -0.083289176
-0.075541764 -0.11639971 -0.09001709 7.2621464e-05 -0.02885303 0.08911063 0.07885384 -0.00321304
-0.112529136 -0.0973365 0.00041186984 -0.101653 0.114892066 0.02493146 0.065212615 0.11956462
-0.096778944 0.048746165 -0.02453234 -0.09047901 -0.031364653 -0.071755745 0.008291948 -0.07226119
0.008296364 -0.040489167 -0.032582913 0.07364437 0.09139058 -0.08147889 -0.085967846 0.034298804
-0.1093235 -0.060362983 -0.03304331 -0.09927288 -0.103036426 -0.13973168 -0.11853632 -0.043167826
0.046100713 0.08467397 -0.08105007 0.11721663 -0.0102107 -0.095003925 -0.047059756 0.015026336
-0.12555906 -0.11993271 0.03951288 0.09127886 0.07847623 -0.0012059492 0.12453091 0.11001171
0.0018959607 -0.04619724 -0.10196066 0.12104559 0.02560272 0.05728514 -0.013887093 0.0981047
0.12914506 -0.039538242 0.07484625 0.010136692 0.056408342 0.002111355 0.023016972 0.0010973589
-0.011705889 0.030390868 0.09130467 0.055023078 -0.081757955 -0.044569917 0.04018399 -0.025931055
0.07869322 -0.08849438 -0.003652929 0.021985952 -0.07884339 -0.086355485 0.027607158 0.06566919
-0.113759376 -0.04196016 -0.080343775 -0.10096288 -0.1221005 0.0056284335 0.105544746 -0.13019727
-0.08275988 0.052256975 -0.029780919 0.021556165 0.074509986 0.1595899 -0.092255235 -0.11522534
0.026553128 -0.08280834 0.009129979 -0.031132657 0.04014752 0.02298145 -0.10266563 0.08476209
-0.06302889 -0.043670908 0.004841381 0.01864169 -0.09346535 -0.025209103 0.07937075 0.074068554
-0.106500894 -0.10591701 0.09997502 -0.121455275 -0.12934868 0.025786627 0.026008073 0.026762117
0.079012826 -0.08477637 0.024126694 0.013528223 -0.05337764 0.11559479 0.08696531 0.015896125
00000000: aaa5 a43d e47f 9a3d 6f71 82bc f50b aebd
00000010: e8fd d6bb e1d7 2d3d 95d2 89ba 7665 d63c
00000020: da5b 8abd f917 993d 3110 d3bd ed64 993c
00000030: 28c7 3bbc 27eb c1bd fba2 a7bc 4a8a c3bd
00000040: fdc4 fd3c dac9 b1bc 98b7 b13d 31a0 b8bd
00000050: d71a 95bd 47d8 e5bd eecf e8bd 8bfe bebd
00000060: b308 c1bd ab4d c13d a2e7 e43d 7def 6ebd
00000070: 38a2 9cbc fa5a 303d cf11 33bd 1e97 9abd
00000080: 3eaf 3b3d 7eab 9c3d a9df dc3d a53c db3d
00000090: cf44 b23d d98d c43c 8ea7 5dbd 5edc 57bd
000000a0: eea5 8fbd b9d6 88bd ac6b 0ebe 70c2 6b3d
000000b0: 941d 29bd 420c 943d 4867 bb3d 8753 ba3d
000000c0: b736 a53c 462d dabd cc99 4e3d 436a 1fbd
000000d0: 5a79 03be f48b 153d d911 0dbd 58a0 09be
000000e0: 63bf ef3d a868 413d b572 52bd 05c9 ca3d
000000f0: 81c1 99bd 9839 bb3c 4e4f febc 0034 c0bd
00000100: e2dc e9bd 5ab0 28bc d335 afbd be39 01be
00000110: 78d1 ed3d 8126 b73b 8d2c cbbd 979e d73d
00000120: 798f 023d 796f de3d 69d7 6dbc bc86 e93d
00000130: 50c6 cc3d c0ec bf3d 6bee 9fbc 6fdd a939
00000140: 770f e5bd e0fd bfbd 239c 96bd 39fd acbd
00000150: bba2 bf3c edc0 e2bd eca7 ff3d b3c5 aabd
00000160: c292 bfbc 658b 9a3d 391c 55bc f12d 1d3c
00000170: ea83 a1bd d7ac 7b3d a8e7 b2bd b38c 233b
00000180: a038 e0bd bfaa 6dbd 5e0b 3a3d aad4 833d
00000190: d73e edbc 3d30 b13d cdf1 89bd 54f1 0f3d
000001a0: 157f 123d 40b4 083d 8533 55bc bad5 e5bd
000001b0: 5e01 0c3c f587 10bd 0bb2 ae3d 90aa f3bd
000001c0: 6752 ab3d 7df4 4c3d a91d c3bd 6c03 533c
000001d0: 8a40 583d 8503 fd3c 251d 0c3e 8493 aabd
000001e0: a4b5 9abd f962 eebd e15a b8bd 5a4c 9838
000001f0: 315d ecbc a27f b63d 1f7e a13d de91 52bb
00000200: ad75 e6bd 5c58 c7bd 3cf0 d739 732f d0bd
00000210: 884c eb3d 103d cc3c 318e 853d 4cde f43d
00000220: 0a34 c6bd 0faa 473d 0cf8 c8bc 0f4d b9bd
00000230: 3978 00bd adf4 92bd f3da 073c adfd 93bd
00000240: 79ed 073c f8d7 25bd a975 05bd dcd2 963d
00000250: fc2a bb3d 67de a6bd e90f b0bd e77c 0c3d
00000260: 00e5 dfbd 2d3f 77bd 6c58 07bd 944f cbbd
00000270: c304 d3bd d215 0fbe 2cc3 f2bd bfd0 30bd
00000280: 1ad4 3c3d 8c69 ad3d 94fd a5bd 460f f03d
00000290: c84a 27bc 6b91 c2bd bbc1 40bd 0531 763c
000002a0: 8e92 00be 489f f5bd 42d8 213d 69f0 ba3d
000002b0: 25b8 a03d f110 9eba 100a ff3d d24d e13d
000002c0: e281 f83a 5139 3dbd c0d0 d0bd c0e6 f73d
000002d0: ccbc d13c d3a3 6a3d b186 63bc 1eeb c83d
000002e0: 9a3e 043e daf2 21bd fe48 993d 5e14 263c
000002f0: 6f0c 673d a95e 0a3b 178e bc3c 41d5 8f3a
00000300: 0fca 3fbc 45f6 f83c f1fd ba3d e15f 613d
00000310: b770 a7bd f28e 36bd f897 243d 5d6d d4bc
00000320: e929 a13d 8b3c b5bd fb65 6fbb e21b b43c
00000330: a578 a1bd 25db b0bd 6828 e23c 917d 863d
00000340: adfa e8bd 6bde 2bbd 478b a4bd a0c5 cebd
00000350: d40f fabd b96e b83b d827 d83d 6f52 05be
00000360: 037e a9bd 690b 563d 1df7 f3bc 8e96 b03c
00000370: b198 983d 896b 233e 50f0 bcbd 43fb ebbd
00000380: f285 d93c 6b97 a9bd e895 153c ea09 ffbc
00000390: ba71 243d 9843 bc3c 5c42 d2bd bf97 ad3d
000003a0: 4a15 81bd 44e0 32bd 73a4 9e3b 75b6 983c
000003b0: c36a bfbd 5283 cebc 228d a23d 41b1 973d
000003c0: 241d dabd 04eb d8bd b4bf cc3d 8bbd f8bd
000003d0: fb73 04be 7a3e d33c e20e d53c 3a3c db3c
000003e0: 7ad1 a13d 3c9f adbd 58a5 c53c 7ba5 5d3c
000003f0: 83a2 5abd f6bc ec3d de1a b23d 9738 823c

_rnn.bias_ih_l0 f4 [64]
-0.020776251 -0.061667442 0.041280475 -0.05461974 -0.0716207 0.063053705 -0.03621299 -0.023643203
-0.10269963 -0.10151333 -0.11081972 0.11825024 -0.10900774 -0.053117115 -0.0013381403 -0.12805781
0.07249899 0.10391332 -0.10476352 -0.12341203 0.12457119 0.04011401 0.07724097 0.064896695
-0.04386869 -0.06944982 0.050651956 0.08105016 0.013155876 -0.104641676 0.07100416 -0.111311
0.0563411 0.08517623 0.017199306 -0.08311089 -0.03117721 0.06891872 0.024164816 0.033718467
0.08973793 0.057461217 -0.09042465 0.014599169 -0.09090964 0.09262428 -0.03741181 -0.061502077
-0.12064742 -0.10343111 -0.032085557 -0.09308592 -0.02575639 0.10732967 0.10655056 0.026261961
-0.0345087 0.08476118 -0.033541635 -0.0375687 0.063468896 -0.037007708 0.051639173 0.102892265
00000000: f532 aabc 0097 7cbd b715 293d f3b8 5fbd
00000010: e0ad 92bd 4d22 813d 1254 14bd 64af c1bc
00000020: 2f54 d2bd 39e6 cfbd 73f5 e2bd 2f2d f23d
00000030: 733f dfbd 5591 59bd 8a64 afba 9621 03be
00000040: 5a7a 943d 82d0 d43d 428e d6bd 72bf fcbd
00000050: 2e1f ff3d 974e 243d 8430 9e3d 8fe8 843d
00000060: a8af 33bd b53b 8ebd 6d78 4f3d a0fd a53d
00000070: be8b 573c 604e d6bd a16a 913d 06f7 e3bd
00000080: edc5 663d e070 ae3d 8fe5 8c3c 0b36 aabd
00000090: 5967 ffbc 4225 8d3d 4bf5 c53c 601c 0a3d
000000a0: 85c8 b73d 745c 6b3d 8f30 b9bd 5a31 6f3c
000000b0: d52e babd ccb1 bd3d 203d 19bd 9ae9 7bbd
000000c0: ff15 f7bd b1d3 d3bd 256c 03bd d5a3 bebd
000000d0: 11ff d2bc a8cf db3d 2e37 da3d 5323 d73c
000000e0: ff58 0dbd 4597 ad3d f462 09bd a3e1 19bd
000000f0: fbfb 813d 6595 17bd 9983 533d 2eb9 d23d

_rnn.bias_hh_l0 f4 [64]
-0.06161326 0.023133265 0.018906392 -0.13176934 0.039717313 0.04466583 -0.016949316 -0.04725667
0.07189567 -0.12630804 -0.049255192 -0.03633864 0.061626643 0.052737404 0.048145343 0.008664739
-0.029739108 0.015357544 0.03230832 -0.05490508 0.064720966 -0.042638276 0.04092541 0.06988165
-0.037541553 0.07463958 0.10394458 0.10255264 -0.07810993 -0.012815053 -0.11029144 0.12358933
-0.012516589 0.09184797 0.0026350531 -0.1113787 -0.081230104 -0.095443994 0.05209746 -0.09528019
0.00473503 -0.0032824392 0.07257483 -0.011230249 0.051151324 0.02254577 -0.050948694 -0.017467456
0.11987173 -0.091451995 -0.11471293 0.0974698 -0.11246862 0.086911716 -0.08451372 -0.09478388
-0.12873724 -0.035686173 0.017889515 -0.08818334 -0.11146182 -0.10877762 0.068345524 0.061494954
00000000: 305e 7cbd f981 bd3c 94e1 9a3c 8bee 06be
00000010: 9fae 223d 84f3 363d 4bd9 8abc 3690 41bd
00000020: 093e 933d e556 01be d0bf 49bd d3d7 14bd
00000030: 386c 7c3d 2d03 583d 0d34 453d 8df6 0d3c
00000040: 6e9f f3bc 359e 7b3c bb55 043d 26e4 60bd
00000050: 6d8c 843d 79a5 2ebd 67a1 273d 1c1e 8f3d
00000060: 2cc5 19bd a3dc 983d e5e0 d43d 1e07 d23d
00000070: 19f8 9fbd 3af6 51bc 7ae0 e1bd 671c fd3d
00000080: 6112 4dbc ca1a bc3d dbb0 2c3b 841a e4bd
00000090: f85b a6bd 2478 c3bd 2564 553d 4322 c3bd
000000a0: 4f28 9b3b 311e 57bb 1da2 943d 14ff 37bc
000000b0: 0d84 513d e8b1 b83c 94af 50bd e917 8fbc
000000c0: 4f7f f53d 2f4b bbbd 9dee eabd 3f9e c73d
000000d0: f355 e6bd c5fe b13d 8715 adbd 0d1e c2bd
000000e0: b2d3 03be aa2b 12bd 088d 923c 7899 b4bd
000000f0: 1846 e4bd cdc6 debd bdf8 8b3d 22e2 7b3d

_fc.weight f4 [1, 64]
-0.03470353 0.02076058 -0.019034863 -0.11589245 0.04093589 0.115385026 0.053165227 0.050702278
-0.11497002 -0.09237048 -0.094889514 0.04258552 -0.028279128 -0.054259446 0.08750554 -0.1290906
0.017298922 -0.016656669 -0.016764503 -0.04874468 -0.027146328 0.050290443 -0.10695262 -0.030088486
-0.09779004 -0.08512068 -0.13338801 0.016858324 0.02250869 -0.073501155 -0.00012640982 0.13037913
-0.01895765 -0.090018675 0.012448925 0.03963554 0.06919288 0.0940689 0.03924899 -0.06413903
-0.13221863 0.007523197 0.0021445476 -0.031244978 -0.122130826 -0.0800559 0.109086365 0.08473816
-0.09644879 0.051684655 0.028872687 -0.1125672 -0.06900189 0.05705338 -0.12822548 -0.047036503
-0.016511275 0.0074028806 0.104939274 -0.00094103586 -0.018896952 0.09377 0.03973984 -0.069095686
00000000: 4a25 0ebd 1812 aa3c 00ef 9bbc 0559 edbd
00000010: 64ac 273d fc4e ec3d c8c3 593d 31ad 4f3d
00000020: 6775 ebbd bc2c bdbd 6f55 c2bd 276e 2e3d
00000030: a1a9 e7bc 273f 5ebd 1b36 b33d 5430 04be
00000040: 78b6 8d3c 9173 88bc b655 89bc 80a8 47bd
00000050: fa61 debc 5afd 4d3d fa09 dbbd 217c f6bc
00000060: 2546 c8bd c053 aebd de96 08be 781a 8a3c
00000070: 2564 b83c c687 96bd e18c 04b9 1b82 053e
00000080: 134d 9bbc b65b b8bd 93f6 4b3c e058 223d
00000090: ffb4 8d3d 32a7 c03d 8dc3 203d 535b 83bd
000000a0: 5264 07be 2785 f63b 8a8b 0c3b 78f5 ffbc
000000b0: ba1f fabd 59f4 a3bd ac68 df3d 338b ad3d
000000c0: f186 c5bd 4ab3 533d 6a86 ec3c a289 e6bd
000000d0: dd50 8dbd ceb0 693d 8a4d 03be 59a9 40bd
000000e0: a742 87bc dd93 f23b 67ea d63d d9af 76ba
000000f0: c8cd 9abc 7c0a c03d 3ec6 223d 0a82 8dbd
