trained_models/min_gts_temp/lstm_model_1632058068.pt (torch, 72727 bytes, 5 tensors)

lstm.weight_ih_l0 f4 [256, 3]
00000000: d6ea 803d f0cb ba3c d531 8e3d 48cf 99bd
00000010: ee94 42bc 9690 ad3d b48c ac3d e111 02bd
00000020: 4258 3bbd 2109 f6bc daed 37bd 1776 febc
00000030: 9acf a8bc 16ce 9cbc 488b f53d 9b00 4a3c
00000040: c06a 6abd 5c75 243d 159d bebc cc09 c23d
00000050: e74c 063e dc31 f0bd 5422 c83d d2b5 f1bc
00000060: 89ad 28bd f580 4f3c cbf7 0f3d 41bd a5bb
00000070: 1730 4ebd 7c02 90bd 337b ac3d 41b9 d2bc
00000080: 6d2d 213d b417 04be 0884 ab3a 9034 5abb
00000090: 3d70 0ebc 67ed d83d d440 b23d 9d1f 86bd
000000a0: b66c ecbd fa12 d03d aeac fe3d 262e fb3d
000000b0: 2c8b 9b3c 759f b63c e7fa 363d a4e4 0ebc
000000c0: ffc8 e1bc 2e93 c3bc 6dff b1bd 9e8f d8bc
000000d0: 42e3 fa3d 9cf5 ae3b 85fd c7bb 0fdf 71bc
000000e0: 7fa8 c13d a781 fdbd a940 b23d 4db1 04be
000000f0: 0ba6 ecbd 82ba bebd 3a5e 8f3d 9d20 c2bd
00000100: 0621 76bd 6d4b 8abc 5e07 ddbd e196 85bd
00000110: 4f69 233e 562e ebbd 9a35 bdbd 87aa dbbc
00000120: 0645 913d cf9e 493d bffb 333d 8688 ecbd
00000130: 9d20 0ebd a632 073c 62c4 13bd 01f0 b3bd
00000140: 0ce5 83bd 1442 b63d b3ed a5bc a622 46bc
00000150: 0df7 0bbc fd81 0fbd 1989 c73d 0998 61bd
00000160: e1a8 1c3c bafa df3d 305a debd 0d82 513d
00000170: 6f40 003e 0037 693d f910 b73c 2b9c a2bd
00000180: 4015 b5bd 18aa 8c3c f132 c7bc fcda 99bd
00000190: 0222 5cbd ff32 713d c39c 2f3c 73a3 9a3c
000001a0: 0fb8 073d f2c6 a93d 906b bebb 1772 0e3e
000001b0: 8bed 58bd 3943 bfbd 167a 80bd a987 023d
000001c0: 1ad2 efbc 4bd0 833d 3cd9 5d3c c442 f3bd
000001d0: 03bc 273c f1cc 9abd 6192 a9bc 6267 f8bc
000001e0: 5676 3d3d 6441 a1bd 3c7e 5c3d f4b7 21bc
000001f0: fda3 8d3d 1594 313e fc43 5a3d b1c5 a53c
00000200: 3312 ca3c a1dd f4bc 91c6 c9bd d08a de3c
00000210: be92 b33c 1161 b03d 278d f93d ca78 e43d
00000220: 2cff 943c 9dbb efbc 8612 163c 04b2 8d3d
00000230: 0a10 3cbd 1aa6 433d 4c8e 50bd b4f4 833d
00000240: 854a 8e3d 9d2f a4bd 7e93 2e3b a9dc 99bc
00000250: 53f7 a0bd 91eb 07be 838d c63d 707b 8f3d
00000260: 51bf 31bc ab3f de3c e403 c1bc 922b 75bd
00000270: 68b0 913c 2fd2 e53d 5129 693d 1e9a c43d
00000280: ede0 ea3c 29b5 a4bd d4f9 48bd 3dfc a3bd
00000290: badf 8dbc 048f a3bd 5ff7 d13c 9631 b63d
000002a0: 3c5a 1a3a 5506 fabb 2226 9d3d 68f0 5b3d
000002b0: a154 e0bc 0729 2abc 51e9 983d 6a99 edbd
000002c0: dc60 f5bc 605a 3f3c 0598 d43b c9c0 9cbd
000002d0: e2f8 ec3c 16e9 e0bd 8696 fb3c db4d c33d
000002e0: 7e6e db3d 9d5c 7a3b 884c e5bc 51d1 01be
000002f0: 4f9e e23d 113d 4dbd 1bbf 43bd dd5e 243d
00000300: aca4 ff3d d7b5 c43d a8c2 0e3e a869 1a3c
00000310: d6af 643d cb34 793d 4022 3c3d 09dc 903d
00000320: 17b5 bb3d 83ed 1c3c 7b08 e0bc c2b3 a63c
00000330: 6c97 d4bd 7bec 893d 2f66 c33c 0f75 68bd
00000340: 95f8 863d 608d 573d af73 7cbd 2674 53bd
00000350: fcca bb3d 61c3 d53d 2c01 67bd 1df5 953d
00000360: 28a5 06bd 2051 18bd 5f21 f23b 873e 9fbd
00000370: 67e6 a9bc b7d8 a2bd c463 153d f1e3 fe3d
00000380: 9d74 a13d e94f b33d 5401 8abd 1246 453d
00000390: 2ad4 303d 3e19 06be 9aac af3d 8427 e4bd
000003a0: b545 f33d 5355 f33d 9c34 6d3d a1f6 803d
000003b0: f6e7 a33d 265c 5b3d 328a 903c 3cb4 943d
000003c0: 9029 523c a7d2 f33d 6935 cc3d ea2d ffbd
000003d0: 2e75 bbbd 2f36 d73c 9948 d43d 8da5 fdbd
000003e0: 5842 59bd 5d09 92bd edc2 b53c a662 fbbd
000003f0: 40b8 80bc bdef 173a cd52 9b3c fbb0 74bc
0.062947914 0.022802323 0.069430985 -0.07510239 -0.011876328 0.08474843 0.084252745 -0.031755332
-0.045738466 -0.03003365 -0.044904567 -0.031062169 -0.020606805 -0.019141238 0.119894564 0.012329246
-0.05723071 0.040150985 -0.023268262 0.09474525 0.13115273 -0.1172826 0.097721726 -0.029505644
-0.04118112 0.012665023 0.035148423 -0.005057961 -0.05033883 -0.07031724 0.08421936 -0.025723102
0.039349962 -0.12899667 0.0013085613 -0.003329549 -0.008693752 0.10592156 0.08703771 -0.065489985
-0.115441725 0.101598695 0.1243528 0.122646615 0.01898726 0.022292832 0.044672873 -0.008721504
-0.027561663 -0.023873892 -0.08691297 -0.02643567 0.12250377 0.0053393375 -0.00610322 -0.014762654
0.09455966 -0.12378245 0.08703739 -0.1295826 -0.11555108 -0.09312917 0.07000394 -0.09478877
-0.060090087 -0.016881669 -0.10792421 -0.065229185 0.15958141 -0.11483447 -0.09238739 -0.026814712
0.07093243 0.049223717 0.043941256 -0.11549477 -0.03469907 0.008251822 -0.036075957 -0.087860115
-0.064401716 0.08899322 -0.020254945 -0.012093222 -0.008542788 -0.035036076 0.09742946 -0.055076633
0.009561748 0.10936494 -0.10857046 0.051149417 0.1252458 0.056937218 0.02234696 -0.07939943
-0.08841944 0.01717095 -0.024316283 -0.07512471 -0.05374337 0.058886524 0.010718527 0.018876767
0.033134516 0.08289899 -0.0058111623 0.1391071 -0.052960914 -0.093389936 -0.06273286 0.031867657
-0.029274989 0.06436213 0.013540562 -0.11877969 0.010237697 -0.07558621 -0.020699682 -0.030322734
0.046255432 -0.078738004 0.053831324 -0.009870518 0.06916044 0.17341645 0.05328749 0.020235868
0.024666881 -0.029890837 -0.09852327 0.0271658 0.021920558 0.08612264 0.12185126 0.11155851
0.018188082 -0.029264266 0.00915969 0.069187194 -0.045913734 0.04776583 -0.050916955 0.06443158
0.06947807 -0.08016894 0.0026638205 -0.018781977 -0.07859673 -0.13273455 0.0969496 0.07005966
-0.010848836 0.027129969 -0.023561426 -0.059856005 0.017784312 0.1122173 0.056924168 0.09599708
0.028671706 -0.08042366 -0.04906638 -0.08007095 -0.017318595 -0.079862624 0.025630651 0.088961765
0.000588808 -0.0076301494 0.07673289 0.053696066 -0.027384104 -0.010385758 0.074663766 -0.11601527
-0.029953413 0.011679262 0.0064878487 -0.07653958 0.02892727 -0.109819576 0.030711424 0.09536334
0.10714434 0.0038202174 -0.027990595 -0.12677504 0.11065351 -0.050107066 -0.047789674 0.04012953
0.124825805 0.09604996 0.13941443 0.0094246045 0.055831753 0.060841363 0.0459311 0.070732184
0.091653995 0.009578112 -0.027347794 0.020349387 -0.10380444 0.06734558 0.023852436 -0.05675226
0.06590382 0.05262506 -0.061633762 -0.05162444 0.091695756 0.10437656 -0.056397602 0.07322142
-0.03287235 -0.03718674 0.007389232 -0.07775598 -0.020739747 -0.07951491 0.036472097 0.1244582
0.0788357 0.08755476 -0.067385346 0.048162527 0.043171085 -0.13095567 0.08577843 -0.111403495
0.1187853 0.11881509 0.0579115 0.06297041 0.080032274 0.053554676 0.017644022 0.072609395
0.012827292 0.11905413 0.09971125 -0.12459929 -0.091532096 0.026270954 0.103654094 -0.12385092
-0.053041786 -0.07130692 0.022187674 -0.12274675 -0.015712857 0.00057959167 0.01896038 -0.014934774

lstm.weight_hh_l0 f4 [256, 64]
00000000: f1be dfbd 1b4d b83c d80a 7dbb 485f 13be
00000010: f8f8 183d 661c debd 5611 803d 1ef7 453d
00000020: 1bc8 c73d d860 b03d 2813 0abd 74af 1fbd
00000030: 0863 f43d 17d1 3a3d 5b33 5bbc 2f64 b63d
00000040: 436a f43c 9fd9 663d f393 3bbc e858 f33d
00000050: cec2 15bd 2ab4 213d ecec 0bbe 5785 afbd
00000060: 9b29 03be 9265 3f3c 5e6e 08be 54fe 09be
00000070: 7b1a 233d 78c0 b0bd ba57 6bbd 7187 8b3d
00000080: 4c23 c2bd 3a15 59bd 0f49 acbd a2a9 b73d
00000090: 69e1 65bc 34bd b43c 31fa 653d d4c4 65bd
000000a0: 8c7c c73d 8ab2 d1bb dc04 93bd 89c9 b33d
000000b0: b81d 083e 6533 7d3d b528 c13d 4c1c 34bc
000000c0: c61f b0bc d011 48bd 5da6 c0bc 502d 703d
000000d0: e2db 923d d166 273d 6587 efbd 412d babd
000000e0: 7f62 0bbe 5c46 59bd f08a 89bd 82c6 1dbe
000000f0: e9fd 7b3d 6020 ddbc 795e 883c 02dd cdbd
00000100: 0784 ef3c ea5a 8c3a 3af6 aa3d 00c9 fe3d
00000110: 5f96 b8bc 4d68 86bc e66f f3bc 9676 d33d
00000120: 81ec 633d 6735 e13d 476b 673d 4fd0 833d
00000130: be1f 4a3d c99b c6bd 57e5 4e3d fa37 3bbd
00000140: 16a8 a2bd 8cb8 3b3d e8dd 0abd 780b a33d
00000150: 574e 6b3d d0cc 24bd 9521 9bbc 937f aa3d
00000160: fa2c 1cbd 2f0c d1bd e3d6 443c 5386 67bd
00000170: 42e0 923d e2a7 283d 7fb4 db3d cc2f f73d
00000180: 09cb 65bc 6e3f aebb b62f 973d 6de7 673d
00000190: e47f b8bd 2590 383d c44a dc3d 0759 a3bd
000001a0: 5517 123d 0e97 303d 3d19 df3d 0ea3 03bd
000001b0: 07cc 29bb 8189 eabd dbaa acbd 881e 273d
000001c0: 14ab f03d 75a1 ebbd c2c4 ed3d b3d0 3ebd
000001d0: 1565 8c3d 341f 9dbd cec6 0cbe 07f7 8bbd
000001e0: 0a32 7a3d 6550 913c 0d22 033a 9550 8bbd
000001f0: d2c5 04be 9311 fb3d 8073 f43c e3c0 2cbc
00000200: a9eb fbbd 2e64 643c 7bbd 0b3d 8fc2 c83d
00000210: 62eb 4bbd f79c 93bd 05c3 db3d 0002 11be
00000220: eb1b ba3d 9bd6 b2bd 8339 20bd 3340 3e3c
00000230: 90d5 2d3b cc56 fc3d e12a 33bd ca25 e0bd
00000240: 5d71 763d 79e9 83bd 3179 1c3d b9d1 143c
00000250: 0d94 d13d 9060 b23d ea9e fc3c d0a6 b9bd
00000260: ca45 07be 3544 b6bd acd2 c63d feb5 c03b
00000270: 1b76 b8bd 7b38 cdbc 0add 1b3d 3e7a 4cbd
00000280: 200e 443d 3e2a 433d 108c 8abd 26be e73d
00000290: fde4 ae3b f0e1 46bd bacc c93d 1ced 9f3b
000002a0: 68b3 6dbd 295c 9dbd ee7f f4bd 01ef d0bd
000002b0: 3bb2 063e 3945 2f3c 21d7 903c c5bc 03bd
000002c0: 8084 233d 64c1 08bd a98a fb3d 6478 cabd
000002d0: 2f1c 04bc 3092 7f3d 40b0 aa3d 3978 d03c
000002e0: 9213 98bd 6856 d43d 615d 5e3d bba0 91bd
000002f0: 3264 87bb efb4 57bd 72e6 b03d ccfd ac3d
00000300: 8795 303d f4e2 a73d dcfb 873d 1f52 debd
00000310: 618a a13d f16d 94bd 24c9 9abc 408a 943d
00000320: deca 5ebd ee02 613d bf5a 04be 6997 3dbd
00000330: 868b 783d 8523 9cbd aed1 7f3d c7c5 0ebe
00000340: bee1 d7bd dbb6 af3d d408 d13d b295 163d
00000350: 0f9f 7c3d fa57 7dbd bd5f b73d 93c5 0dbe
00000360: 9146 05be cfb2 443d cfd4 f3bd a132 913d
00000370: bab9 33bd 0fde c8bd 02d2 c53d f6b5 04be
00000380: 496c 71bd 417a 55bc d6d1 c3bd ad72 b93c
00000390: 2fc5 4a3d 6dee 013e a731 193d 6f8f eebd
000003a0: 4f35 dabd 634d 243c 9605 14bd 4926 45bd
000003b0: 4c63 5c3d a2ee 3d3d 5844 553d 98f7 96bd
000003c0: f6c8 e2bd 6618 51bd ba04 4f3d f791 8b3d
000003d0: 27db 0abe 1af0 cebd 919f d0bc ec30 41bc
000003e0: 72a9 b03d 643b ff3b 18f9 cf3d adad e3bd
000003f0: d895 f2bc 89bf a3bc 5834 133d d23a b6bc
-0.10925091 0.022497704 -0.00386112 -0.14391816 0.03734681 -0.1084526 0.062533066 0.048331372
0.09754964 0.086122215 -0.033709675 -0.038985685 0.11932951 0.04560956 -0.013378943 0.08905827
0.029835826 0.056359883 -0.011448848 0.11882192 -0.036562733 0.03947846 -0.13664597 -0.085703544
-0.1280884 0.011681931 -0.13323352 -0.13475925 0.039820176 -0.086304605 -0.05745671 0.06812943
-0.094793886 -0.05299876 -0.08412372 0.08967902 -0.014030793 0.022062875 0.056146804 -0.056095913
0.09740552 -0.0063994573 -0.07178661 0.08778674 0.13292587 0.06181659 0.094315924 -0.010993075
-0.021499526 -0.048845112 -0.023516828 0.058636963 0.071708456 0.040869538 -0.11695746 -0.09090663
-0.13611792 -0.053045616 -0.06715953 -0.15407756 0.061521444 -0.026992977 0.01664661 -0.100519195
0.02923776 0.0010708247 0.08347745 0.124406815 -0.02253264 -0.016407156 -0.029716443 0.10325353
0.05564547 0.10996514 0.056498792 0.06436216 0.049346678 -0.096976824 0.050511684 -0.04570768
-0.07942216 0.045830294 -0.033903033 0.07961172 0.057447758 -0.040234387 -0.018936912 0.08325114
-0.03812883 -0.10207402 0.012014124 -0.056524586 0.0717168 0.04117573 0.10727786 0.120696634
-0.014025458 -0.00531762 0.07382147 0.05661719 -0.09008768 0.045059342 0.10756448 -0.07975965
0.035666782 0.043112807 0.10893486 -0.032137923 -0.0025908963 -0.11452008 -0.084310256 0.0408006
0.117513806 -0.11505405 0.11609794 -0.04658575 0.06855217 -0.07671967 -0.13747713 -0.06834226
0.061082877 0.01773853 0.00050023274 -0.06802479 -0.12966087 0.122592114 0.029840231 -0.010544035
-0.12300808 0.0139399 0.03411625 0.09802734 -0.049785025 -0.07207673 0.107305564 -0.14160919
0.09087356 -0.08732339 -0.039117347 0.011611986 0.0026524998 0.12321243 -0.043742064 -0.10944708
0.060166705 -0.06441016 0.038201515 0.009083205 0.102333166 0.08709824 0.030837495 -0.0906502
-0.13210216 -0.08899728 0.09708151 0.00588107 -0.09006902 -0.025051346 0.038052596 -0.049921267
0.047865033 0.047647707 -0.06764996 0.11315565 0.005337356 -0.048555315 0.098535016 0.0048805606
-0.058032423 -0.07683594 -0.11938463 -0.102018364 0.13153927 0.010697656 0.017680706 -0.032162447
0.039921284 -0.033387557 0.12282307 -0.09886244 -0.00806336 0.062395275 0.08334398 0.025447952
-0.07425608 0.10368043 0.05428827 -0.07110735 -0.0041318173 -0.052662786 0.08637704 0.084468454
0.04311135 0.08197585 0.06639835 -0.10855507 0.07887722 -0.07247532 -0.01889474 0.072529316
-0.054392688 0.054934435 -0.12925242 -0.046286974 0.060679935 -0.07623962 0.062455826 -0.13942634
-0.10541104 0.08579799 0.10206762 0.036763854 0.061675128 -0.06185148 0.089538075 -0.138449
-0.130152 0.048022088 -0.119058244 0.07089735 -0.043878295 -0.09807979 0.096591964 -0.12960038
-0.05894116 -0.013029636 -0.095615074 0.02263769 0.049504455 0.12688608 0.037400868 -0.116484515
-0.10654699 0.010028216 -0.03613814 -0.048132215 0.053805634 0.046370156 0.05206713 -0.073714435
-0.110734865 -0.05104866 0.050541617 0.0681495 -0.13560162 -0.101043895 -0.025466712 -0.011791449
0.08626069 0.0077890623 0.10154933 -0.111171104 -0.029612467 -0.019988792 0.03593859 -0.022244845

lstm.bias_ih_l0 f4 [256]
00000000: 88b9 5f3d 9c96 ddbd 5f7b debd 73ce 3c3b
00000010: af64 fc3c 2deb 02bd 6a32 bd3d faf8 853d
00000020: 7469 8d3c 4d67 27bd 5803 8a3d d707 a83d
00000030: 44d6 dfbc 962b ff3c a46b d3bd 205d cbbd
00000040: 9f6f 803c 7bbf 83bd d8bf 533c 134a 833c
00000050: 74e1 edbc b3a7 263c 1500 e73c 4a72 853d
00000060: 4166 4dbd 0401 5f3d c31f f53a 176c 013d
00000070: 9707 d0ba 559e 083d 4d3a 53bd 1c0f 8dbd
00000080: 924d 65bd 5603 d83d d5d4 b5bd d051 49bc
00000090: 6309 e33d 9472 193b 56d7 babd d690 0dbd
000000a0: 5b97 853c 667b aa3d 12b1 973d 74d8 863c
000000b0: 4e39 acbd b69f aebc 6aed c7bd 9742 013e
000000c0: f78c 893d 4080 f23c 201c 303d c64c d0bd
000000d0: d9a2 093e 7e00 e33d d8e0 d6bc 3675 073e
000000e0: 6992 62bd 5a92 8ebd d3da 95bd cd22 2c3d
000000f0: 1846 f73d 8bdd d6bd 702d bfbd 6614 713d
00000100: c1d4 f1bc a7a8 88bd fe78 aa3d 7899 a33d
00000110: b7cd ed3d 10da e6bd 8b25 873d 39b2 403d
00000120: 4c91 5abb e865 8d3d 9fec 553d 4e78 84bd
00000130: 5ae0 743d 1973 81bd 0104 a03d b41a bbbd
00000140: 0029 183c 4242 be3d de98 6c3d 2ed2 dabd
00000150: 13b1 d23d 359f eebd 94d0 b2bd cd24 28bd
00000160: e273 e13c 2e2f 9ebd aad4 9cbd 4dcb 693c
00000170: 375c 3b3d 8bf6 34bb 4671 b6bd 07f8 803d
00000180: d3ef 40bd c0f1 873c c191 9a3c 68d0 c13c
00000190: 37ac a0bd d297 543d 0593 ad3c ebe8 ca3c
000001a0: d101 85bd 643f 093e 2916 f13d 4e00 ea3d
000001b0: a114 90bc 0956 c0bd dba7 a3bd d942 503d
000001c0: 9b9b 4b3d 247c 633d 305d 88bd a0ab 4f3d
000001d0: a78e 04bd 320a c3bd 75ab bbbd 364d cbbd
000001e0: bba0 6a3c a775 96bc b746 85bd 8039 0a3e
000001f0: 8718 7e3d 925d c2bd 511e 8ebd 5bae fb3d
00000200: 2b1b 7d3d f329 9cbc ff4a 0b3e 6e29 0dbe
00000210: f21d 9d3d 2383 063d 1357 4cbd ca9e 2abd
00000220: 00d0 e5bd b0ab 84bd ffef 9a3d bf60 f1bd
00000230: 86e8 243d fd32 25bc 491d bebd 8e48 55bb
00000240: a52a ff3d 05ec ba3d 6f0c a03d 030e cc3d
00000250: fd85 a8bd 5486 59bc ed81 753c fcc9 97bc
00000260: 67bc babc cd26 c73d 1943 30bd 6755 d3bd
00000270: 3f20 40bd 57e2 37bd 0f3b 42bd 8892 d3bd
00000280: e1f8 dbbc ba2c d43d bb43 5b3b 5668 e33c
00000290: 11c1 953c e1c5 cb3d 6442 83bc 05d6 b8bd
000002a0: 87a3 b63d 5dba fd3b 1649 763c 6469 88bd
000002b0: d204 a63d 224d 82bd fab2 053e f1b8 6bbc
000002c0: 5f9e 06be c48b d5bd f83b f0bd b428 d3bc
000002d0: eb26 e1bd e5f1 b63d d534 c1bd c46c 95bd
000002e0: bac0 4ebd b91f f2ba dc38 363c afea 503d
000002f0: 3293 fe3d 2d0d e73d 54c5 a4bd 072b dabd
00000300: 5fd7 983d 3d36 943d 739b c13d 14be 30bc
00000310: 29de 80bd c04d e23d 4e95 cf3c 26cc a03d
00000320: 8f60 053e 6cf3 09bd 8bd4 023e 5c57 6abd
00000330: 4070 e2bd f14c c93c a571 243c 59db 2b3d
00000340: 7c0e 98bc b123 983d 834e 403a 9eb2 25bd
00000350: bb4a 083e e0ab 09bd 8090 073d 6e1c 47bc
00000360: d67e 24bd 2db3 f03d 030f 4a3d 9561 963d
00000370: f335 e73c 9276 ed3d d1b5 87bd a526 833d
00000380: 4249 d13d 5d65 42bc 1b60 d1bd 5088 fc3d
00000390: 214d 443d e3d7 2a3d 68b4 9e3d dc25 9e3d
000003a0: 36cf 56bd b615 d33d 7d79 bcbd e42b c33d
000003b0: c5cb 9b3c 852f 593d 3813 133e 2194 873d
000003c0: f920 d2bc be0f 86bc d9d6 f3bd 4fc0 ce3d
000003d0: fa44 693d 5770 babb 16c3 c2bd c6ce 3e3c
000003e0: 87fe fb3d 3cc3 c03c ffbf 033e dbe2 203e
000003f0: db95 9e3d 56f4 00be d5c1 8b3d 66b9 9bbd
0.054620296 -0.10819742 -0.10863375 0.0028809577 0.030809728 -0.031962562 0.09238131 0.06541629
0.017262198 -0.04087 0.06738919 0.0820462 -0.02732385 0.031148713 -0.10323265 -0.099298716
0.015678225 -0.064330064 0.012924157 0.016026532 -0.029038168 0.010171819 0.028198281 0.065159395
-0.050146345 0.054444328 0.0018701482 0.031597223 -0.0015871403 0.033354122 -0.05156927 -0.068876475
-0.05598218 0.10547511 -0.08878485 -0.012287572 0.11085775 0.002341424 -0.09123103 -0.034561954
0.016307523 0.08324318 0.0740682 0.016460635 -0.084093675 -0.02131639 -0.0976208 0.12623058
0.0671634 0.02960217 0.042995572 -0.10170893 0.13441028 0.11084078 -0.02623026 0.13228306
-0.05531541 -0.06961508 -0.07317128 0.042025376 0.12073916 -0.10491475 -0.093348384 0.058857344
-0.029520394 -0.06672793 0.08323859 0.07988256 0.116115026 -0.11272061 0.06598958 0.047044966
-0.0033350764 0.06904203 0.052227613 -0.06468259 0.05978427 -0.06320781 0.07813264 -0.091359526
0.009287119 0.092899814 0.057762973 -0.1068462 0.102876805 -0.1165146 -0.08731189 -0.04105072
0.027521078 -0.077238426 -0.0765775 0.014269662 0.04574224 -0.0027612771 -0.08908324 0.062973075
-0.047103714 0.016594768 0.018868329 0.023658946 -0.078453474 0.0519026 0.021188268 0.024769267
-0.06494487 0.13403088 0.11771805 0.11425839 -0.017587962 -0.0939141 -0.07991 0.050845
0.049708944 0.05553831 -0.06658399 0.050700784 -0.032362606 -0.09523429 -0.09163562 -0.09926836
0.014320548 -0.018366648 -0.065076284 0.13498497 0.06203511 -0.09490503 -0.06939376 0.12289115
0.061793488 -0.019062972 0.13602827 -0.13785335 0.07671727 0.032839905 -0.049887728 -0.04165534
-0.112213135 -0.06478059 0.07565307 -0.11786031 0.040260814 -0.010082957 -0.092829295 -0.0032544467
0.12459306 0.091270484 0.078148715 0.0996361 -0.08228681 -0.013276655 0.01498459 -0.01852893
-0.022794915 0.097241975 -0.04303274 -0.103190236 -0.046905752 -0.04489359 -0.047419604 -0.10330683
-0.026852073 0.103600934 0.0033457119 0.027759712 0.018280538 0.09949852 -0.016022868 -0.09025196
0.08917909 0.0077431635 0.0150320735 -0.06660727 0.08106388 -0.06362368 0.13056555 -0.014387355
-0.13146351 -0.10427049 -0.11730188 -0.025776245 -0.10993751 0.089328565 -0.09433905 -0.07296136
-0.050476767 -0.0018472589 0.011121955 0.05100506 0.12430419 0.1128181 -0.0804545 -0.10652738
0.07462954 0.07236908 0.09453478 -0.010787506 -0.06292374 0.11049986 0.025339749 0.07851438
0.13025115 -0.03367941 0.12776391 -0.05721222 -0.11056566 0.024572821 0.010036861 0.041957233
-0.018561594 0.074286826 0.0007335918 -0.040453546 0.13309757 -0.03361118 0.03309679 -0.012152774
-0.040160023 0.11752925 0.049330723 0.07342831 0.028223967 0.11594881 -0.066264756 0.06403855
0.10219051 -0.011864987 -0.10223409 0.12330687 0.04792512 0.041709792 0.077492535 0.07722065
-0.052443705 0.103068754 -0.092028596 0.09529856 0.019018063 0.053023834 0.143628 0.0662005
-0.025650488 -0.016364928 -0.11906213 0.10095274 0.056950547 -0.0056896615 -0.09509866 0.011645978
0.123044066 0.023530595 0.1286621 0.15711538 0.077434264 -0.12593207 0.0682408 -0.07603721

lstm.bias_hh_l0 f4 [256]
00000000: e64c 66b9 8073 79bd 5a35 2c3d 67e0 20bd
00000010: 103b 99bd 3618 7e3d 1895 c03d c941 94bd
00000020: 2d06 4ebc 0794 e73d 4e98 0dbd 0c78 973d
00000030: 5589 c6bd 495d 2cbd 936e 303d 3ce7 a83c
00000040: f65b 0cbd 0b21 a9bd a00c b7bd 44c9 833c
00000050: a732 b73d 7e74 46bb 58ff 62bc da51 ebbd
00000060: b7e7 583c 51a7 993d 987e eb3d b34d 3bbc
00000070: 2ba1 0dbd 8fdf 543d 7b6b f53d c374 c6bd
00000080: 6231 d33c 8fde 03be 691b e83d 6a28 df3d
00000090: 7a40 423d 2e36 f93d 7b61 683d b5d7 7a3d
000000a0: c281 86bd 9017 a03c a46c 86bd 2666 e9bd
000000b0: 6501 083e b0b3 e3bd f2cf f53d fd42 84bd
000000c0: da2c b0bc 3dd8 e3bd 6e38 083d 6a7e 213d
000000d0: 90b6 893c 6813 f13c f081 cc3d e928 91bd
000000e0: a2e3 25bb 8fd7 77bc 6eb2 8fbc ab8d 973d
000000f0: 06db bbbd 8f30 b7bd ac6b 503d c1fd 0a3d
00000100: d466 4fbd aadc cabd 6c59 debc c80c 60bd
00000110: 6391 b6bb e82a 9dbd d57e 983d cab1 2dbd
00000120: fed4 803d f114 31bd 2a5d 7fbd d619 9cbd
00000130: 690c 9fbd bf0c e33d 8f6a e6bd e994 1c3b
00000140: 9112 883c 3879 633c 9a2b a83c 715b 0fbc
00000150: 0dee 46bc 178f b53d 41f8 a1bd c934 e9bd
00000160: 7742 e93d 183a dfbd 9eea 153d 8d14 88bd
00000170: fec2 f5bd fbb3 eebc fed8 a1bb 34ce 28bd
00000180: 3550 233c 10dc 0e3d 122c cabd 3bb8 dbbc
00000190: cab9 c23c 5324 e33d c1e0 b63d c3b8 b93c
000001a0: 397b 1c3d 481d 013e 37cd 083e 1f31 e33c
000001b0: c054 323d 2526 a13d c7f1 823d ebde 143e
000001c0: 598e 103d 4a0d d0bd c826 e4bb 0604 fa3d
000001d0: e004 573d 998d 16bd a209 853c e40c a5bd
000001e0: 0830 ea3d a040 2abd 4aea 9bbd 3eff 153c
000001f0: 317d 163d d4e6 b3bd 518a b1bd a231 813c
00000200: 8425 abbd ad51 b4bc 11c1 2bbd eb73 113c
00000210: 43c7 873d 9855 bcbd ea67 49bd 3796 aebd
00000220: 7881 5f3c 5dc1 adbd c614 5bbd 544d 9c3d
00000230: b8c9 8e3b e5bd 853c 9e24 d63c 94bd 9ebd
00000240: 2909 5dbd 9cc9 013d 93b8 d43d c247 013d
00000250: ec85 063c 5132 debd 3aab 40bd a082 d9bd
00000260: 6ffa c83d b8ea 203d 1595 f4bd c3e4 873d
00000270: f535 b9bb 03f4 cebd 8248 9bbc 5ef2 87bd
00000280: 9c3f 6cbd c7f0 5dbc dc17 3f3d 299e ee3d
00000290: 271e 2fbc 76f7 e6bd 877e 5fbc 4caa 95bd
000002a0: e93c e5bd c68f cebd 630d d7bd d8e3 7a3d
000002b0: 1be0 fd3d c7d2 493c 2d36 9dbd 18a8 9e3d
000002c0: fabb 53bd 3e72 833c 4fe9 fd3d 2fd1 bebd
000002d0: 6385 a9bd 9c7b d5bc 29c1 23bb cb70 623d
000002e0: 26af 71bd 4811 10bc 22f3 9ebd 7eaa 21bc
000002f0: 6377 593d c09f f7bd 6e6c 953d e4be b73c
00000300: 583f a93c 58bc 70bd beab 9fbd 59c5 db3d
00000310: 9ee7 e1bc dfcc 47bc 6f1a 4f3d fd75 0f3e
00000320: 454f c93d 9ef0 8a3d 91c5 a7bd 1ff3 933c
00000330: ad59 603d 17a0 2b3d c3d4 f5bd f40e c1bd
00000340: a82a a73d c8da e4bd 1021 a5bd 0a14 bfbd
00000350: d7dc acbd dac4 ae3d 0035 a53d c8c1 f4bd
00000360: f42a 833d 106d c9bd 93a0 763a d85c 86bd
00000370: 3528 22bd 1fcb 2ebd f6c0 54bc 416d 6a3d
00000380: bae3 86bd aee9 04be 784b 973c d3c2 923d
00000390: 6ac8 cbbd 75fe ab3d 4d4b bb3c 3849 103d
000003a0: f89d cb3d ae81 33bd f5b6 0bbc 73ea 063e
000003b0: 8a3f df3d df85 dfbd b64c a4bd 1386 963d
000003c0: 35db 83bd fa8b 9e3d c2db 873d aa1c 733c
000003d0: 5053 0cbc 4823 973c cec1 d43c ceaf 5cbc
000003e0: cfe7 323d e624 a63b 26b9 77bd 6e1f 823b
000003f0: 37f8 fa3d 71aa d1bd 3b07 cebd 378a 77bd
-0.00021963156 -0.060901165 0.042043068 -0.039276507 -0.074819684 0.062034808 0.094034374 -0.0723911
-0.012574715 0.11307531 -0.034569077 0.07395944 -0.09694163 -0.04208115 0.0430742 0.020618074
-0.03426739 -0.082582556 -0.08937955 0.016087182 0.08945208 -0.0030281837 -0.013854824 -0.11490221
0.013238839 0.07502616 0.11498755 -0.011432099 -0.03457753 0.051971015 0.11983391 -0.09690239
0.025780383 -0.12877868 0.11333353 0.1089638 0.04742477 0.12168537 0.05673359 0.06124087
-0.06567718 0.019542485 -0.0656369 -0.113964364 0.13281782 -0.11118257 0.12002553 -0.064580895
-0.021505762 -0.111252286 0.03325694 0.0394272 0.016810685 0.029428199 0.09985721 -0.07087881
-0.0025312682 -0.015127077 -0.017541137 0.07400068 -0.09172635 -0.08944809 0.050883934 0.033933405
-0.050635174 -0.099053696 -0.027142249 -0.05469969 -0.0055715307 -0.07674199 0.07446066 -0.04240588
0.06290625 -0.043232862 -0.062344708 -0.07622115 -0.07766039 0.110864155 -0.11250793 0.0023892468
0.016610416 0.013883881 0.020528603 -0.008749829 -0.012141717 0.08865183 -0.07908679 -0.11387021
0.1138963 -0.108997524 0.0366007 -0.06644545 -0.120000824 -0.029138556 -0.0049391976 -0.041212276
0.009967853 0.034877837 -0.09871687 -0.026821246 0.023770232 0.11090913 0.08929587 0.022671109
0.03820345 0.12608826 0.13359533 0.027733384 0.043537855 0.078686036 0.063937716 0.14538161
0.035292003 -0.10158785 -0.006962631 0.12207799 0.052494884 -0.03675613 0.016239945 -0.08059099
0.114349425 -0.041565537 -0.076130465 0.009155093 0.036740486 -0.08784261 -0.0866896 0.015770737
-0.08356765 -0.022011602 -0.04193217 0.008877735 0.06629803 -0.09196013 -0.049171366 -0.08524745
0.013641708 -0.08484147 -0.053486608 0.07631937 0.004357543 0.0163259 0.026140507 -0.07751003
-0.053963814 0.03168641 0.10386767 0.031562574 0.00821064 -0.10849441 -0.047038294 -0.10620618
0.098133914 0.039286345 -0.11942498 0.0663543 -0.005652184 -0.10105135 -0.018955473 -0.06638025
-0.05767785 -0.013546175 0.046653613 0.116512604 -0.010688341 -0.11277668 -0.013641006 -0.07307872
-0.11193258 -0.10086016 -0.105006 0.061252445 0.1239626 0.01231832 -0.07676349 0.07746905
-0.05169294 0.016045686 0.12398016 -0.09317242 -0.082773946 -0.026059918 -0.0024986959 0.05528335
-0.059004925 -0.008793183 -0.07761218 -0.009867309 0.05309237 -0.12091017 0.07296072 0.02242989
0.020660087 -0.05877337 -0.07796429 0.107310005 -0.027576264 -0.012194841 0.05056232 0.14009853
0.098295726 0.06784175 -0.0819198 0.018060265 0.05477302 0.04190072 -0.12003472 -0.0942668
0.08162433 -0.11174542 -0.08062947 -0.09329994 -0.08440559 0.0853364 0.080667496 -0.11951023
0.06404677 -0.09835255 0.00094080827 -0.06560677 -0.039589126 -0.04267418 -0.012985459 0.0572331
-0.06586404 -0.12979767 0.018468603 0.07166066 -0.09950335 0.08398143 0.022863055 0.035226077
0.099422395 -0.043824844 -0.008527507 0.13175373 0.10900791 -0.10914206 -0.08022444 0.073497914
-0.06438295 0.07741542 0.06633712 0.014838377 -0.008564785 0.01844944 0.02597132 -0.0134696495
0.0436781 0.0050703166 -0.060479306 0.003971032 0.122543745 -0.10237587 -0.10059973 -0.060434546

fc.weight f4 [1, 64]
00000000: e200 00be b9e1 623c 742b 9fbc acdf 0fbd
00000010: e0d0 e23d a5ef 9dbd 2e61 ebbd c285 6fbd
00000020: 869f 653d 516b e7bd f107 0dbe 7661 1bbb
00000030: 85d1 a8bd 6cde b4bc ac2f 6f3c 06a2 ac3b
00000040: d2ef e13d 7afa 6c3b 5f54 cdbd 5e3c d6bd
00000050: 73f6 05be 9c59 c43c 0f3b 28bd 4482 d63d
00000060: 7443 d9bd f4ab cb3d 9286 05be c92d 81bd
00000070: 98b2 e03d a74d cbbd a5b5 88bd 5416 e83b
00000080: a945 a93d 1760 bebc 6dea 853d 0256 c73c
00000090: 60ff c1bd d527 fd39 8954 93bd 8bac c1bd
000000a0: 802a 86bd 4484 83bd 2c54 42bd ccaa ed3d
000000b0: c57b fb3d 65c2 903d 1759 ce3b 6741 bf3d
000000c0: 359d d8bd 11ac cf3d c610 6b3d 0031 abbd
000000d0: 9da9 cc3c 4f69 12bd 5b91 4f3d 665d f6bd
000000e0: 21f4 f9bd aff9 a0bd e141 9fbd aa67 18be
000000f0: bcf4 083e 308a 61bd 4b21 4dbb 5575 81bd
-0.12500337 0.013847762 -0.0194299 -0.03512542 0.11074996 -0.07711724 -0.11493145 -0.05847717
0.056060337 -0.11299766 -0.1377256 -0.0023709214 -0.08243088 -0.022078715 0.014598768 0.005268338
0.1103207 0.0036160038 -0.10025858 -0.10460733 -0.13082294 0.02396851 -0.041071948 0.10474065
-0.10608569 0.09944907 -0.13039616 -0.06307561 0.10971564 -0.099269204 -0.06675271 0.00708274
0.0826524 -0.023239179 0.06538854 0.024333004 -0.09472537 0.00048285598 -0.07193858 -0.09456738
-0.06551075 -0.06421712 -0.047443554 0.116048425 0.122794665 0.07068328 0.0062972414 0.093386464
-0.1057686 0.10140241 0.057389043 -0.083589554 0.024983222 -0.03574496 0.05067573 -0.12029533
-0.12204767 -0.07860123 -0.07776237 -0.14883295 0.13374609 -0.055063426 -0.0031300362 -0.063212074
