trained_models/min_gts_temp/rnn_model_1632058079.pt (torch, 19735 bytes, 5 tensors)

rnn.weight_ih_l0 f4 [64, 3]
0	0x3e02b83d	0.12765594
1	0x3ddc6f0c	0.10763368
2	0xbd350391	-0.044192854
3	0x3df75d3d	0.12078331
4	0x3c1ccce0	0.00957033
5	0x3d739b94	0.059474543
6	0x3d63f2d4	0.0556515
7	0x3d41f280	0.047350407
8	0xbe154f02	-0.1458092
9	0x3d93cdfb	0.07217022
10	0xbca343ec	-0.019929849
11	0x3d8d449d	0.068978526
12	0x3dd06480	0.10175419
13	0xbd58996c	-0.05288069
14	0x3deac962	0.11464192
15	0xbddfc466	-0.10926132
16	0xbbb67b32	-0.0055688852
17	0x3db4afc8	0.0882259
18	0x3d8a81b7	0.067630224
19	0x3bb465ad	0.0055052848
20	0x3d2799aa	0.04091803
21	0x3d835d8d	0.06414328
22	0x3e065c2d	0.131211
23	0xbd9cebe3	-0.07662179
24	0xbde1f2c7	-0.11032634
25	0xbd19a474	-0.03751035
26	0x3d93334d	0.07187519
27	0x3e0d17a4	0.1377855
28	0x3d8a1132	0.06741561
29	0xbc4ff06c	-0.012691598
30	0xbdec5b6a	-0.11540873
31	0x3d9c5c6b	0.07634815
32	0x3e29c8a0	0.16580439
33	0x3c882ffb	0.016624441
34	0x3d65e410	0.0561257
35	0xbd7b0f5e	-0.061293952
36	0xbdbcee07	-0.092250876
37	0xbde4dc56	-0.11174838
38	0x3d9cc6f2	0.07655133
39	0x3c434d8c	0.011920344
40	0x3d8feb67	0.07027321
41	0x3de4233e	0.111395344
42	0x3d134eb5	0.035963733
43	0xbe031d54	-0.12804157
44	0x3cbd1e05	0.023085603
45	0x3dff446d	0.12464223
46	0x3cc9745b	0.024591615
47	0xbd576da1	-0.052594785
48	0x3d646ca8	0.055767685
49	0xbd7cb251	-0.061693493
50	0xbd85e30b	-0.06537446
51	0xbdc96abd	-0.09834812
52	0xbdbee8c5	-0.09321741
53	0xbd97b111	-0.074068196
54	0xbdd999dd	-0.1062505
55	0xbcf074db	-0.029352596
56	0x3d1447e2	0.036201365
57	0x3d59739b	0.053088766
58	0x3d4f785b	0.05065189
59	0x3e025364	0.12727123
60	0x3d9e97e6	0.07743816
61	0x3d9f576a	0.07780345
62	0xbdb95f14	-0.09051338
63	0xbd48ba44	-0.04900576
64	0x3de4a728	0.11164695
65	0xbdc6d7bd	-0.097091176
66	0xbd941dbd	-0.072322346
67	0x3dcdb173	0.100436114
68	0xbe2ca1e9	-0.16858639
69	0xbc26898a	-0.010164628
70	0x3cc94857	0.024570627
71	0x3d21c506	0.039494537
72	0x3c89e1c9	0.016831296
73	0x3ccd2cc6	0.025045764
74	0x3de2830f	0.11060154
75	0xbda311dd	-0.079623915
76	0x3d22c375	0.039737184
77	0x3da449da	0.080218986
78	0x3d93bba5	0.07213525
79	0x3dc1792d	0.094469406
80	0xbdc3afc5	-0.0955501
81	0xbdc1e4c1	-0.094674595
82	0xbd8f0f9a	-0.06985398
83	0x3de9898d	0.11403189
84	0xbdda003c	-0.10644576
85	0xbdf03f69	-0.117308445
86	0xbdb9b016	-0.09066789
87	0xbdc5f9af	-0.09666764
88	0x3db92f2f	0.09042203
89	0x3d1c2daa	0.038129486
90	0xbdbdfb37	-0.09276431
91	0x3d4bbbd3	0.04973967
92	0xbcc0902e	-0.02350625
93	0xbd946458	-0.072457016
94	0xbd347254	-0.044054344
95	0x3e24c4bd	0.16090675
96	0x3c28329b	0.0102659715
97	0xbdb42916	-0.08796899
98	0x3d4456c6	0.047934316
99	0xbd82196d	-0.06352506
100	0xbd8517ff	-0.064987175
101	0xbd86c50e	-0.06580554
102	0x3d3f2119	0.046662424
103	0xbcae2cd1	-0.021261605
104	0x3da02420	0.0781939
105	0x3dcfd332	0.10147704
106	0x3d8b65d1	0.06806529
107	0xbd4f6bb2	-0.050639816
108	0x3d4e2fa7	0.050338414
109	0x3d9c0003	0.0761719
110	0x3ae9538c	0.0017801388
111	0x3c8442be	0.016145106
112	0xbd4b6e0c	-0.049665496
113	0xbe009a63	-0.12558894
114	0x3cecfca9	0.028929072
115	0xbda9fe90	-0.08300507
116	0x3da05e98	0.07830542
117	0xbdc3030a	-0.09522064
118	0x3de27264	0.110569745
119	0xbd1fd243	-0.03901888
120	0xbdb451a9	-0.08804638
121	0xbd4fe1b2	-0.05075235
122	0xbdb78fae	-0.089629516
123	0xbda36b8f	-0.079794995
124	0xbdabf724	-0.08396748
125	0xbe13e3da	-0.14442387
126	0xbdc47db3	-0.09594288
127	0xbc644ca0	-0.013934284
128	0x3dd3df5a	0.10345335
129	0xbbb2eb53	-0.0054601817
130	0x3ca079b7	0.019589288
131	0xbe1687d3	-0.1470025
132	0xbdf22ad7	-0.11824577
133	0xbd76bd00	-0.06023884
134	0x3bde0e71	0.006776624
135	0xbd3faf9a	-0.046798326
136	0xbcfbb30c	-0.030725025
137	0x3d3cb6ed	0.04607289
138	0xbddc19b8	-0.10747093
139	0x3d327032	0.04356403
140	0x3df9a992	0.12190546
141	0xbc211835	-0.009832432
142	0x3d68c1d0	0.05682546
143	0x3e066029	0.1312262
144	0x3ddaed39	0.10689778
145	0x3df52729	0.1197036
146	0xbd52682a	-0.05136887
147	0x3db5a974	0.08870211
148	0x3d7762f2	0.060397096
149	0xbe19d224	-0.15021569
150	0xbd42d691	-0.047567908
151	0xbd40921c	-0.04701434
152	0x3e082fe7	0.13299523
153	0x3df47591	0.119364865
154	0x3d81f8eb	0.063463055
155	0xbd48a966	-0.048989676
156	0xbdb6ae4e	-0.08919965
157	0xbd83d2c4	-0.06436685
158	0xbdbb13d2	-0.0913464
159	0xbda69c3d	-0.08135269
160	0xbdcd3c40	-0.100212574
161	0x3db5d8ab	0.08879217
162	0x3d4cb15f	0.04997384
163	0xbc0662ed	-0.008202297
164	0xbe0cdab4	-0.13755304
165	0x3cb8c174	0.022553183
166	0x3da237a0	0.07920766
167	0xbe1ea278	-0.15491664
168	0x3c6dfadf	0.014525144
169	0x3d28a179	0.041169617
170	0x3e17022b	0.14746921
171	0xbd8f14b5	-0.069863714
172	0x3d7b34b8	0.061329573
173	0x3e085df3	0.13317089
174	0xbcf8a5e4	-0.03035254
175	0xbde5c2fd	-0.11218832
176	0xbddc8ed4	-0.1076943
177	0xbb3183d1	-0.0027086625
178	0xbc81025d	-0.015748197
179	0x3cf89b96	0.030347627
180	0xbdd96043	-0.106140636
181	0xbcf44f63	-0.02982301
182	0xbdd011cc	-0.101596445
183	0x3de41bc3	0.11138108
184	0x3d19cc57	0.03754839
185	0x3d2652bd	0.04060625
186	0xbd88bac5	-0.066762485
187	0xbd99c260	-0.07507777
188	0x3de461fa	0.111515
189	0x3c0b833a	0.008515174
190	0x3cba5e3c	0.022750013
191	0xbe1bdaa3	-0.15220122

rnn.weight_hh_l0 f4 [64, 64]
0	0xbd53cb35	-0.051707465
1	0xbd541bb6	-0.05178424
2	0xbd1c0a17	-0.03809556
3	0xbdf75840	-0.12077379
4	0xbcf6eb7a	-0.03014158
5	0xbdc3ce96	-0.095608875
6	0xbd519bca	-0.051173963
7	0x3cc85d7a	0.024458636
8	0xbdbab9cd	-0.0911747
9	0xbc4ac216	-0.012375375
10	0x3d563cf4	0.052304223
11	0xbdac8484	-0.08423713
12	0xbbe0494c	-0.006844675
13	0x3d417531	0.047230903
14	0xbdc9d4ad	-0.09855018
15	0xbce1de36	-0.027571779
16	0xbdab92a7	-0.08377581
17	0xbcec25eb	-0.028826674
18	0x3de64a9b	0.112446986
19	0xbdbd1b05	-0.09233669
20	0x3c222d12	0.009898441
21	0xbd8d206f	-0.06890952
22	0x3df1f798	0.11814803
23	0x3de9f50d	0.11423693
24	0xbdaa37f5	-0.08311454
25	0x3ac574b9	0.0015064693
26	0x3de31904	0.11088756
27	0x3d50f303	0.051013004
28	0x3dca9052	0.09890808
29	0x3de4c675	0.11170665
30	0x3d95e73a	0.073194936
31	0xbdab71ab	-0.0837129
32	0xbcffa79e	-0.031207856
33	0xbd8b0d52	-0.0678965
34	0xbdef95d6	-0.11698501
35	0xbd18b3c9	-0.03728083
36	0x3dc60a4a	0.09669931
37	0xbdd7833e	-0.10523079
38	0xbc544b51	-0.01295741
39	0xbd9f45da	-0.07776995
40	0xbc8183c8	-0.015809909
41	0x3d822394	0.06354442
42	0x3dc1ea32	0.09468497
43	0x3d8f8c2a	0.07009156
44	0xbd631fdb	-0.0554503
45	0xbda6fadd	-0.08153317
46	0x3c84ebee	0.016225781
47	0xbdcd8a80	-0.100361824
48	0x3c996f8d	0.01872995
49	0xbcf4ef49	-0.029899256
50	0xbce9f338	-0.028558359
51	0xbd386f6c	-0.045028135
52	0x3d2ec846	0.042671464
53	0xbc329845	-0.010900562
54	0x3de75127	0.112947755
55	0x3d24494c	0.040108964
56	0x3d310fc4	0.043227926
57	0xbdfcd3d6	-0.12345092
58	0xbdc9d0bf	-0.09854268
59	0x3d5ec3ba	0.05438588
60	0xbdf1ef04	-0.11813167
61	0xbdc28b1b	-0.094991885
62	0xbdec4845	-0.11537222
63	0xbdc34d1f	-0.09536194
64	0xbb052774	-0.0020317705
65	0xbc179a67	-0.009253121
66	0x3d9f58c3	0.07780602
67	0x3e0aaaa9	0.13541664
68	0xbd4ebd43	-0.050473463
69	0x3c980d52	0.01856104
70	0x3d60115e	0.054704063
71	0xbdd83d93	-0.10558619
72	0x3db771b8	0.08957237
73	0x3c7ebd43	0.015548053
74	0xbdab1b8f	-0.08354866
75	0x3dbf6562	0.09345509
76	0x3ddcee8b	0.10787686
77	0x3cb0b9f3	0.021573042
78	0x3d9dfe63	0.07714536
79	0xbdaa5b82	-0.08318235
80	0x3da05ed0	0.07830584
81	0xbd655d64	-0.055997267
82	0x3d3772c4	0.044787183
83	0xbd873d64	-0.06603506
84	0xbd83a521	-0.0642798
85	0xbd897d0f	-0.06713306
86	0x3d491fd6	0.049102627
87	0x3d927c0d	0.07152567
88	0x3db05d40	0.08611536
89	0x3d528647	0.051397588
90	0xbd261b02	-0.0405531
91	0x3e015fce	0.12634203
92	0x3dbdbfc1	0.0926509
93	0xbc8c4a1a	-0.017125178
94	0x3d883c1a	0.066520885
95	0x3db3f339	0.087866254
96	0x3d5f26ed	0.054480482
97	0xbd573d8a	-0.052548923
98	0xbd93ad09	-0.07210738
99	0x3d722120	0.05911362
100	0xbd5bf886	-0.053703807
101	0xbc23fc72	-0.010008918
102	0x3ca818f3	0.02051971
103	0xbe032bb1	-0.12809636
104	0x3d861121	0.06546236
105	0xbdb33e97	-0.087521724
106	0xbd15bfdc	-0.036559924
107	0xbd88787e	-0.06663607
108	0x3da827b4	0.08210698
109	0xbd943d44	-0.07238248
110	0x3dbb9a44	0.09160283
111	0xbd24b64a	-0.040212907
112	0xbdfe9136	-0.124300405
113	0x3da0611d	0.07831023
114	0xbd131e25	-0.03591742
115	0xbca1a00d	-0.019729638
116	0xbdeacc3b	-0.11464735
117	0x3dd29ab1	0.10283411
118	0xbd20b3de	-0.039234035
119	0xbe010112	-0.12598065
120	0x3dee0e46	0.11623816
121	0xbd83ebe9	-0.06441481
122	0xbd689439	-0.05678198
123	0x3d1be5f4	0.038061097
124	0xbd85098b	-0.06495961
125	0xbdb047f3	-0.08607473
126	0x3c9e3745	0.019313464
127	0xbdb59952	-0.08867134
128	0x3cf964b9	0.030443536
129	0xbd028541	-0.031865362
130	0x3db4ce44	0.088284045
131	0x3dc52ea5	0.09628037
132	0x3ada2638	0.001664347
133	0xbdce8bd7	-0.10085266
134	0x3db93b6e	0.090445384
135	0xbd022124	-0.031769887
136	0x3de5869d	0.11207316
137	0xbca5b4ca	-0.020227809
138	0xbdf8215d	-0.121157385
139	0x3cc52c58	0.024068996
140	0xbd4926b8	-0.04910919
141	0xbd6386ad	-0.05554836
142	0x3cd36d1f	0.025808869
143	0xbd921f1c	-0.0713484
144	0x3c516e3b	0.012782629
145	0x3c049b92	0.0080937315
146	0x3df8e787	0.12153535
147	0xbe187110	-0.1488688
148	0x3da29ed3	0.079404496
149	0xbd860b3c	-0.065451115
150	0xbd4d1cb8	-0.050076216
151	0xbd1bd56a	-0.038045324
152	0xbd976668	-0.07392579
153	0x3dc7d7d2	0.09757961
154	0xbcd3f05a	-0.025871444
155	0xbc067e74	-0.00820886
156	0x3d40c642	0.047064073
157	0x3dee4471	0.11634148
158	0xbd6815d7	-0.056661453
159	0xbdb4a3ed	-0.08820329
160	0x3d39da68	0.045374304
161	0xbcf9c0a5	-0.030487368
162	0x3c2a0a5c	0.010378446
163	0x3c52f0db	0.012874807
164	0x3cd67085	0.0261767
165	0x3da8927a	0.08231063
166	0xbc5ef014	-0.013607044
167	0x3d6219af	0.055200275
168	0xbcbfdcb5	-0.023420671
169	0xbd80f3fc	-0.06296536
170	0xbd05a115	-0.032624323
171	0x3d5e9825	0.054344315
172	0x3d012683	0.03153087
173	0x3dcf2e0e	0.10116206
174	0xbdcbfb53	-0.09960046
175	0xbdb94445	-0.090462245
176	0x3d9174c6	0.07102351
177	0xbc44a520	-0.0120022595
178	0xbde59073	-0.11209192
179	0x3d8664d1	0.06562198
180	0x3d8ef36e	0.06980024
181	0xbe038ea2	-0.12847379
182	0x3db0e551	0.08637489
183	0x3de00667	0.10938721
184	0xbd94e8e6	-0.07270984
185	0x3d5dc407	0.054142024
186	0x3de1def1	0.11028851
187	0xbd15c423	-0.036564004
188	0x3d25c84e	0.04047423
189	0x3deeec79	0.11666197
190	0xbcd2f5ec	-0.02575203
191	0x3c940aaa	0.018071491
192	0x3d74d131	0.059769813
193	0x3a64e46e	0.00087315484
194	0xbe156b30	-0.1459167
195	0x3dd61dda	0.104549125
196	0x3d40aefe	0.047041886
197	0xbd62d5a6	-0.055379532
198	0xbd9bbe89	-0.07604701
199	0xbb76bf74	-0.0037650736
200	0xbaebe7bd	-0.001799814
201	0x3ce69b4e	0.028150227
202	0xbd38d819	-0.04512796
203	0x3db89c4d	0.09014187
204	0x3de0c2b1	0.109746344
205	0x3d8370ab	0.06417974
206	0xbcf63cdb	-0.030058315
207	0xbd59f671	-0.05321354
208	0x3dc08a5d	0.09401391
209	0x3d89c7b8	0.067275465
210	0xbdd01acf	-0.10161363
211	0x3e028d04	0.12749106
212	0xbda2ceab	-0.07949575
213	0xbde1da6b	-0.11027988
214	0xbc33a8c5	-0.010965531
215	0x3d6c9a4c	0.057764336
216	0xbcfbc5b5	-0.030733922
217	0x3dbe00c3	0.09277489
218	0x3d505461	0.05086172
219	0xbde904fe	-0.11377905
220	0x3da31e63	0.0796478
221	0xbdf6ffb7	-0.120604925
222	0x3d904860	0.070450544
223	0x3dbda56e	0.09260069
224	0xbdebad2e	-0.11507641
225	0xbdf1a183	-0.11798384
226	0x3cd80fa2	0.026374642
227	0x3df87d2b	0.12133249
228	0xbc4aa109	-0.012367495
229	0x3db853aa	0.09000333
230	0x3e022721	0.12710239
231	0x3c8812ba	0.016610492
232	0xbca7f3e0	-0.02050203
233	0x3d9f1eab	0.07769521
234	0x3d08c3a6	0.03338971
235	0x3dc2c568	0.095103085
236	0x3d51bc3f	0.051204916
237	0x3db45c99	0.08806724
238	0xbd85310a	-0.06503494
239	0x3d9d4a9b	0.076802455
240	0x3c997c51	0.018736036
241	0xbcbfb64f	-0.023402361
242	0x3c4e8eff	0.012607335
243	0xbd929bd3	-0.07158627
244	0xbd82ff4d	-0.06396351
245	0x3ce2efff	0.02770233
246	0x3ce7e405	0.02830697
247	0x3d80e75c	0.06294128
248	0x3cce1bf0	0.025159806
249	0x3df46204	0.119327575
250	0xbdaebeab	-0.08532461
251	0xbd2b76f2	-0.041861482
252	0x3d7802f0	0.060549676
253	0x3d8374dc	0.064187735
254	0x3cc6b722	0.024257246
255	0xbc0d1cab	-0.008612792

rnn.bias_ih_l0 f4 [64]
0	0xbdb38e5f	-0.087673895
1	0x3de02fee	0.10946642
2	0x3c88215f	0.016617475
3	0xbdeb2e3e	-0.11483429
4	0xbc9cbc27	-0.019132687
5	0xbd5498ed	-0.051903654
6	0x3d8442ec	0.06458077
7	0xbcb0de74	-0.021590449
8	0x3b864fd9	0.004098874
9	0xbd8e46e9	-0.06947119
10	0xbd8fe553	-0.07026162
11	0x3dcd8ae3	0.10036256
12	0x3c67d7eb	0.0141506
13	0xbda6cc45	-0.0814443
14	0x3ca6ba86	0.020352613
15	0xbdac822f	-0.08423268
16	0x3e01033e	0.12598893
17	0xbdce1b91	-0.100638516
18	0xbc915fcd	-0.017745877
19	0xbdc6810a	-0.09692581
20	0x3daf52ee	0.085607395
21	0x3dc2c003	0.095092796
22	0xbda659dd	-0.08122609
23	0xbd483ac3	-0.048884165
24	0x3d370a3c	0.044687495
25	0xbd9ce9d3	-0.07661786
26	0xbcd679ae	-0.026181068
27	0xbd9f1412	-0.077675
28	0x3de1b6b2	0.110211745
29	0x3d231175	0.03981157
30	0x3c85bdc6	0.016325843
31	0x3dd4e9ff	0.10396194
32	0x3d073f99	0.033019636
33	0x3d8ec68b	0.06971463
34	0x3bb254b6	0.0054422272
35	0xbce31a8c	-0.02772262
36	0x3e03cb80	0.12870598
37	0x3d2439b8	0.040094107
38	0xbd19e063	-0.037567507
39	0xbd1172ab	-0.035509747
40	0xbd77deeb	-0.060515326
41	0xbd390cfe	-0.045178406
42	0x3d736a87	0.059427764
43	0x3b7ed822	0.003888615
44	0x3d624c72	0.055248685
45	0xbd9af0b8	-0.07565445
46	0xbcea2901	-0.028584005
47	0x3d91a0d3	0.07110753
48	0x3d8a7e32	0.06762351
49	0x3c932212	0.017960582
50	0xbdcac968	-0.099016964
51	0xbcd06316	-0.025437873
52	0xbdb0818c	-0.08618459
53	0xbdc674f7	-0.09690278
54	0xbd896f22	-0.0671065
55	0x3daf1290	0.085484624
56	0xbc18da83	-0.009329441
57	0x3da5ada5	0.08089761
58	0x3d81ecb8	0.06343979
59	0xbbc80297	-0.0061038244
60	0xbdd788b6	-0.105241224
61	0xbdc09f91	-0.09405435
62	0x3d69ef35	0.05711289
63	0xbd949028	-0.07254058

rnn.bias_hh_l0 f4 [64]
0	0x3d08a40d	0.033359576
1	0xbe051943	-0.12997918
2	0x3dc1fda8	0.09472209
3	0x3d139365	0.03602924
4	0x3dc13f85	0.094359435
5	0xbc6796c4	-0.014135066
6	0x3cc5643a	0.024095643
7	0xbc9a0fd4	-0.018806376
8	0xbd8d1814	-0.06889358
9	0xbdb39f0c	-0.0877057
10	0x3d4ad118	0.049515814
11	0xbd11e415	-0.035617907
12	0x3dc1c963	0.094622396
13	0x3d8fbb07	0.070180945
14	0x3d9b1212	0.07571806
15	0xbdb86a8a	-0.09004696
16	0x3de1dbc4	0.11028245
17	0xbddd9321	-0.10819078
18	0xbdc8fc17	-0.09813707
19	0x3bd0a4e4	0.0063673127
20	0xbd1fb05f	-0.03898656
21	0xbbde6b7f	-0.006787717
22	0x3da23aa2	0.079213396
23	0xbc5cf13a	-0.013485247
24	0xbcb1b5fd	-0.021693224
25	0xbda103c1	-0.07862044
26	0x3c276a26	0.010218179
27	0x3d835784	0.06413177
28	0xbd8e4cb8	-0.06948227
29	0xbddea528	-0.10871345
30	0xbd7b79a0	-0.061395288
31	0x3dc213f5	0.09476463
32	0x3c75185a	0.014959419
33	0x3d9338c9	0.07188565
34	0x3d0b083d	0.033943404
35	0xbc7feec7	-0.015620894
36	0xbc7bb837	-0.015363744
37	0x3c8bf067	0.017082406
38	0x3dad6c0c	0.08467874
39	0x3cc7bbcb	0.024381539
40	0x3ca909b8	0.020634517
41	0xbd9530d9	-0.072847076
42	0x3de91947	0.113817744
43	0x3dc3bd71	0.095576175
44	0xbd0dbd1b	-0.034604173
45	0x3def5678	0.116864145
46	0xbd1cb3fe	-0.03825759
47	0xbdef1271	-0.11673439
48	0xbd7f0727	-0.06226268
49	0xbda8f52c	-0.08249888
50	0xbdeb770b	-0.11497315
51	0xbddc2431	-0.107490905
52	0x3d0e8c94	0.034802034
53	0x3d4ee399	0.050510023
54	0xbd825ebf	-0.06365728
55	0xbca136dc	-0.01967948
56	0x3ddf87a6	0.10914545
57	0xbc66acbc	-0.014079269
58	0xbd0d080b	-0.0344315
59	0xbcf070b8	-0.029350623
60	0x3df731e0	0.1207006
61	0x3da5a2ef	0.08087718
62	0x3c060615	0.008180161
63	0xbdc85a5a	-0.09782858

fc.weight f4 [1, 64]
0	0xbcb1af2e	-0.021689977
1	0x3d1fce61	0.039015178
2	0xbe27d20e	-0.16388723
3	0x3df0f8a5	0.11766175
4	0x3d40c10d	0.047059108
5	0xbc88af1a	-0.016685057
6	0x3d3134b8	0.043263167
7	0x3d3f654a	0.046727456
8	0xbde8d443	-0.11368611
9	0x3ce9d252	0.028542671
10	0x3d9e1255	0.0771834
11	0xbd1f7e22	-0.03893865
12	0xbd228622	-0.0396787
13	0x3cc9f9f9	0.024655329
14	0xbdb49823	-0.0881808
15	0xbc2bbc5b	-0.010481919
16	0xbbee82f5	-0.007278795
17	0x3d36eb8f	0.04465824
18	0xbd90431d	-0.07044051
19	0x3da3ab83	0.07991698
20	0xbdf6d795	-0.12052838
21	0xbd32b50a	-0.043629684
22	0xbddb7716	-0.10716073
23	0x3dc255a5	0.09488992
24	0x3df4ac97	0.119469814
25	0xbd90355c	-0.070414275
26	0x3cfc990b	0.030834695
27	0x3d81f4e8	0.0634554
28	0xbd7e576d	-0.062095094
29	0xbda5f8b6	-0.081040785
30	0xbd4acd05	-0.049511928
31	0x3dfc615e	0.12323259
32	0x3d02bd95	0.03191908
33	0x3cbeeeb3	0.02330718
34	0x3dc7406a	0.09729083
35	0xbbad62ef	-0.005291335
36	0x3d92669d	0.07148478
37	0xbcef646f	-0.029222695
38	0x3d484376	0.04889246
39	0xb9240b0c	-0.00015644374
40	0x3d58ad71	0.05289978
41	0xbdec8df9	-0.11550517
42	0x3d045154	0.032304123
43	0xbdd56d23	-0.10421207
44	0x3ca68f25	0.020331929
45	0x3dc9a18f	0.09845268
46	0x3e087f61	0.13329841
47	0x3d9ca694	0.0764896
48	0x3dc35ec4	0.095395595
49	0xbdb93948	-0.09044129
50	0x3dffa7ca	0.12483175
51	0x3d88614b	0.06659182
52	0x3d77ffd6	0.06054672
53	0x3cd2ff9e	0.025756653
54	0xbdf917fc	-0.12162778
55	0xbe074f3c	-0.1321382
56	0xbda5c4c6	-0.08094172
57	0x3bbceafe	0.005765318
58	0x3da97391	0.08273996
59	0xbcc77cb2	-0.024351452
60	0xbcb80811	-0.022464784
61	0x3dbb5ba2	0.09148337
62	0xbd451e4a	-0.04812459
63	0xbd08b226	-0.03337302
