trained_models/max_temp/lstm_model_1632050707.pt (torch, 72727 bytes, 5 tensors)

lstm.weight_ih_l0 f4 [256, 3]
0.089448184 0.10021775 0.023933847 -0.12843098 0.0065313806 -0.12368066 -0.12992077 0.05772068
-0.09134253 -0.004837201 0.12733091 0.037258524 0.0870337 -0.04562042 0.110692725 0.070278466
0.015673304 0.1342466 0.045982786 0.055755813 -0.10925106 -0.103049 0.039987754 -0.060960136
-0.03898587 -0.01805406 0.028024899 -0.07179425 -0.06960655 0.13541931 0.115287766 -0.015190623
-0.10887826 -0.023056429 -0.0041406187 0.08765484 0.080996804 0.1215263 -0.02568697 0.10055934
0.01372638 -0.06290965 0.112177014 0.03609274 0.1641684 -0.002143548 -0.08195082 0.1364397
-0.05541423 0.02695663 0.016197566 0.08265518 0.062531665 0.13179961 -0.04065652 0.055142786
0.059379555 -0.05127732 0.09267163 0.08756561 -0.05962591 -0.07814886 0.051877137 0.09803055
0.04086102 -0.07553741 -0.083084226 0.08198795 -0.056186873 -0.04346568 0.002264577 0.012464152
0.07680018 -0.023157427 0.022553291 0.059328385 0.0021459796 0.05593298 0.03692834 0.10007267
0.13957424 -0.04236357 -0.0735206 0.09238552 0.00022920217 0.10189359 0.04095405 -0.042831484
-0.038468286 0.05279958 0.06339477 0.13061205 0.025616398 0.06448452 0.048341315 0.0077685923
0.115952 0.009184266 -0.03499243 0.06491113 0.055194423 -0.02652618 -0.013591836 -0.10480589
-0.062791176 0.11605274 -0.052965794 0.031573594 0.10351449 0.027097 0.04907076 0.003138314
0.10384051 -0.07287324 0.054045327 -0.10973351 0.09116282 0.039939072 -0.07810308 0.046339594
0.09683503 0.110124126 0.022987224 0.07755762 -0.068682075 0.016525159 0.09234975 0.11504814
-0.06596719 -0.010254348 -0.001998819 0.05930714 -0.058891997 -0.049400825 0.060091596 -0.0553081
0.114666365 0.0021758287 -0.0006183307 -0.116489835 -0.11534694 -0.06151786 0.036297217 0.0038588168
-0.042514205 0.1650153 0.006548626 -0.04115765 -0.001782186 -0.035706814 0.11582591 -0.075196
0.075328365 0.06561748 -0.06291011 -0.112572774 -0.054033216 0.03353468 -0.04472295 0.07108855
0.124641225 -0.038618788 0.06772959 0.121666625 0.13400215 0.12667318 -0.06921848 -0.024044186
-0.07690275 0.064766586 0.14973442 0.040981792 -0.066534325 0.1395294 -0.049980607 -0.09743511
0.120333575 -0.015329886 0.019245313 -0.011021612 -0.015983025 0.07586672 0.06151604 -0.097824045
-0.08949802 0.10461113 -0.0776179 -0.016340679 0.11415265 -0.0708934 0.008616382 0.036840472
-0.008686366 0.0016435051 0.12777027 -0.061744105 0.04610542 0.06595909 -0.082927905 -0.014931136
0.0010564004 0.079333395 0.10358303 0.038432274 -0.06250721 -0.053183455 0.043485735 0.08349708
0.035896517 0.043807197 0.08177327 -0.10321728 0.012132556 0.12301563 -0.10377654 0.0011450376
-0.046504498 -0.024033772 -0.1303503 -0.059454784 -0.05101526 0.09728486 0.06872249 -0.07351792
-0.020116048 0.016355937 0.019917501 -0.056337774 0.046793975 -0.046214998 -0.035579763 -0.06886504
0.09324356 0.044133145 -0.0035959466 0.07787536 -0.06441 0.04468536 0.097465605 0.13628213
0.074994475 -0.034869336 -0.03340274 0.0979531 0.14821488 0.17582572 -0.043560885 0.046343803
-0.068524174 0.10638643 0.03491296 0.1238415 0.099084 -0.03945544 0.12664025 0.048235312
00000000: 9c30 b73d f73e cd3d ea10 c43c 6983 03be
00000010: 3105 d63b 494c fdbd f309 05be 856c 6c3d
00000020: cb11 bbbd 6281 9ebb 0963 023e 659c 183d
00000030: b93e b23d 7adc 3abd deb2 e23d 28ee 8f3d
00000040: 4d65 803c f177 093e 7258 3c3d 3560 643d
00000050: 05bf dfbd 5b0b d3bd 33ca 233d 56b1 79bd
00000060: a6af 1fbd 1ce6 93bc 7994 e53c dd08 93bd
00000070: e18d 8ebd 5cab 0a3e fe1b ec3d 17e2 78bc
00000080: 91fb debd d6e0 bcbc 07ae 87bb 6184 b33d
00000090: a7e1 a53d c8e2 f83d 7b6d d2bc 0ef2 cd3d
000000a0: 9ce4 603c c6d6 80bd 10bd e53d fbd5 133d
000000b0: c31b 283e c57a 0cbb d5d5 a7bd d9b6 0b3e
000000c0: 08fa 62bd 27d4 dc3c c2b0 843c 1e47 a93d
000000d0: 9a10 803d 7af6 063e 7387 26bd 67dd 613d
000000e0: fa37 733d 2b08 52bd a0ca bd3d 9955 b33d
000000f0: 4c3a 74bd 820c a0bd 1f7d 543d 3ec4 c83d
00000100: e35d 273d 5cb3 9abd 1028 aabd 4ce9 a73d
00000110: 3524 66bd 1209 32bd 4c69 143b 7136 4c3c
00000120: 6a49 9d3d a5b4 bdbc aec1 b83c 5202 733d
00000130: 90a3 0c3b fb19 653d 2c42 173d e6f2 cc3d
00000140: 8dec 0e3e 6c85 2dbd f891 96bd 9f34 bd3d
00000150: fd55 7039 96ad d03d 6fbf 273d 1170 2fbd
00000160: ec90 1dbd 5f44 583d 1ed5 813d 2abf 053e
00000170: 7bd9 d13c 7610 843d 8b01 463d ad8f fe3b
00000180: 3e78 ed3d 9b79 163c 3954 0fbd 20f0 843d
00000190: 8c13 623d 6e4d d9bc 4bb0 5ebc 78a4 d6bd
000001a0: a998 80bd 0fad ed3d a9f2 58bd 5053 013d
000001b0: 68ff d33d 87fa dd3c 6cfe 483d 2cac 4d3b
000001c0: 55aa d43d 913e 95bd a25e 5d3d f6bb e0bd
000001d0: 93b3 ba3d 2797 233d 82f4 9fbd 96ce 3d3d
000001e0: 7251 c63d c288 e13d b44f bc3c 88d6 9e3d
000001f0: 30a9 8cbd c55f 873c de21 bd3d 5c9e eb3d
00000200: ce19 87bd da01 28bc 9efe 02bb 0bec 723d
00000210: bc38 71bd 8558 4abd 9b22 763d bf8a 62bd
00000220: 33d6 ea3d 5998 0e3b 7917 22ba 3992 eebd
00000230: 043b ecbd 27fa 7bbd 64ac 143d 34e4 7c3b
00000240: 6023 2ebd c5f9 283e db95 d63b ed94 28bd
00000250: 3d98 e9ba 4f41 12bd 2236 ed3d 5c00 9abd
00000260: c245 9a3d 7562 863d 04d7 80bd 8e8c e6bd
00000270: ef51 5dbd a95b 093d 692f 37bd e096 913d
00000280: e643 ff3d bc2e 1ebd d0b5 8a3d 5a2c f93d
00000290: dc37 093e 9db6 013e 6bc2 8dbd 50f8 c4bc
000002a0: 307f 9dbd 58a4 843d fb53 193e 86dc 273d
000002b0: 2643 88bd cce0 0e3e 77b8 4cbd 0f8c c7bd
000002c0: 7371 f63d 342a 7bbc 59a8 9d3c fe93 34bc
000002d0: d5ee 82bc 0360 9b3d 3ef8 7b3d f957 c8bd
000002e0: bd4a b7bd 5c3e d63d 22f6 9ebd e3dc 85bc
000002f0: ddc8 e93d 8f30 91bd ba2b 0d3c 09e6 163d
00000300: 4251 0ebc e16a d73a 36d6 023e 63e7 7cbd
00000310: 09d9 3c3d 8f15 873d 1bd6 a9bd b9a1 74bc
00000320: ea76 8a3a 8c79 a23d 5723 d43d 296b 1d3d
00000330: c803 80bd e5d6 59bd 191e 323d 8400 ab3d
00000340: 3a08 133d 2d6f 333d bf78 a73d 9563 d3bd
00000350: a1c7 463c 9eef fb3d cb88 d4bd 1615 963a
00000360: 807b 3ebd 79e2 c4bc 8d7a 05be dc86 73bd
00000370: 61f5 50bd 493d c73d 60be 8c3d 9090 96bd
00000380: 69ca a4bc e3fc 853c 072a a33c 70c2 66bd
00000390: 0aab 3f3d f04b 3dbd 16bc 11bd 1d09 8dbd
000003a0: 7bf6 be3d f5c4 343d f9a9 6bbb 1e7d 9f3d
000003b0: 64e9 83bd ff07 373d 0c9c c73d 8b8d 0b3e
000003c0: b496 993d 26d3 0ebd 50d1 08bd a39b c83d
000003d0: a4c5 173e a80b 343e e66c 32bd 00d3 3d3d
000003e0: 6756 8cbd 21e1 d93d e400 0f3d 9da0 fd3d
000003f0: 8dec ca3d 079c 21bd fbad 013e 6492 453d

lstm.weight_hh_l0 f4 [256, 64]
-0.0879847 -0.08121101 -0.039478038 -0.1346387 0.032000378 0.036955062 -0.05914443 -0.014305051
-0.11155099 -0.051634192 -0.05084008 0.029762262 -0.03710867 0.0927522 -0.03135305 0.106447116
0.07659038 -0.02502359 0.11399435 -0.08248003 -0.05964461 0.10115094 -0.09133548 0.053076085
0.031501926 -0.059711244 -0.1413433 -0.06861893 0.027975332 0.024706932 -0.038340792 -0.06734618
-0.05858744 0.06074888 -0.031938024 -0.060178597 0.1477445 -0.050576128 0.03250586 0.13062839
-0.07305357 -0.12442045 0.020320585 0.0962962 -0.032651503 -0.06802595 -0.018775782 0.07892765
0.02100029 -0.13152607 -0.008419788 -0.029336322 0.06408053 0.054547906 -0.12390101 0.10236721
0.058901817 -0.02649571 0.020360641 -0.041467983 0.0032332235 -0.047274217 -0.094847836 0.046239395
0.077751465 -0.03486957 0.08226106 0.033930235 0.1107314 -0.020910082 0.09464285 0.07803673
0.027496452 -0.08097949 -0.009672056 0.04757071 0.038010225 -0.045950975 0.0336136 -0.12949257
0.08388468 -0.09606226 0.014383216 -0.09193509 -0.08475915 0.10435288 -0.09631368 -0.12841365
0.07487108 0.050855756 0.010323649 0.016372494 -0.00066406437 -0.03861184 -0.0571828 0.051050283
-0.106125966 -0.0076468065 0.049981326 -0.057124257 -0.04293193 0.111606784 -0.025742084 0.0079914015
-0.108694345 0.10215174 0.04344903 0.067741185 0.10996615 -0.04343015 -0.044822093 0.06261878
-0.039765194 -0.11603897 0.014577392 -0.04751979 0.122802466 0.095862016 -0.004418805 0.041662987
0.1319761 -0.061738163 -0.026860075 -0.061719 -0.093551375 -0.06619706 -0.08552695 -0.057851408
-0.067232125 0.049472492 -0.095688894 -0.10347241 0.04651448 -0.021461228 -0.044632785 0.077140845
0.050813176 0.10828774 -0.10270267 -0.059375424 -0.062276322 -0.106178686 -0.08684843 -0.009683988
-0.011700359 -0.06265446 -0.0653112 -0.022560664 -0.065700665 0.13340656 0.016872326 0.044216305
0.093598604 -0.026546475 0.05589481 -0.072053105 0.06181664 0.08502767 -0.10240066 -0.0667427
-0.067906104 -0.08524498 -0.13162485 -0.08549791 -0.068827115 0.080143936 0.10952265 0.048013397
-0.034516864 -0.10335992 0.11786772 -0.10874706 -0.012229138 -0.084704384 0.019994838 -0.056363657
0.10616046 -0.09456137 0.05310269 0.051527075 -0.10992323 -0.059527405 -0.08013433 -0.015085658
0.06182781 -0.11206898 0.08187629 -0.03775639 -0.012022344 -0.102078505 0.11765955 -0.06845201
0.036659736 -0.0447781 -0.11980302 -0.023690619 0.12824611 -0.043677293 0.049175527 -0.15001582
0.11145732 -0.044936743 0.06867551 -0.0818643 -0.09063543 0.0342992 0.091513455 -0.03633266
-0.13219033 -0.04338212 -0.023565244 -0.02052596 0.075539105 0.0077667115 0.06701118 0.039044883
-0.05704074 0.046413995 0.06249454 -0.12684402 0.0580151 -0.12078022 -0.0316281 0.06580456
0.013148912 -0.09317775 -0.049808476 -0.09156133 -0.05305662 -0.060318314 0.08370778 0.13621852
-0.1413202 -0.07055285 -0.050764423 -0.010678403 -0.10290563 -0.10063492 -0.013226983 0.021027116
0.10273037 0.01214727 0.08112934 0.03106162 0.042333048 -0.13371636 -0.009789002 0.13961856
0.07390542 -0.057215832 0.08874969 -0.02860791 -0.12980986 -0.07250341 -0.0031491828 0.021201978
00000000: 5331 b4bd f551 a6bd b9b3 21bd bade 09be
00000010: d412 033d 315e 173d 6e41 72bd bc5f 6abc
00000020: d874 e4bd 607e 53bd b03d 50bd fdcf f33c
00000030: 43ff 17bd def4 bd3d 0e6c 00bd f200 da3d
00000040: 6bdb 9c3d 46fe ccbc df75 e93d 4aeb a8bd
00000050: e84d 74bd 3928 cf3d 190e bbbd 4f66 593d
00000060: 2a08 013d c793 74bd 4cbc 10be 1588 8cbd
00000070: 862c e53c 3166 ca3c 3c0b 1dbd cbec 89bd
00000080: 62f9 6fbd d1d3 783d 72d1 02bd d57d 76bd
00000090: 564a 173e ea28 4fbd dd24 053d 73c3 053e
000000a0: 1c9d 95bd 26d0 febd 5b77 a63c f136 c53d
000000b0: 95bd 05bd 3051 8bbd abcf 99bc d2a4 a13d
000000c0: cd08 ac3c c5ae 06be 27f3 09bc ba52 f0bc
000000d0: a73c 833d a06d 5f3d d0bf fdbd e6a5 d13d
000000e0: 0843 713d 880d d9bc 5ccb a63c 55da 29bd
000000f0: 7de4 533b 9ca2 41bd 953f c2bd 8565 3d3d
00000100: 293c 9f3d 65d3 0ebd 7d78 a83d 6efa 0a3d
00000110: 25c7 e23d 9f4b abbc 1cd4 c13d b9d1 9f3d
00000120: 3d40 e13c 93d8 a5bd 8b77 1ebc 81d9 423d
00000130: 9cb0 1b3d 1737 3cbd 6aae 093d b399 04be
00000140: bbcb ab3d 4abc c4bd 95a7 6b3c 7748 bcbd
00000150: 3596 adbd f6b6 d53d 1b40 c5bd de7e 03be
00000160: 0256 993d 204e 503d 8624 293c 9c1f 863c
00000170: 9b14 2eba 7327 1ebd 8338 6abd 1a1a 513d
00000180: 9258 d9bd 1092 fabb 38b9 4c3d 20fb 69bd
00000190: 64d9 2fbd 1992 e43d 10e1 d2bc 5eee 023c
000001a0: 249b debd ee34 d13d 9cf7 313d e4bb 8a3d
000001b0: ef35 e13d d0e3 31bd 5f97 37bd 463e 803d
000001c0: d4e0 22bd d7a5 edbd 03d6 6e3c 1ca4 42bd
000001d0: dc7f fb3d 4e53 c43d 9fcb 90bb cfa6 2a3d
000001e0: be24 073e 28e1 7cbd a909 dcbc 10cd 7cbd
000001f0: dd97 bfbd 5392 87bd c128 afbd 99f5 6cbd
00000200: ffb0 89bd aba3 4a3d 8af8 c3bd 58e9 d3bd
00000210: f885 3e3d 75cf afbc ded0 36bd 05fc 9d3d
00000220: 7a21 503d f6c5 dd3d c755 d2bd a533 73bd
00000230: 7515 7fbd 3674 d9bd 97dd b1bd 97a9 1ebc
00000240: ddb2 3fbc fb50 80bd e1c1 85bd 24d1 b8bc
00000250: 128e 86bd bb9b 083e d537 8a3c 281c 353d
00000260: a0b0 bf3d fe77 d9bc f5f1 643d 9490 93bd
00000270: 7233 7d3d fd22 ae3d 70b7 d1bd 66b0 88bd
00000280: 5b12 8bbd ec94 aebd aac8 06be 8719 afbd
00000290: 3bf5 8cbd 8122 a43d 694d e03d b2a9 443d
000002a0: 8e61 0dbd 5eae d3bd a264 f13d c7b6 debd
000002b0: b95c 48bc 7e79 adbd 37cc a33c 94dd 66bd
000002c0: a86a d93d 64a9 c1bd 3582 593d 0e0e 533d
000002d0: 6e1f e1bd 02d3 73bd 781d a4bd d629 77bc
000002e0: 283f 7d3d 6c84 e5bd c2ae a73d 72a6 1abd
000002f0: 5ef9 44bc 890e d1bd 7df7 f03d 9130 8cbd
00000300: 8528 163d 3e69 37bd 495b f5bd d412 c2bc
00000310: f352 033e f6e6 32bd 476c 493d bf9d 19be
00000320: bc43 e43d 970f 38bd bfa5 8c3d 78a8 a7bd
00000330: 119f b9bd 517d 0c3d 686b bb3d 8ed1 14bd
00000340: e75c 07be 73b1 31bd e60b c1bc 0f26 a8bc
00000350: 3fb4 9a3d e67f fe3b 283d 893d 87ed 1f3d
00000360: 8da3 69bd 9a1c 3e3d 46fa 7f3d 66e3 01be
00000370: 3ea1 6d3d 9f5b f7bd 778c 01bd 8bc4 863d
00000380: 896e 573c fad3 bebd f903 4cbd 8284 bbbd
00000390: e651 59bd 5610 77bd fc6e ab3d de7c 0b3e
000003a0: 3eb6 10be 037e 90bd 5bee 4fbd 78f4 2ebc
000003b0: 30c0 d2bd ae19 cebd fdb5 58bc 0f41 ac3c
000003c0: 4d64 d23d 5805 473c 2427 a63d f074 fe3c
000003d0: 6b65 2d3d f1ec 08be 0d62 20bc 2bf8 0e3e
000003e0: ba5b 973d 265b 6abd 66c2 b53d 235b eabc
000003f0: e0ec 04be ab7c 94bd 8562 4ebb c5af ad3c

lstm.bias_ih_l0 f4 [256]
-0.07849186 -0.06658664 0.09547391 0.07883794 0.11706565 -0.034483787 0.040697634 -0.06691189
-0.08272644 0.1335618 0.056019716 0.018534787 -0.08865464 -0.064844206 0.033673167 -0.012474238
-0.06329612 0.07896913 0.024884116 0.11766467 -0.027892835 0.055061392 -0.024757307 0.09408143
-0.009028856 0.03536789 -0.022380644 0.01158514 0.0827155 0.08501715 0.082501985 -0.055562083
0.095514104 -0.056798913 0.03781293 0.03182547 0.09810944 0.021770969 0.093769155 0.078515925
-0.1139773 0.031867284 0.1097667 -0.045326866 0.11328976 -0.076345876 0.013547882 0.07906807
-0.067970656 0.04394793 0.08473684 0.11371907 -0.089386515 -0.053665295 0.08704036 -0.07133973
-0.0117526 -0.06643578 0.040805705 0.039756697 -0.04003077 0.07002456 -0.024205185 0.07190546
0.022814846 -0.0866925 -0.123770185 0.030011723 0.040320557 0.036354624 0.00038809117 -0.018366067
0.11134417 0.0791604 0.021614907 -0.017877776 -0.09732368 0.005138607 -0.013301603 0.06382612
-0.07406078 0.08396637 -0.07319312 0.13957953 0.10389003 -0.10828707 0.08009481 0.12899867
0.051201098 0.14985798 0.025251383 0.07563139 -0.08105195 -0.065269135 0.012393989 -0.0138504915
-0.078056395 0.07514326 0.12011548 0.034490503 0.0018169022 -0.10742008 -0.09789551 0.045607567
-0.011524123 -0.08865922 0.092058584 0.07100314 -0.058510296 -0.061530087 0.07838753 0.0027706986
0.1114945 0.096449286 -0.052409567 -0.058038555 0.045096 0.0055965716 -0.04235446 0.1236841
-0.072814904 0.036683295 -0.07966494 -0.10370457 -0.0847621 -0.05445322 0.044135183 0.003601121
0.1297988 0.09989054 -0.09402476 -0.047649678 -0.061701506 -0.06002108 -0.015736485 -0.11912987
0.09738986 0.10324133 0.031095224 0.023328295 -0.08070403 -0.039425533 0.05085344 0.076775536
-0.122462064 0.13841845 0.061746076 0.101991676 0.05649858 0.0005242846 0.037227422 0.084737636
-0.028640803 0.033851504 -0.09920331 -0.035065696 0.030651856 0.074122466 -0.0042989454 0.016718315
0.12529485 0.04473071 0.036206447 0.07814103 0.0152235245 0.09978752 -0.087500244 -0.008040015
-0.11652665 -0.025242647 -0.049978353 0.013152739 -0.048730962 -0.058458913 -0.10836967 -0.134338
-0.10106954 0.005508158 -0.016239382 0.055868972 -0.0974085 -0.11096337 -0.09768285 0.033351477
-0.03812977 0.10336952 -0.07678307 -0.022833874 -0.13162541 0.0035594942 -0.12595806 0.08148254
-0.09435519 -0.012870532 -0.12079458 -0.012524957 0.034108642 -0.040026307 0.095845595 -0.04850143
-0.02032401 -0.048894517 0.07347562 0.08831638 0.0036921266 0.12125204 -0.028035197 0.005687954
0.075459704 0.07928645 -0.03224201 0.02789798 0.038487785 0.050961222 0.008475115 0.027993137
0.14028935 -0.020796208 -0.008215873 0.08861041 0.037382733 -0.04516102 0.0068179807 -0.023697
0.03613983 -0.071509175 0.006402436 0.13269375 -0.02425607 -0.1069041 0.026610607 0.013439519
-0.012782211 -0.015455607 -0.07586483 0.10093304 0.02030261 0.035988986 0.1174973 -0.0054209135
0.018765356 -0.08403133 -0.044266686 -0.018153897 0.024127947 0.11836067 -0.010206692 -0.022577345
0.03898391 -0.055428676 0.107233055 0.033878434 0.056017697 -0.023743186 -0.031894907 0.04534729
00000000: 57c0 a0bd 945e 88bd d387 c33d c975 a13d
00000010: 1ec0 ef3d df3e 0dbd 90b2 263d 1a09 89bd
00000020: 7b6c a9bd 6dc4 083e ee74 653d 44d6 973c
00000030: 9090 b5bd 0acd 84bd e0ec 093d bf60 4cbc
00000040: 65a1 81bd 91ba a13d c6d9 cb3c 2dfa f03d
00000050: 847f e4bc 0e88 613d d6cf cabc c4ad c03d
00000060: c4ed 13bc ecdd 103d 9d57 b7bc 99cf 3d3c
00000070: be66 a93d 791d ae3d cdf6 a83d 1195 63bd
00000080: e69c c33d faa5 68bd bbe1 1a3d 6d5b 023d
00000090: 9aed c83d 0859 b23c 0b0a c03d f5cc a03d
000000a0: ee6c e9bd 4587 023d 5dcd e03d aaa8 39bd
000000b0: 7604 e83d 3a5b 9cbd f0f7 5d3c 71ee a13d
000000c0: 3334 8bbd bf02 343d 828a ad3d 8be5 e83d
000000d0: 4710 b7bd 24d0 5bbd 3742 b23d 901a 92bd
000000e0: fa8d 40bc 7b0f 88bd e223 273d ebd7 223d
000000f0: 4ef7 23bd 0969 8f3d f449 c6bc 2b43 933d
00000100: 33e6 ba3c d68b b1bd 397b fdbd 25db f53c
00000110: 2b27 253d 96e8 143d b778 cb39 6f74 96bc
00000120: 6a08 e43d d91e a23d bf11 b13c 6a74 92bc
00000130: a351 c7bd c361 a83b f7ee 59bc 45b7 823d
00000140: 2ead 97bd 8ff6 ab3d 46e6 95bd f0ed 0e3e
00000150: 4cc4 d43d 9dc5 ddbd bf08 a43d 3a18 043e
00000160: 3eb8 513d 5f74 193e fddb ce3c a1e4 9a3d
00000170: 91fe a5bd d3ab 85bd 2810 4b3c 2ced 62bc
00000180: 08dc 9fbd b6e4 993d 1bff f53d ea45 0d3d
00000190: 1f25 ee3a 0fff dbbd 717d c8bd 00cf 3a3d
000001a0: adcf 3cbc f792 b5bd 3689 bc3d 186a 913d
000001b0: 7ea8 6fbd f906 7cbd a489 a03d 9c94 353b
000001c0: 3a57 e43d 3487 c53d 6aab 56bd d6b9 6dbd
000001d0: 95b6 383d 7263 b73b df7b 2dbd 174e fd3d
000001e0: fb1f 95bd 3941 163d 5f27 a3bd 1063 d4bd
000001f0: c097 adbd 570a 5fbd 18c7 343d c900 6c3b
00000200: fae9 043e 6993 cc3d 0e90 c0bd 4f2c 43bd
00000210: b8ba 7cbd aad8 75bd cde9 80bc 5cfa f3bd
00000220: 5674 c73d 3170 d33d 69bb fe3c fb1a bf3c
00000230: 2848 a5bd ab7c 21bd b24b 503d 7e3c 9d3d
00000240: 64cd fabd 91bd 0d3e 74e9 7c3d 03e1 d03d
00000250: 0e6b 673d 2570 093a c87b 183d ed8a ad3d
00000260: 1ea0 eabc e0a7 0a3d 1b2b cbbd 0ca1 0fbd
00000270: 9a19 fb3c 85cd 973d 2bde 8cbb d9f4 883c
00000280: 4b4d 003e 8d37 373d 364d 143d 6808 a03d
00000290: 176c 793c 665d cc3d 5433 b3bd 44ba 03bc
000002a0: 86a5 eebd abc9 cebc 1ab6 4cbd 967e 573c
000002b0: 1e9a 47bd 9d72 6fbd ebf0 ddbd e78f 09be
000002c0: 8cfd cebd c77d b43b 7408 85bc ddd6 643d
000002d0: 1c7e c7bd c340 e3bd f20d c8bd 8f9b 083d
000002e0: f62d 1cbd 66b3 d33d 7140 9dbd 1b0e bbbc
000002f0: d0c8 06be 6746 693b 26fb 00be 51e0 a63d
00000300: 4b3d c1bd edde 52bc 2663 f7bd 7a35 4dbc
00000310: 81b5 0b3d a0f2 23bd b24a c43d 6fa9 46bd
00000320: 8a7e a6bc 9e45 48bd 637a 963d 38df b43d
00000330: 9bf7 713b fd52 f83d 12aa e5bc 0462 ba3b
00000340: 9e8a 9a3d ef60 a23d 3310 04bd 4e8a e43c
00000350: 5ea5 1d3d b7bc 503d 35db 0a3c dd51 e53c
00000360: 03a8 0f3e cf5c aabc de9b 06bc 6079 b53d
00000370: a31e 193d c3fa 38bd 5e69 df3b 3620 c2bc
00000380: 5c07 143d 6773 92bd 87cb d13b dfe0 073e
00000390: aab4 c6bc 89f0 dabd 7dfe d93c 6e31 5c3c
000003a0: 7b6c 51bc 8439 7dbc 055f 9bbd fbb5 ce3d
000003b0: a951 a63c 3069 133d 6da2 f03d eba1 b1bb
000003c0: ceb9 993c 9e18 acbd fc50 35bd 7bb7 94bc
000003d0: f9a7 c53c 1467 f23d f839 27bc 20f4 b8bc
000003e0: 98ad 1f3d 2e09 63bd 019d db3d 1dc4 0a3d
000003f0: d072 653d 1281 c2bc 3ca4 02bd 14be 393d

lstm.bias_hh_l0 f4 [256]
0.12642726 -0.062814526 -0.100437604 -0.03247778 0.029960547 0.04414299 -0.041210193 -0.07908213
0.12091658 0.13092494 -0.05201896 -0.014804872 -0.07076346 0.040504836 -0.052944362 -0.09509709
0.07947957 -0.020465838 -0.093458936 0.11181428 0.13308087 -0.0560336 0.0529886 0.086494215
0.1184222 0.064146735 0.049046654 0.025755553 -0.022795929 0.03446647 0.08002732 -0.037321724
0.072010584 0.09339917 0.022009576 -0.004833838 0.046282038 -0.034297824 -0.06864183 0.08958713
-0.10939659 -0.04895047 0.036383584 0.007150077 -0.02004663 0.10102816 -0.033392914 0.06364646
-0.0747224 -0.086060286 -0.097572 0.018957846 -0.09267376 0.008053461 0.10345148 0.051964883
0.15321915 -0.01752658 0.1369837 0.12267741 0.034398206 0.06765573 0.110331625 0.012034734
0.11587124 0.11584468 -0.033789907 -0.016436055 -0.07009168 0.11082604 0.09963591 -0.01826727
-0.0099252 0.11613581 0.028489133 0.035853896 -0.0031235775 -0.045762848 0.11090763 0.040610544
0.07788874 0.12849578 0.01925645 0.10374752 -0.09425718 0.040232416 0.03546137 -0.008739773
0.10735297 -0.0038809988 -0.005370414 0.017774383 -0.08441552 0.040011898 -0.07436944 0.05491384
0.0985675 0.043227766 0.04208015 0.011190469 -0.05956254 0.020677844 -0.054141678 0.07379593
-0.055814017 0.07485062 -0.015525344 -0.027960591 0.09442833 0.0046161907 0.11469305 0.045050193
0.02772151 0.019689864 0.10765149 0.064024724 0.06966828 0.046017945 0.047382712 0.09815337
-0.041968934 -0.08512483 -0.046613622 0.051114593 -0.07832619 0.07245066 0.0031789374 0.0053705717
0.04722293 0.11191569 -0.037009466 0.110050164 0.095387146 0.03374588 0.063604586 -0.102387354
-0.011596055 0.07171465 -0.08897123 0.09488233 -0.12627366 0.009080077 0.05577349 0.098860145
-0.1191864 -0.045954302 0.12164251 0.007979375 -0.09189598 -0.10408034 0.11199861 -0.02649656
0.043081354 -0.12424391 -0.04864975 0.038632203 0.068894364 -0.07498052 -0.10258841 -0.019225435
0.06578467 0.012535632 0.004995678 -0.09156301 0.10532499 0.026134068 -0.07333756 0.074746214
0.066867895 0.028433757 0.08120544 0.024152562 0.08611836 -0.063464485 -0.063076414 -0.05838442
0.122785114 -0.08925169 -0.094972685 0.038229857 -0.027673563 0.080084674 -0.078700155 0.11258028
-0.10247522 -0.11954632 -0.05672301 -0.11258219 0.08923971 -0.056468338 0.017773977 -0.0030303574
-0.005477362 0.10344448 -0.08920607 -0.0335207 0.11744116 -0.0002116299 0.047294576 -0.076448314
0.051640242 0.081029624 0.11649174 -0.10634679 -0.0053191944 0.037328035 0.003123652 -0.054415934
-0.048316743 -0.051838133 0.12776463 0.10851092 0.035401314 0.0034661586 0.02891529 0.102822326
-0.04639533 0.119694166 0.007852784 0.1359343 -0.036114853 0.032297667 -0.03358231 -0.004772274
0.13312419 -0.067745894 0.010850437 -0.01475186 -0.05177984 -0.03027197 0.13987793 0.005498445
0.016570555 -0.059386488 0.12439185 -0.044142287 0.043625124 0.05300717 -0.05570616 -0.089687616
0.14587969 0.09515506 0.10631076 0.059611376 -0.0822128 -0.07629292 0.13572097 -0.09790479
-0.032582145 -0.014680937 0.06429276 0.010245999 0.028430615 0.06330123 -0.03640998 0.13324365
00000000: 2676 013e e7a4 80bd 3bb2 cdbd 6c07 05bd
00000010: d26f f53c 48cf 343d 05cc 28bd d0f5 a1bd
00000020: 1da3 f73d 3011 063e d511 55bd 2290 72bc
00000030: 6fec 90bd 66e8 253d 30dc 58bd 43c2 c2bd
00000040: 2fc6 a23d f9a7 a7bc 6667 bfbd e3fe e43d
00000050: 5a46 083e 7d83 65bd 930a 593d e123 b13d
00000060: 5787 f23d 5d5f 833d 25e5 483d 4ffd d23c
00000070: 87be babc b72c 0d3d 5de5 a33d aade 18bd
00000080: 497a 933d 1048 bf3d 6d4d b43c 2c65 9ebb
00000090: 3c92 3d3d e07b 0cbd 1694 8cbd 7579 b73d
000000a0: 520b e0bd 4a80 48bd f406 153d 314b ea3b
000000b0: d538 a4bc dae7 ce3d 02c7 08bd 1359 823d
000000c0: 0f08 99bd 6040 b0bd d4d3 c7bd 7c4d 9b3c
000000d0: becb bdbd aaf2 033c 5fde d33d 21d9 543d
000000e0: 7be5 1c3e e793 8fbc 7445 0c3e 4b3e fb3d
000000f0: 22e5 0c3d 168f 8a3d 8cf5 e13d 552d 453c
00000100: e74d ed3d fa3f ed3d 4967 0abd e8a4 86bc
00000110: 3a8c 8fbd c3f8 e23d e90d cc3d 3ea5 95bc
00000120: 4e9d 22bc 9dd8 ed3d 0b62 e93c 89db 123d
00000130: efb4 4cbb d371 3bbd 8a23 e33d 3e57 263d
00000140: 2284 9f3d 6694 033e b4bf 9d3c 9479 d43d
00000150: e909 c1bd bfca 243d f13f 113d 4431 0fbc
00000160: e0db db3d 5b58 7ebb 4cfa afbb 959b 913c
00000170: 0be2 acbd 84e3 233d 014f 98bd 56ed 603d
00000180: c2dd c93d 990f 313d 3c5c 2c3d 3b58 373c
00000190: daf7 73bd 9564 a93c aac3 5dbd 5222 973d
000001a0: 3d9d 64bd 484b 993d 035e 7ebc 9c0d e5bc
000001b0: a463 c13d 6a43 973b 31e4 ea3d 8d86 383d
000001c0: 3818 e33c a34c a13c 6278 dc3d 651f 833d
000001d0: 3eae 8e3d 507d 3c3d 6014 423d a204 c93d
000001e0: 9ee7 2bbd ed55 aebd eded 3ebd 895d 513d
000001f0: 7b69 a0bd 0361 943d b855 503b 9ffb af3b
00000200: d56c 413d 0e34 e53d 3d97 17bd fb61 e13d
00000210: 565a c33d 1f39 0a3d 1f43 823d 76b0 d1bd
00000220: 61fd 3dbc 21df 923d 8c36 b6bd ab51 c23d
00000230: e24d 01be 9ac4 143c be72 643d 3077 ca3d
00000240: 0018 f4bd 943a 3cbd b51f f93d edbb 023c
00000250: f633 bcbd 1328 d5bd 875f e53d 500f d9bc
00000260: 1376 303d 9773 febd f644 47bd cd3c 1e3d
00000270: 7d18 8d3d 638f 99bd df19 d2bd a97e 9dbc
00000280: 1dba 863d 4062 4d3c c9b2 a33b 6385 bbbd
00000290: a1b4 d73d 1d17 d63c 0132 96bd 8b14 993d
000002a0: 09f2 883d e9ed e83c 0a4f a63d 98db c53c
000002b0: d35e b03d abf9 81bd 352e 81bd 8024 6fbd
000002c0: c376 fb3d 97c9 b6bd 0a81 c2bd e996 1c3d
000002d0: abb3 e2bc 6f03 a43d 8c2d a1bd 7d90 e63d
000002e0: 87de d1bd b3d4 f4bd 6356 68bd 7e91 e6bd
000002f0: 4fc3 b63d 584b 67bd bb9a 913c f698 46bb
00000300: 717b b3bb b3da d33d acb1 b6bd 004d 09bd
00000310: fe84 f03d f8e8 5db9 f5b7 413d ef90 9cbd
00000320: b884 533d dcf2 a53d 3993 ee3d 59cc d9bd
00000330: a34c aebb 48e5 183d 2fb6 4c3b 3ee3 5ebd
00000340: c7e7 45bd 3954 54bd bbd4 023e f93a de3d
00000350: f800 113d 7e28 633b c2df ec3c 8394 d23d
00000360: 0809 3ebd 3722 f53d f7a8 003c 5c32 0b3e
00000370: 2bed 13bd 8f4a 043d 9b8d 09bd bc60 9cbb
00000380: b551 083e 5cbe 8abd 08c6 313c c9b1 71bc
00000390: 1917 54bd ecfc f7bc 293c 0f3e 4d2c b43b
000003a0: f9be 873c 3f3f 73bd 27c1 fe3d 8bce 34bd
000003b0: 42b0 323d 0c1e 593d 242c 64bd 24ae b7bd
000003c0: 7c61 153e a8e0 c23d 75b9 d93d 0f2b 743d
000003d0: 2f5f a8bd 763f 9cbd 70fa 0a3e 4e82 c8bd
000003e0: db74 05bd 5088 70bc ecab 833d d6de 273c
000003f0: 52e7 e83c 13a4 813d a222 15bd 0671 083e

fc.weight f4 [1, 64]
0.08425527 -0.09902087 0.06483661 0.029469253 0.025416598 0.029511213 -0.0046213632 0.013772929
-0.046164583 0.14252451 0.07191249 -0.11831605 -0.002899486 -0.0045290207 -0.11007732 -0.038165763
-0.12033034 0.023957973 0.02885897 0.044522166 -0.054568794 -0.04342155 0.14034833 0.0062767104
-0.10874601 -0.0849147 0.012526038 -0.10141372 0.09481538 -0.026527636 -0.020317324 -0.090268455
0.0140419835 -0.058717612 -0.072520755 0.12045301 -0.08435409 -0.066921294 -0.0071083675 -0.051271923
0.010482392 -0.11781897 -0.08473297 -0.04120492 0.057936132 -0.05481461 0.061719056 -0.113036424
0.1562532 0.085078925 0.02966786 -0.029828789 0.05132115 -0.0023735354 -0.017026372 0.035764337
0.13395943 -0.10151368 -0.14065221 -0.008896918 -0.028292626 -0.1308105 -0.1270968 -0.13350184
00000000: 078e ac3d 74cb cabd 0ec9 843d 8169 f13c
00000010: 7836 d03c 80c1 f13c ce6e 97bb daa7 613c
00000020: 1317 3dbd f2f1 113e db46 933d af4f f2bd
00000030: 4e05 3ebb 2e68 94bb 3870 e1bd b453 1cbd
00000040: c16f f6bd 8343 c43c a669 ec3c e05c 363d
00000050: 8783 5fbd ccda 31bd 79b7 0f3e ddac cd3b
00000060: 3ab6 debd c2e7 adbd 033a 4d3c ffb1 cfbd
00000070: 912e c23d 7c50 d9bc 8470 a6bc abde b8bd
00000080: 5910 663c e181 70bd c385 94bd 11b0 f63d
00000090: d6c1 acbd 080e 89bd 4fed e8bb 8202 52bd
000000a0: 57be 2b3c 124b f1bd 7b88 adbd 7dc6 28bd
000000b0: 704e 6d3d 4985 60bd 1fcd 7c3d a47f e7bd
000000c0: d700 203e dc3d ae3d 030a f33c 815b f4bc
000000d0: 2036 523d 518d 1bbb e47a 8bbc a07d 123d
000000e0: a92c 093e 67e6 cfbd 2207 10be 61c4 11bc
000000f0: f0c5 e7bc 30f3 05be aa25 02be b5b4 08be
