trained_models/max_temp/rnn_model_1632050719.pt (torch, 19735 bytes, 5 tensors)

rnn.weight_ih_l0 f4 [64, 3]
00000000: d6e0 133b c9ab a53d c195 3dbc f9c4 133b
00000010: daa7 df3d 4b79 e8bd 3134 933c 5727 b5bd
00000020: 9679 82bd 0dda 10bd 3483 babc 0666 0abd
00000030: 7e54 19bd 300a d4bd 680c 94bd 035f ee3d
00000040: 84e5 2f3d 1393 0abe 43ba b7bc f9ae 57bd
00000050: dacd fdbd 0429 8b3d f3e1 b9bd 75ed 983c
00000060: e47b ae3d 14c0 973d 75a2 46bd 19fe d83d
00000070: f7aa c23d 4507 0f3e 04b1 2d3d 4cdd 963c
00000080: 04d0 af3d ee74 8a3d 7256 e73d 78ef d93b
00000090: e7f8 7c3d f3e3 e53d 7144 ebbd d887 b43d
000000a0: a34e ac3d 4454 47bc ebf3 f63c f026 813d
000000b0: 1e49 c6bd 06bf a8bc faf5 aabd 1ed8 b73d
000000c0: c61b 8c3d afd0 9dbd aff5 1c3d 3836 f0bd
000000d0: df53 da3a 9e47 36bd 4dfa 0abc e6fb d2bd
000000e0: c483 d9bd 42f4 fabc 9b5c 54bc 8a49 dd3d
000000f0: c24f ce3d 83d6 343c a025 ea3d 392a efbc
00000100: 661d 263d b85a 1e3d 409b 27bd 14b5 00be
00000110: cccc cb3d 2c9d f6bd 0ba7 aebd 2d62 4bbd
00000120: a956 9e3d a5ae d7bd 77c1 ea3d 451d e13d
00000130: 341b 9a3d da87 a7bc 54ff 66bd fefc 8a3d
00000140: 62bb cb3d 25ab 8e3d ca40 88bc 7cdd 8ebc
00000150: acee c13d 6150 983c aba4 b0bc fa04 1ebd
00000160: 8eaa 47bd 2f5a 3bbd 7c9b 90bc bb31 82bc
00000170: 9d78 9fbc a767 b6bd c531 e73d d946 133e
00000180: 712b fd39 1390 9ebd f311 07be cbb2 93bb
00000190: e6e1 523d f900 b33d d77b a83d 892f 25bc
000001a0: bb6c e93c 6499 b4bd 87a7 bfbd d40c e1bd
000001b0: 7e2c 5c3d 4098 d53c 04f3 b53d 5907 aebd
000001c0: ca73 ac3d c589 053e 2769 293d 2c90 73bd
000001d0: a8af cf3d df42 003e 48bb 44bd 5d18 cebd
000001e0: 5909 f1bc 5214 003e 986a 78bd 3ea9 f13d
000001f0: a37d 093d 254d f6bc a8ae 0c3d c128 09bd
00000200: 3e4b bfbd 6e24 9f3d 6f39 3a3d 2286 6dbd
00000210: e037 5bbc edf4 d83d dec8 ffbc b235 f4bd
00000220: bdb0 933c 0fac 8a3d b0dd b83d 9ba8 6f3d
00000230: f77b 8a3d 592a 32bd ff67 bd3c dbdf 7d3d
00000240: 234a 00bc 3b8a 0cbd 3160 6abd ffe5 f2bd
00000250: dcb7 ec3d 0b8c f3bd 9bdb 72bd c7d9 17bd
00000260: 7c44 083e 4587 93bc 75f6 09bd bbe6 df3d
00000270: 3b10 56bd 9f27 0dbd facf a43d 1934 b8bd
00000280: 2e70 e3bd ca17 403d d412 febc 96dc ee3d
00000290: df4c 64bd df08 583d 987e 58bd 7452 b03d
000002a0: 919a 173d fc65 b33d e540 81bd 9d99 d83d
000002b0: 0478 13bd c81c b83d cb7a 923d e1f9 823d
000002c0: 06e0 2dbd 86b9 f93a 6d7a 5bbd 926b 1a3e
000002d0: 8287 a03b fe18 86bd e294 b4bd 516b 033d
000002e0: 0dae acbc 4c72 bd3d 976a d5bd ecb4 673d
000002f0: bfa7 0dbd 0597 36bc 4ed9 723d 165a ddbd
0.0022564433 0.08089406 -0.011571349 0.0022547825 0.10920687 -0.1135126 0.017969223 -0.08845394
-0.06370847 -0.0353642 -0.02276764 -0.033788703 -0.037434094 -0.103535056 -0.07228929 0.11639216
0.042943493 -0.13532667 -0.022427684 -0.0526571 -0.12392779 0.067949325 -0.090762995 0.018667916
0.08519724 0.07409683 -0.048494775 0.1059534 0.09505265 0.13967617 0.042405143 0.01841607
0.08584598 0.06760584 0.11295785 0.0066508614 0.06176081 0.112251185 -0.114876635 0.08814973
0.08413436 -0.012166087 0.030145606 0.06306255 -0.09681915 -0.0205989 -0.083476976 0.08976768
0.06841235 -0.07705819 0.03832024 -0.117290914 0.0016657076 -0.044501893 -0.008482528 -0.10301952
-0.106208354 -0.03063405 -0.012961532 0.10805042 0.10073806 0.011037472 0.11432958 -0.029194938
0.04055538 0.038660735 -0.040919542 -0.12569076 0.09951171 -0.12041697 -0.08527955 -0.049654175
0.07731373 -0.10531358 0.11462682 0.10991911 0.0752472 -0.020450521 -0.056395844 0.06786536
0.0994785 0.06966237 -0.016632456 -0.017439596 0.09469351 0.018593015 -0.021562895 -0.038578965
-0.048746638 -0.045740303 -0.017652266 -0.015892854 -0.019466693 -0.08906489 0.1128879 0.14382495
0.00048288287 -0.07742324 -0.13190441 -0.0045073978 0.051484965 0.0874042 0.082267456 -0.010082134
0.02849423 -0.088183194 -0.09358125 -0.10988775 0.05375337 0.026073575 0.08884242 -0.08497495
0.084205225 0.13040836 0.041360047 -0.059463665 0.10140926 0.1252551 -0.048030168 -0.10063241
-0.029423403 0.12507752 -0.06064853 0.117998585 0.033567082 -0.030066082 0.034346253 -0.03348613
-0.09340523 0.0777062 0.04546493 -0.057989247 -0.013380021 0.10593591 -0.03122371 -0.11924304
0.018028611 0.06771099 0.090266585 0.058510404 0.06761926 -0.043497417 0.023120878 0.061981063
-0.007830176 -0.034311514 -0.05722064 -0.118602745 0.11558506 -0.118919455 -0.059291463 -0.037072923
0.13307375 -0.018008837 -0.033682305 0.1093268 -0.052261572 -0.034461614 0.08047481 -0.08994312
-0.11105381 0.046897687 -0.031014837 0.11663167 -0.055737372 0.052742835 -0.052855104 0.08609477
0.03701264 0.08759686 -0.06311206 0.105761744 -0.036003128 0.089898646 0.07152327 0.06395317
-0.042449974 0.0019052483 -0.05358355 0.15080097 0.0048989663 -0.06547736 -0.0881746 0.032084767
-0.021079088 0.09250316 -0.10420721 0.056569025 -0.034583803 -0.011144404 0.05928927 -0.10808198

rnn.weight_hh_l0 f4 [64, 64]
00000000: 6fa6 c8bc c1d1 b3bd 02ad 09be 4f88 5e3d
00000010: 8113 babb 2492 5abd eafa 5d3c c517 853d
00000020: 91a4 9abd 2ca1 933d 72a1 f73d 1a80 243d
00000030: c5d9 d53d 009d fb3b 9aad 66bd 32c0 013e
00000040: cdb2 dd3d 2937 d13d 15fd b23c e673 c53d
00000050: 6b09 943d 54ab afbd 666a e8bd a451 d9bd
00000060: 9d6d 0f3d 5a85 88bd 2fd6 79bd ef9b d4bc
00000070: ce23 1bbd cf1e 8c3d 95cf c3bc 26c4 b8bd
00000080: c58d c2bd 0e9d fa3d f811 b4bd 56cd f93b
00000090: 3ca6 653d 90c2 773d c1f7 0d3d 872e 44bd
000000a0: 10b2 8c3c d799 6abc 015f 1bbd 9848 9b3d
000000b0: 248e e63c 6168 9b3d 524e 19bc 6b7e 4e3d
000000c0: e956 b2bc edd7 55bd 8e99 4fbd 0d15 4ebd
000000d0: 53c2 dcbd 2ea9 d3bd 8970 cbbc 7ab7 7e3c
000000e0: 351a b83d 078d 27bd e680 35bc 1a50 c0bd
000000f0: 6ba2 c8bd 8f39 6dbc 81ea 673d c3c1 4ebd
00000100: a29a 81bd da9f aebd ce9b f53d 8e5a 6e3d
00000110: 99c1 013e 1948 e9bd 2022 073e fe61 f6bd
00000120: 7495 f2bd c800 74bc fb93 c0bd fa3f 503d
00000130: ad8f b13d f1b7 85bd c7cf 86bc bd19 d73d
00000140: fc37 0ebc 3b1d 22bd 58b4 dfbc dc32 94bc
00000150: 5942 cbbc 318b dabd be8c 42bd a206 20bd
00000160: eb6c 813d a061 d4bd 8222 c13c fad4 603d
00000170: 4719 e43d d772 de3d 4788 6cbd 13d9 c1bd
00000180: 65e8 a0bd b635 e83d 797f 86bc 62ab e1bd
00000190: 317b 193c 8af8 0f3d 6a61 64bd 156b 053e
000001a0: ed95 0dbd 6be5 a3bd ec03 9fbd 6ded 6ebd
000001b0: 9880 dfbc a4de cebd 71a7 b6bd 7019 f13d
000001c0: 3560 cb3d a654 303c 592e e23c 1053 293d
000001d0: 99c2 16bb 9321 17bd e1fd bebd 8814 b6bc
000001e0: 3bb5 de3d fe67 a53d b022 26bd db65 e33c
000001f0: bef2 1eb8 82a4 ccbd 3cfb bfbd 4967 e23d
00000200: 7074 4fbd b907 43bd cc3d 77bb 2785 c73d
00000210: 1523 e33d d1ed 33bd 69c9 2dbc 4ec4 853d
00000220: 64e9 26bc 3e84 8cbd ea2a d03d caf4 cb3d
00000230: df81 423d af1c 9e3d e8aa ea3d 4c6b bbbc
00000240: 32c9 82bd 1b2f fabd 55a5 f63d bef9 99bd
00000250: da4c 15bc 3497 813d c21b b2bd 9a87 4e3c
00000260: c397 c0bd 3d38 763d 9fa2 9c3d e9c1 cfbd
00000270: 6534 0f3d 6c11 b3bd d71b 97bd b03d 6c3d
00000280: b578 c8bd 43d8 b5bd 9684 a1bc 77ef 023e
00000290: a38f dc3d ae2e 383d c331 dfbd 2d51 96bd
000002a0: 8a33 f8bd 383e e33d 4c21 1abc e627 3d3d
000002b0: 4b2a 47bd f42f a23d 381a 953d 418f a1bd
000002c0: 4c42 173c 08e1 103e 5ea4 993d 5aa7 d7bd
000002d0: a4f1 93bd 654b 9fbd e9f1 d8bd 9e61 fa3d
000002e0: 13ff a03d 521e c1bd ad15 f93d 9fd0 adbd
000002f0: 6276 75bd 8a13 293d 88dc 8c3d e737 d73d
00000300: 2a4f 4b3d e803 cebd aa20 3ebd b298 053d
00000310: ab10 52bd 39f2 363c 6366 7fbd 666a 84bc
00000320: 38b8 a33d 883a 12bd 939d 6c3d f551 0fbd
00000330: 3ba9 473d 7746 6fbd 13af 6bbb 9f59 c2bb
00000340: 23ff 96bd 22c9 21bc 91c2 bd3d e6a6 b53b
00000350: 5054 d03d 0ccc a6bd 9596 743a 30ad cabc
00000360: f90b a3bd 4ce8 61bd 62cd c8bd 86d2 87bd
00000370: 7a19 af3d d614 aebd 56fa 91bd 6dee 9bbd
00000380: 117c 09bd 34e6 90bd 3414 1e3a 00e0 ba3c
00000390: 9c7a e53d 51ce d3bd f0a1 063e a496 26bd
000003a0: 91de 95bd c71b eebc ffc1 503d c7a5 75bc
000003b0: c764 a1bc 2b1f 633d 0893 dbbd 1b14 d03c
000003c0: 2402 5d3d 86df ac3d 1e48 0bbd 2a9e 983c
000003d0: bc26 9cbd 8691 4c3d 59c3 633d 069d 60bd
000003e0: 7b01 2d3c 1bfd 9e3d 3fd2 f63d f620 b93d
000003f0: 2fb3 78bb 7c02 083d 7375 f13d 8e90 8bbd
-0.024493424 -0.08780242 -0.13444903 0.054329213 -0.0056785946 -0.053362027 0.013548592 0.06498674
-0.0755092 0.072084755 0.1209134 0.04016123 0.10441927 0.007678628 -0.056317903 0.12670973
0.10825119 0.10215599 0.021849195 0.096412465 0.07228359 -0.085776 -0.11348419 -0.10611275
0.035016645 -0.0666606 -0.060995277 -0.025953261 -0.037875943 0.06841814 -0.023902694 -0.09021787
-0.09499697 0.12236987 -0.0879249 0.007623355 0.056066737 0.060488284 0.034660105 -0.047895934
0.01717475 -0.014318905 -0.0379324 0.075822055 0.02814395 0.07588268 -0.009357052 0.05041353
-0.021769958 -0.052207876 -0.05068355 -0.050313044 -0.10779252 -0.10335003 -0.024833934 0.015546674
0.089893736 -0.04090598 -0.011078095 -0.09390278 -0.09796604 -0.014479055 0.056620125 -0.050477754
-0.06328322 -0.08526583 0.11992608 0.05819183 0.12671508 -0.11390705 0.13196611 -0.12030409
-0.11844912 -0.014892764 -0.09403225 0.050842263 0.08669982 -0.06529225 -0.016456498 0.10502956
-0.00868034 -0.039578658 -0.027307674 -0.018090658 -0.02481191 -0.1067108 -0.047497503 -0.039068826
0.063196026 -0.10370183 0.023576025 0.05489061 0.11137634 0.10861748 -0.05774715 -0.09465232
-0.07856826 0.113383695 -0.016418206 -0.11019017 0.00936775 0.035149135 -0.055756964 0.1302913
-0.03456681 -0.080027424 -0.0776442 -0.058331896 -0.027282998 -0.10101059 -0.08918656 0.1177243
0.099304594 0.010762369 0.02760999 0.04133898 -0.0023004173 -0.036897253 -0.09325767 -0.022226587
0.10874411 0.080764756 -0.040560424 0.02775853 -3.7896207e-05 -0.09992315 -0.09374091 0.11054856
-0.050648153 -0.047614787 -0.0037726043 0.09742194 0.11090676 -0.04392797 -0.010607102 0.06531583
-0.010187481 -0.06861161 0.10164435 0.09958799 0.047487136 0.07720315 0.11458379 -0.022878312
-0.06386031 -0.12216016 0.12043253 -0.07518338 -0.009112561 0.06327668 -0.08696701 0.012605572
-0.09403946 0.060112227 0.07648205 -0.10144407 0.034962077 -0.08743557 -0.07378357 0.057676017
-0.09788648 -0.08879139 -0.019716542 0.12786661 0.10769584 0.044966392 -0.10898163 -0.07339702
-0.12119205 0.11095852 -0.009407353 0.04618063 -0.048624318 0.079193026 0.072803915 -0.07888652
0.009232115 0.14148343 0.07502054 -0.10529967 -0.07223824 -0.07778052 -0.10593016 0.1222565
0.078611515 -0.09429611 0.121623375 -0.08487057 -0.05992735 0.0412784 0.068780005 0.105087094
0.049636044 -0.10059339 -0.04641787 0.032616325 -0.051285427 0.011166149 -0.062353503 -0.016164016
0.07994121 -0.03570035 0.057767462 -0.03499027 0.048745375 -0.05841681 -0.0035962507 -0.005931094
-0.07372882 -0.009874614 0.09265626 0.0055435775 0.10172331 -0.081443876 0.00093303 -0.024740785
-0.07961268 -0.055153176 -0.09804799 -0.06631951 0.08549781 -0.08500068 -0.07127826 -0.076138355
-0.033565585 -0.07075158 0.0006030232 0.02281189 0.112050265 -0.10342086 0.13147712 -0.040671006
-0.07317842 -0.02906598 0.05096626 -0.014993138 -0.019701375 0.055449646 -0.10721403 0.025400212
0.05395712 0.08441071 -0.034004323 0.018630106 -0.076245755 0.04994347 0.05560622 -0.05483725
0.010559435 0.0776312 0.1205182 0.0903949 -0.0037948599 0.033205494 0.1178998 -0.06814681

rnn.bias_ih_l0 f4 [64]
00000000: 05b4 d43c e2c8 72bd 650a c73b 1d69 32bd
00000010: 2b5f b7bd 041c 9b3d 27ca 00bd cc21 d43d
00000020: 79d0 903d 2230 42bd 9546 5b3c 64e1 87bd
00000030: 8228 99bd b7a0 533d e2b2 8dbd 3656 0abc
00000040: 5900 d83d a1c9 983d 5eb6 2a3d a68b 6c3c
00000050: c519 08be 815e 1f3c 5fea 7a3d 496a 3b3d
00000060: b78c a73d 5589 b63c a14e 92bc 85a2 e13c
00000070: c453 313c 3ae7 0a3d 8868 503c b76a 833b
00000080: d526 fbbd 99dc 8e3d bc27 d13a 13b1 d0bd
00000090: fba1 05bd e74d b7bd 9aca 1fbc 1c69 e8bd
000000a0: 124a 0d3d a8eb e4bd 7c7c acba 2866 d3bd
000000b0: 95ce d13c 72ca 8e3a ff08 6d3d 0d1d a9bd
000000c0: d925 2c3d 2f83 63bd f2f2 723d efef 99bc
000000d0: b686 cdbd 2196 dc3d c199 973d 7a88 8bbd
000000e0: 9716 a13d 3c11 4e3d 2bbf e7bd 1f0b 2fba
000000f0: ee52 debc b5ae 333d 0824 b6bc 08d9 db3d
0.025964746 -0.059273608 0.006074237 -0.043557275 -0.08953699 0.07573703 -0.031442787 0.10358009
0.07071013 -0.047409184 0.013383527 -0.06634787 -0.074784294 0.05166694 -0.06918885 -0.008443406
0.10546941 0.07460333 0.041677825 0.014437592 -0.1329108 0.009727121 0.06125867 0.04575566
0.08181136 0.022282282 -0.017859759 0.027543316 0.010823194 0.03391192 0.012720235 0.004010524
-0.12263266 0.069756694 0.0015957276 -0.10190024 -0.03262518 -0.089504056 -0.009752894 -0.11348173
0.034494467 -0.1117776 -0.0013159658 -0.10322219 0.025611201 0.0010894074 0.057869907 -0.08257494
0.04202828 -0.05554503 0.059313722 -0.018791167 -0.1003546 0.10770822 0.07402373 -0.0681314
0.07865637 0.050309405 -0.11315759 -0.00066773774 -0.027139153 0.043867785 -0.022233978 0.10734755

rnn.bias_hh_l0 f4 [64]
00000000: 2ca9 013e 9a7d e4bd 6c90 d93d 77ad fbbb
00000010: f59f 953d fe02 d83c 0de5 03bd ec8d a23d
00000020: da95 a5bd 550f 923b 3b72 b1bd 1a7a b8bc
00000030: c21a cc3c 31cb 013e 84c9 243d b986 b0bc
00000040: def6 52bd 6eea 323b 38fb d53d 319f 74bd
00000050: ebb4 1c3d f75e 6d3d 6388 4abd 1727 8e3d
00000060: 2db7 c33d b89e d2bd 46fb ec3d 40b8 a7bd
00000070: 4ec2 5a3d 77a9 91bd 44ea c53d 397e 8abc
00000080: 6e75 87bc d4b3 92bd 585e 1abd 80e7 4c3c
00000090: dd83 ed3d 6d98 e53d e634 153d 3084 9c3d
000000a0: 1447 d43d 652b 08bd 04f3 9a3d e09f 92bd
000000b0: 9829 a1bd 821a 983d ece7 b93d 41a2 9bbd
000000c0: 9b4b acbd 83b3 363d 4390 dbbc 619f b03d
000000d0: 0d47 c83d beb5 d63d 0936 f43d cefb 7d3d
000000e0: 8dd6 86bc 3c57 083d 94e9 c43c b879 363d
000000f0: ca38 16bd cbba 013b 6d73 c43d 23c9 bdbd
0.1266219 -0.11156769 0.106232494 -0.0076805907 0.073059 0.026368614 -0.03220086 0.07937226
-0.080852225 0.004457394 -0.08664366 -0.02251916 0.024915103 0.12675168 0.040231243 -0.021548616
-0.051504962 0.0027300376 0.10448307 -0.05972213 0.038258474 0.057951894 -0.049446475 0.069410495
0.095564224 -0.102841794 0.11571364 -0.0818944 0.05340796 -0.07112401 0.09663823 -0.01690589
-0.016535487 -0.07163206 -0.03768763 0.012506366 0.115974165 0.112107135 0.0364274 0.076424
0.103651196 -0.03324451 0.07565883 -0.071594 -0.078692615 0.07426931 0.09077439 -0.07599307
-0.08412858 0.04460479 -0.026802188 0.08624149 0.09779177 0.10483883 0.11924369 0.062007718
-0.016459728 0.03328632 0.02403716 0.044549674 -0.036675252 0.0019795175 0.09592328 -0.092668794

fc.weight f4 [1, 64]
00000000: a4aa 963d a992 edbd 5274 ccbc 0606 bc3d
00000010: 8d26 13be 2b61 dabd 9926 71bd a251 b2bd
00000020: 3833 a0bd 5920 8e3d 5089 953c 9f83 92bd
00000030: 86a7 0fbe eef1 9d3d 75bc e4bd b845 063e
00000040: 226e e83d 8b5d 973d 6660 0abd d920 603d
00000050: d269 89bc f3b8 6c3d 7f57 0a3c d8b6 64bd
00000060: 0040 b73d b18c 863d 97d2 36bc adfe d83d
00000070: 7508 2fbd 30d7 d5bc 70d6 f9bc 5825 fa3d
00000080: efc2 65bd c785 11bb 7fae b63d a2e9 44bd
00000090: 2d97 373d 13cb 9c3c a579 eb3d 3d60 c33d
000000a0: 1b59 a43d 2e7a 33bd d666 083c 7eec 783d
000000b0: 38a7 99bd c8f6 ef3a 05b2 bf3c 6920 f73d
000000c0: 39e4 4d3d 608d 6d3d 57bb 513d 1208 a2bd
000000d0: a4bf ce3d 1099 41bd 6b77 2e3c 404e 20bd
000000e0: 7d2b adbd b3b1 e2bd bfe0 0bbd 7802 ff3d
000000f0: b588 00be 4c50 fc3d 3f34 34bb 4c6e d33d
0.07356766 -0.11600239 -0.02495781 0.091808364 -0.14370175 -0.106630646 -0.0588747 -0.087069765
-0.07822269 0.069397636 0.018253952 -0.07154011 -0.14028749 0.0771216 -0.11168758 0.13112533
0.11349131 0.07390889 -0.03378334 0.054718826 -0.016774092 0.05779357 0.008443712 -0.055838436
0.08947754 0.065698035 -0.011158607 0.105954506 -0.042732675 -0.026103586 -0.03049776 0.12214154
-0.056094106 -0.0022204982 0.08920001 -0.048074372 0.044821907 0.019139802 0.11497811 0.0953984
0.08024808 -0.04381769 0.008325299 0.06077241 -0.075025976 0.00183078 0.023400316 0.120667286
0.05026648 0.057996154 0.05120405 -0.079116955 0.10095146 -0.047265112 0.010648589 -0.039137125
-0.0845556 -0.1106905 -0.03414988 0.12451643 -0.1255215 0.12320003 -0.0027496961 0.10323772
