trained_models/min_temp/lstm_model_1632050688.pt (torch, 72727 bytes, 5 tensors)

lstm.weight_ih_l0 f4 [256, 3]
0	0xbc4aeda6	-0.012385761
1	0x3db0bc77	0.08629697
2	0xbd6fb10c	-0.058518454
3	0x3d0b63f9	0.03403089
4	0x3d46ba84	0.04851772
5	0x3dc32941	0.09529353
6	0x3e057f00	0.13036728
7	0xbd9f8b01	-0.07790185
8	0x3d5aa03a	0.05337546
9	0x3d9561f5	0.072940744
10	0x3d253c06	0.040340446
11	0xbc7beef2	-0.015376793
12	0x3d7efd17	0.062253084
13	0x3bf10764	0.0073556174
14	0x3d6a8ad7	0.057261314
15	0xbc2c4157	-0.010513625
16	0xbd3bd65a	-0.04585872
17	0xbd30e4bc	-0.043186888
18	0x3a024e55	0.0004970779
19	0xbd6f7f0b	-0.058470767
20	0x3dae4237	0.08508723
21	0x3a466b4a	0.0007569088
22	0x3b75bba2	0.003749587
23	0x3e0d2492	0.13783482
24	0x3cac9f09	0.021071928
25	0xbcae1c85	-0.021253834
26	0xbdc3897a	-0.09547706
27	0x3cee963c	0.029124372
28	0xbd7f43ca	-0.062320508
29	0xbcad7bd0	-0.021177202
30	0x3dc70f3c	0.097197026
31	0xbd914e8d	-0.070950605
32	0x3d053ee8	0.032530695
33	0x3b995339	0.0046791104
34	0x3db09e11	0.08623899
35	0x3d29c335	0.04144593
36	0xbd004d4f	-0.031323727
37	0x3d59bc33	0.053157996
38	0x3dd61ecb	0.10455092
39	0x3daf2e69	0.08553774
40	0xbd6e8993	-0.05823667
41	0x3d8c1df3	0.0684165
42	0x3d078fdf	0.03309619
43	0xbde73c7d	-0.11290834
44	0xbc3501bb	-0.011047776
45	0xbba6c864	-0.0050898064
46	0x3dbff7bb	0.09373423
47	0xbd648313	-0.055789065
48	0x3d9b0a0a	0.07570274
49	0x3bde036c	0.0067753103
50	0x3dce2af8	0.100667894
51	0xbd9c753d	-0.07639549
52	0xbbaacc9c	-0.0052123796
53	0x3cbcbca7	0.023039175
54	0xbcde5f0c	-0.027144931
55	0xbd8b8578	-0.068125665
56	0x3da6ff3f	0.08154153
57	0x3d4e00f9	0.050293896
58	0xbd9059af	-0.07048356
59	0xbd966faa	-0.07345517
60	0xbde599c0	-0.11210966
61	0xbda1ef3c	-0.079069585
62	0x3d1ee5cc	0.03879337
63	0x3df93a6f	0.121693484
64	0x3e172dc0	0.14763546
65	0xbd25b591	-0.04045636
66	0xbbb56f3a	-0.005536941
67	0xbd8b1bc2	-0.06792404
68	0x3e2a5496	0.1663383
69	0x3a8b0101	0.0010605158
70	0x3bb60c3a	0.0055556567
71	0x3e037763	0.12838511
72	0xbc6088a5	-0.013704454
73	0xbdb8db44	-0.090261966
74	0x3c390ca0	0.011294514
75	0x3dc3134e	0.095251665
76	0x3d61c496	0.05511912
77	0xbb7b5824	-0.0038352096
78	0x3de23615	0.110454716
79	0x3a816a26	0.0009873554
80	0xbcc87aab	-0.024472555
81	0xbbc20eaa	-0.0059221582
82	0xbe02077c	-0.12698168
83	0xbd862e45	-0.06551794
84	0x3e16f2b9	0.14741029
85	0x3c3b0b95	0.011416336
86	0x3d816f5d	0.06320069
87	0x3d1b81a6	0.03796544
88	0xbbb60f5a	-0.0055560293
89	0xbc45d3af	-0.012074395
90	0xbd819f4a	-0.0632921
91	0x3dbb30dc	0.091401786
92	0x3da38803	0.079849266
93	0x3e08ba3c	0.13352293
94	0x3d0033ac	0.03129928
95	0x3d360e9c	0.044447526
96	0x3dfc7451	0.12326873
97	0x3e09fc7b	0.1347522
98	0x3d717512	0.058949538
99	0x3dd78353	0.10523095
100	0x3ce214c9	0.027597802
101	0x3cc6a2ee	0.024247613
102	0x3d9ff591	0.0781051
103	0x3dd0bf9d	0.10192797
104	0xbd9aaf16	-0.07552926
105	0x3bb93b6e	0.0056528365
106	0x3da86e60	0.08224177
107	0x3d59d5c2	0.05318237
108	0xbdc33eae	-0.095334396
109	0xbd0a7e33	-0.03381176
110	0xbd9154c1	-0.07096244
111	0x3db11349	0.086462565
112	0xbcde427f	-0.027131317
113	0xbcddb432	-0.027063463
114	0x3a9d5c41	0.0012005643
115	0xbdfd2855	-0.12361208
116	0xbdcb6abf	-0.099324696
117	0x3df33a7f	0.118763916
118	0xbda41d8e	-0.080134496
119	0x3e048627	0.129418
120	0x3ddd0f06	0.10793881
121	0x3dcc95ac	0.09989485
122	0x3cc79e41	0.024367454
123	0x3dcd718b	0.10031422
124	0x3e0b4398	0.13600004
125	0x3c85d6fd	0.016337866
126	0x3d58237c	0.052768216
127	0xbd9a3bf4	-0.075309664
128	0x3dd06072	0.101746455
129	0xbdd676ae	-0.10471855
130	0x3dc3b8a8	0.09556705
131	0x3da7cfe2	0.081939474
132	0x3de0781b	0.10960408
133	0x3b0e38a2	0.0021701236
134	0xbdade262	-0.08490445
135	0x3ddf716a	0.10910304
136	0xbdde44c8	-0.10852963
137	0x3e08e1d8	0.13367403
138	0x3d59a290	0.053133547
139	0xbd907c13	-0.07054915
140	0x3e003528	0.12520278
141	0x3cbe553d	0.023234004
142	0xbccb3559	-0.024805712
143	0x3dc065a5	0.09394387
144	0x3d3c5b93	0.04598577
145	0xbd40887f	-0.047005173
146	0x3ca4ae1d	0.020102555
147	0x3dee919c	0.116488665
148	0x3d6ad498	0.05733165
149	0x3dd46613	0.103710316
150	0xbdd6f569	-0.10496027
151	0x3c318374	0.0108345635
152	0x3c856ef8	0.016288266
153	0x3d5be957	0.053689327
154	0xbd8bb34e	-0.06821309
155	0x3e0dfa55	0.13865025
156	0x3d07221c	0.032991514
157	0xbcf23e19	-0.029570626
158	0xbc515ca6	-0.012778437
159	0x3dcdc388	0.1004706
160	0xbe04d5c5	-0.12972172
161	0xbd51f7da	-0.05126176
162	0x3dc7ebec	0.097617954
163	0x3d8abc5f	0.0677421
164	0x3cdfe378	0.027330145
165	0x3d20e137	0.03927728
166	0xbd0cb5e1	-0.03435314
167	0xbd9d6ffa	-0.076873735
168	0x3d2049cc	0.03913288
169	0xbdc2cc60	-0.09511638
170	0x3de76cce	0.1130005
171	0x3d85b864	0.0652931
172	0x3cc3b8b2	0.02389178
173	0x3d8af6be	0.067853436
174	0xbca703bb	-0.020387521
175	0x3e223c4b	0.15843312
176	0x3e254e0c	0.16143054
177	0x3d09823b	0.033571463
178	0x3aa333f0	0.0012451392
179	0xbd6d02f7	-0.057864156
180	0x3dc69f63	0.09698369
181	0xbd87dbe6	-0.06633739
182	0x3d54cd74	0.051953748
183	0xbd28f9da	-0.041253902
184	0x3da6078e	0.0810691
185	0xbda8f892	-0.08250536
186	0x3d67743c	0.056507334
187	0x3d8695c6	0.06571536
188	0x3dda6af9	0.10664935
189	0xbcc34955	-0.023838678
190	0xbdf6d762	-0.120528
191	0x3cb32417	0.021867795
192	0xbde00500	-0.10938454
193	0x3ca59c9f	0.020216284
194	0x3e01b619	0.12667121
195	0xbbc3cc6c	-0.0059752967
196	0x3dd96dd7	0.106166534
197	0xbd4b3a06	-0.049615882
198	0xbc903284	-0.017602213
199	0x3d8c7584	0.06858352
200	0xbd47c5f4	-0.048772767
201	0x3dd1022b	0.10205492
202	0x3d800ffc	0.06253049
203	0xbd7c2d82	-0.061566837
204	0xbdcc9200	-0.09988785
205	0x3df23878	0.11827177
206	0x3db02432	0.08600654
207	0x3d0d8252	0.03454811
208	0x3dafde9d	0.08587382
209	0xbc5e04f5	-0.013550987
210	0xbd49d2b2	-0.0492732
211	0x3dfecb50	0.124411225
212	0x3e192ea8	0.14959204
213	0x3d5c0ac0	0.05372119
214	0x3ddabfbc	0.10681102
215	0xbca13ede	-0.019683298
216	0xbc8ca35c	-0.01716774
217	0xbdbd06d8	-0.09229821
218	0x3d4cf8f2	0.0500421
219	0xbda3338d	-0.07968817
220	0x3dc1600b	0.09442147
221	0x3dbd3932	0.09239425
222	0x3dce8f45	0.1008592
223	0x3c78aa5a	0.015177334
224	0xbccd2017	-0.025039716
225	0x3a97a99b	0.0011570932
226	0x3c51b0a7	0.012798465
227	0x3e257a51	0.16159941
228	0x3dc2f932	0.095201865
229	0xbcdd96b5	-0.027049402
230	0x3d916c9a	0.07100792
231	0xbdcc6908	-0.099809706
232	0xbd28b4c1	-0.041188005
233	0x3d6fd6cd	0.05855446
234	0x3d7dbbae	0.061946563
235	0x3dc98708	0.09840208
236	0xbcd74155	-0.02627627
237	0x3d65b0f0	0.056076944
238	0xbd3ca2d3	-0.04605372
239	0xbd8086bc	-0.062756985
240	0x3b4d1a9a	0.0031296373
241	0xbd2a8fd1	-0.04164106
242	0x3de31e61	0.11089779
243	0xbdd383de	-0.10327886
244	0x3db54000	0.08850098
245	0xbcc3ea46	-0.023915421
246	0x3e1a7816	0.15084872
247	0x3da9ee82	0.08297445
248	0xbc15f500	-0.009152651
249	0x3d828864	0.06373671
250	0x3dddb0ad	0.10824714
251	0xbda34d18	-0.07973689
252	0x3e05756b	0.13033073
253	0xbce79308	-0.028268352
254	0x3cf1991f	0.02949196
255	0xbd5ffc9b	-0.054684263

lstm.weight_hh_l0 f4 [256, 64]
0	0xbd398a5a	-0.045297958
1	0xbdd7bd89	-0.10534198
2	0x3d8258d6	0.063646
3	0xbdb0f7da	-0.08641024
4	0x3d8bfb26	0.06835012
5	0xbdee95d5	-0.11649672
6	0xbd8d45b6	-0.06898062
7	0xbdc7c6d3	-0.097547196
8	0x3d83c8d4	0.06434789
9	0x3c8ff00e	0.017570522
10	0xbdb001d2	-0.08594097
11	0x3c43a785	0.011941795
12	0x3dcb4b68	0.09926492
13	0xbce04841	-0.027378203
14	0xbe1a3de4	-0.15062672
15	0xbe0499ae	-0.12949249
16	0xbd4a68ff	-0.04941654
17	0xbd84c508	-0.06482893
18	0xbc85e32c	-0.016343676
19	0x3bfddcc4	0.0077472646
20	0xbe19f638	-0.15035331
21	0x3bfc8a1b	0.007706893
22	0xbc7742a7	-0.015091575
23	0x3d9e61b3	0.077334784
24	0x3cca9342	0.024728421
25	0x3d9746e6	0.0738657
26	0xbd0a414e	-0.033753686
27	0xbdb6750b	-0.08909043
28	0x3daf1653	0.0854918
29	0xbd8d1a02	-0.06889726
30	0x3dcf9214	0.10135284
31	0x3ca24e4f	0.019812731
32	0x3d9a7042	0.07540943
33	0xbe0b193a	-0.13583842
34	0xbcdce5bb	-0.026965013
35	0x3e0ac54b	0.13551824
36	0x3d84bd1a	0.06481381
37	0x3da099d9	0.07841844
38	0xbdad24fb	-0.08454319
39	0x3dd19e9e	0.10235332
40	0x3da44ff9	0.08023066
41	0x3cf5b2d2	0.029992495
42	0xbc26d9b0	-0.010183737
43	0xbddad748	-0.10685593
44	0x3bd1c1a8	0.0064012595
45	0x3de35e0b	0.11101922
46	0xbddd14c2	-0.10794975
47	0xbc8e9283	-0.017403847
48	0xbcc4e8e2	-0.024036828
49	0xbd814bc6	-0.06313281
50	0x3b9f516b	0.0048620007
51	0xbd05f5a4	-0.032704964
52	0x3dd17307	0.10227018
53	0x3dd6ee20	0.104946375
54	0xbdb5eb91	-0.08882821
55	0x3dd1817e	0.10229777
56	0xbce0b953	-0.02743212
57	0xbd815674	-0.06315318
58	0x3dac3570	0.0840863
59	0x3e0d5ca8	0.13804877
60	0x3d8ffc98	0.070306
61	0x3d2ddca5	0.04244675
62	0x3db9c53c	0.090708226
63	0x3c467dbb	0.012114937
64	0x3d72ceda	0.0592793
65	0xbdc423fa	-0.095771745
66	0xbdf41a3f	-0.119190685
67	0xbd864a45	-0.065571345
68	0x3d0ab381	0.033862595
69	0xbd81740e	-0.06320964
70	0x3c2133a3	0.009838971
71	0xbdf064b5	-0.11737958
72	0x3c64abd9	0.013956987
73	0xbd1659ca	-0.036706723
74	0x3d0d0020	0.034423947
75	0x3e04ea46	0.12979993
76	0xbd8feea3	-0.07027938
77	0xbe106b21	-0.14103366
78	0xbddfd661	-0.109295614
79	0x3e0d07b3	0.13772468
80	0x3df3788c	0.11888227
81	0x3c61a330	0.013771817
82	0x3e144def	0.14482854
83	0x3e01cc2c	0.12675542
84	0xbcfe73b1	-0.031061025
85	0xbd0bc8ca	-0.034127034
86	0x3d5fe5d2	0.054662533
87	0xbdfcd93b	-0.12346121
88	0x3cede3d0	0.029039294
89	0xbb21ed76	-0.0024708188
90	0x3e04af23	0.12957434
91	0x3cf0f134	0.02941189
92	0x3d991321	0.07474352
93	0x3dbbf095	0.09176747
94	0xbd8539d0	-0.065051675
95	0x3d5b65fc	0.053564057
96	0xbb52dae8	-0.0032173935
97	0xbc2e2dfc	-0.010631081
98	0x3e0552b7	0.13019834
99	0x3d79b194	0.060960367
100	0x3d9dda57	0.07707661
101	0xbda5b0f7	-0.08090394
102	0x3e0e5dcd	0.1390297
103	0x3e0105ce	0.1259987
104	0x3c9eca8f	0.019383697
105	0xbd43cc59	-0.047802303
106	0xbcef2c26	-0.029195856
107	0xbda82b49	-0.08211381
108	0x3dc1b4f2	0.09458341
109	0xbdbeab97	-0.09310072
110	0xbcfb3186	-0.030663263
111	0xbca96509	-0.02067806
112	0x3d6c3e6f	0.05767673
113	0xbcdfe9b7	-0.027333124
114	0xbd1c9714	-0.038230017
115	0xbd82db0d	-0.06389437
116	0xbc4daf85	-0.012554054
117	0x3da6aecd	0.08138809
118	0xbd9bab5d	-0.07601044
119	0xbdd19183	-0.10232832
120	0xbd61262f	-0.054968055
121	0xbd9843d4	-0.07434812
122	0xbdffd1a9	-0.124911614
123	0x3c38b07f	0.011272549
124	0x3d7f94c4	0.062397733
125	0xbd5f4469	-0.0545086
126	0xbe0f02d8	-0.13965929
127	0x3dc70e44	0.09719518
128	0x3cbe1cbe	0.023207065
129	0x3db00b04	0.08595851
130	0x3dd0ab1d	0.10188887
131	0x3d7c8b29	0.06165615
132	0x3dd148da	0.102189735
133	0xbd0024e6	-0.03128519
134	0xbdb7f090	-0.089814305
135	0x3dbcf26e	0.09225927
136	0xbd51f91d	-0.051262964
137	0xbdd8d67e	-0.10587786
138	0x3db09983	0.0862303
139	0x3e0d91c2	0.13825133
140	0xbc491581	-0.012273193
141	0xbdcc8f1d	-0.09988234
142	0x3d9d99fa	0.07695384
143	0xbdc5b578	-0.09653753
144	0x3b876afd	0.004132627
145	0x3d992c9d	0.074792124
146	0x3c9ccd1b	0.01914077
147	0x3d408b3c	0.047007784
148	0x3de22ef7	0.11044114
149	0x3d0e9835	0.034813125
150	0xbd581792	-0.052756853
151	0xbdfd44e4	-0.123666555
152	0x3df30278	0.11865705
153	0x3e1a070f	0.15041755
154	0xbd74e8e0	-0.0597924
155	0x3de95798	0.1139366
156	0xbdacacea	-0.08431418
157	0x3dfec6a5	0.12440232
158	0xbd619478	-0.05507323
159	0x3da72024	0.08160427
160	0xbe20205f	-0.15637349
161	0x3c65d623	0.014028105
162	0xbc37f6d8	-0.011228286
163	0xbd86918d	-0.0657073
164	0xbe1b46e9	-0.15163769
165	0xbe02c671	-0.12771012
166	0x3cf5a135	0.029984096
167	0x3e130130	0.14355922
168	0x3d8b4730	0.06800687
169	0xbc475794	-0.012166876
170	0xbd755725	-0.05989756
171	0xbe07acc0	-0.13249493
172	0x3c7e3185	0.015514736
173	0xbd8e6234	-0.069523245
174	0xbc7e4dae	-0.01552145
175	0xbc141394	-0.009037871
176	0xbc49a139	-0.012306505
177	0xbd4fa2e6	-0.05069246
178	0xbcb7c239	-0.02243148
179	0xbe13f872	-0.14450243
180	0xbdb75322	-0.08951403
181	0x3c678252	0.014130192
182	0xbd57c918	-0.052682012
183	0x3e14d81e	0.14535567
184	0x3dc3a2c9	0.09552533
185	0xbd2122cc	-0.039339826
186	0xbcd8e52a	-0.026476461
187	0x3db3b0c8	0.08773953
188	0xbda707b7	-0.08155768
189	0x3e159be7	0.14610253
190	0x3cb4ef35	0.022086719
191	0x3d38d856	0.04512819
192	0xbc10ba69	-0.008833506
193	0xbdab2bcb	-0.08357962
194	0x3d46d014	0.048538283
195	0xbd25a9c7	-0.040445115
196	0xbb34552c	-0.0027516587
197	0xbd638481	-0.055546287
198	0x3d39a847	0.045326497
199	0xbe240fef	-0.16021703
200	0xbdce7505	-0.100809135
201	0x3d4dc31e	0.050234906
202	0x3cc37cb5	0.023863176
203	0xbcac0e8e	-0.021003034
204	0x3dbc5c2d	0.09197269
205	0x3c9d69d8	0.01921551
206	0x3cb56445	0.022142539
207	0xbcaa0f97	-0.020759387
208	0x3e04e6b1	0.12978627
209	0x3e03f61a	0.12886849
210	0x3ccb2115	0.024796048
211	0xbcaf731e	-0.021417197
212	0x3bc19df8	0.005908724
213	0x3e00bfb6	0.12573132
214	0xbdd9c08b	-0.10632428
215	0x3d64b1d5	0.055833656
216	0x3e1fea24	0.15616661
217	0x3caaf188	0.020867124
218	0xbd06511e	-0.032792203
219	0x3e125608	0.14290631
220	0x3d82fb6a	0.0639561
221	0xbd85006b	-0.0649422
222	0xbd072aa8	-0.032999665
223	0x3c841afa	0.016126145
224	0xbdcb36cf	-0.09922563
225	0x3d773fea	0.060363688
226	0x3da24314	0.079229504
227	0x3dbb9944	0.091600925
228	0xbd338755	-0.043830235
229	0xbd9c3a22	-0.076282755
230	0x3dc36059	0.09539861
231	0x3e16ab3f	0.14713763
232	0xbd780d47	-0.060559537
233	0x3c78182d	0.015142483
234	0xba657710	-0.00087533984
235	0xbd6833c3	-0.05668999
236	0xbdc0a7e2	-0.09407021
237	0xbd3f9fb4	-0.046783164
238	0xbd3fd44b	-0.046833318
239	0x3dcd2750	0.10017264
240	0xbe1040df	-0.14087246
241	0xbd2663d6	-0.040622555
242	0xbcb705e2	-0.022341672
243	0x3d07328d	0.033007193
244	0x3e204a29	0.1565329
245	0xbddb8e35	-0.10720483
246	0xbceb53c9	-0.028726475
247	0x3e164829	0.14675964
248	0xbd918ba2	-0.07106711
249	0x3bc6628b	0.0060542277
250	0x3cb741e3	0.022370284
251	0x3d0f5d80	0.035001278
252	0x3da5c887	0.08094888
253	0xbca64b93	-0.020299708
254	0xbd71a21e	-0.058992498
255	0xbc2d2011	-0.010566727

lstm.bias_ih_l0 f4 [256]
0	0x3cd68072	0.026184294
1	0xbd8c1e69	-0.06841738
2	0x3da828fe	0.08210944
3	0xbc949e46	-0.018141877
4	0xbd91b903	-0.07115366
5	0x3bac1fbb	0.005252806
6	0xbc49cda7	-0.012317098
7	0x3d23bf4f	0.039977368
8	0xbded92a0	-0.11600232
9	0x3dd694a5	0.104775704
10	0xbd2e4b35	-0.04255219
11	0x3d856c05	0.06514744
12	0x3de50885	0.111832656
13	0xbd726502	-0.05917836
14	0x3d1f02e2	0.03882111
15	0xbd51e8a7	-0.051247265
16	0xbdbfc804	-0.09364322
17	0xbdc1a1d7	-0.094546966
18	0xbb84d2a7	-0.004053432
19	0x3dc380a9	0.09546024
20	0x3de7c9eb	0.1131781
21	0xbd9f8744	-0.07789472
22	0x3dcbedab	0.09957441
23	0x3ce70a23	0.028203076
24	0x3e0e1584	0.13875395
25	0xbc3faf40	-0.011699498
26	0x3e08dd0a	0.1336557
27	0xbcd71734	-0.026256181
28	0xbd92c599	-0.07166595
29	0xbd5878e1	-0.052849654
30	0x3dbb8fc1	0.09158278
31	0xbc4ed586	-0.01262415
32	0xbd7b2592	-0.061315127
33	0xbdb8a153	-0.09015145
34	0xbdcb016c	-0.099123806
35	0x3d6ad2bc	0.05732988
36	0xbd4cc51a	-0.04999266
37	0xbd40b3af	-0.04704636
38	0x3dab1df2	0.08355321
39	0x3dea6fcd	0.114471056
40	0x3dc2e074	0.09515467
41	0x3dc30fba	0.09524484
42	0xbd2ff13b	-0.042954665
43	0x3d6f879a	0.05847893
44	0xbdc63006	-0.096771285
45	0x3daebd23	0.08532169
46	0xbc2d018d	-0.010559452
47	0xbd1c6000	-0.03817749
48	0x3dec6859	0.1154334
49	0xbe063d98	-0.13109434
50	0xbd3efd4d	-0.046628285
51	0xbd8d6989	-0.06904895
52	0xbd951f25	-0.07281331
53	0xbe030137	-0.12793432
54	0x3d1ab99f	0.03777468
55	0xbd015a53	-0.03158028
56	0x3cda0c37	0.026617153
57	0xbda97069	-0.08273394
58	0x3e122bbc	0.14274496
59	0x3d41e15a	0.047334053
60	0xbcff8585	-0.031191597
61	0x3dafc606	0.08582692
62	0xbdd927e3	-0.10603311
63	0x3d81e100	0.063417435
64	0x3d5d6b6a	0.054057516
65	0x3cfc16b5	0.030772546
66	0xbd1d881c	-0.038459882
67	0x3de9bd09	0.11413009
68	0x3c3b34a9	0.011426129
69	0xbd8d7925	-0.06907872
70	0xbd4e3848	-0.050346643
71	0x3d55c385	0.052188415
72	0x3d6f62d8	0.058443874
73	0xbdb1aa7a	-0.08675094
74	0x3df00d76	0.117213175
75	0xbcb7efe2	-0.022453252
76	0x3e0065ea	0.12538877
77	0xbc43038a	-0.011902699
78	0x3d5ed00f	0.05439764
79	0xbd1be929	-0.038064156
80	0x3d2dc287	0.042421844
81	0x3d9132d3	0.07089772
82	0xbd36e1a4	-0.04464878
83	0xbd235e02	-0.039884575
84	0x3d1076e1	0.03526962
85	0x3c77c7ea	0.015123347
86	0x3c832fc1	0.016013982
87	0xbdfa18c7	-0.12211757
88	0xbcb992b1	-0.022652956
89	0x3da5d08f	0.0809642
90	0x3dbbbc62	0.091667905
91	0x3d17a691	0.037024084
92	0x3dcf1260	0.10110927
93	0xbc00b7ee	-0.007856352
94	0x3debb969	0.115099736
95	0x3d87c9f3	0.06630316
96	0x3d8851b4	0.06656209
97	0x3caa974b	0.020824095
98	0xbca0b11f	-0.019615708
99	0xbb2e8d48	-0.0026634503
100	0xbd3f7a51	-0.04674751
101	0xbdaebcb1	-0.08532084
102	0xbdd59cee	-0.104303226
103	0x3e08598e	0.13315412
104	0xbc89e924	-0.016834803
105	0xbdb3e7eb	-0.08784469
106	0x3d14ab12	0.036295958
107	0xbaf0141f	-0.0018316543
108	0x3d464d7e	0.048413746
109	0x3dde78b9	0.1086287
110	0xbd5da7af	-0.054114994
111	0x3dccb268	0.09994966
112	0xbd3fec4f	-0.04685622
113	0x3c38530d	0.01125027
114	0x3d45caff	0.048289295
115	0x3da00b4e	0.07814656
116	0xbd8f2b8a	-0.06990726
117	0x3db452d5	0.088048615
118	0xbdaddeba	-0.08489747
119	0xbc98c1ac	-0.018647037
120	0xbd9db86f	-0.077011935
121	0x3d68a417	0.056797113
122	0x3daf6a11	0.085651524
123	0xbcb773a2	-0.022394005
124	0x3d30539c	0.043048486
125	0x3d4b7893	0.049675535
126	0x3cfac1b5	0.030609945
127	0xbcb277d4	-0.021785654
128	0xbdccfb5d	-0.10008881
129	0xbdc5f950	-0.09666693
130	0xbddae73d	-0.106886365
131	0xbcdef97e	-0.027218577
132	0xbda50037	-0.080566816
133	0xbdf14da0	-0.11782384
134	0xbdcc78d0	-0.09983981
135	0xbbb6924e	-0.00557164
136	0xbda0a061	-0.0784309
137	0x3c861f2e	0.01637229
138	0xbdc57ffa	-0.0964355
139	0x3dfe473e	0.12415932
140	0xbd5c4a8f	-0.053782042
141	0xbdd66be2	-0.10469796
142	0xbcba8d04	-0.02277232
143	0x3d8914fc	0.066934556
144	0x3e058807	0.13040172
145	0x3dbf00e5	0.093263425
146	0x3db3bf2e	0.08776699
147	0x3e0abd37	0.13548742
148	0x3b5929a9	0.0033136404
149	0xbd8869fe	-0.066608414
150	0xbd974a27	-0.0738719
151	0xbd4276de	-0.04747664
152	0xbd89c932	-0.06727828
153	0x3dbfa037	0.093567304
154	0xbda91330	-0.08255613
155	0x3a5cedf5	0.00084277923
156	0x3df68820	0.120376825
157	0x3dd5f888	0.10447794
158	0x3c9385ce	0.018008139
159	0x3d483f42	0.048888452
160	0x3d1d5cbf	0.038418528
161	0xbe01f589	-0.1269132
162	0xbd4dd7d2	-0.05025465
163	0xbdd853f8	-0.10562891
164	0x3b6e7ba5	0.0036389616
165	0xbe027ed2	-0.1274369
166	0x3dcb1d38	0.099176824
167	0x3e0bd996	0.13657221
168	0x3df4f15e	0.119601
169	0xbdab7fe7	-0.08374005
170	0x3d62b94f	0.055352505
171	0x3d3e51b0	0.046464622
172	0x3d9f31ca	0.077731684
173	0x3d5899b7	0.05288097
174	0xbd8653b8	-0.06558937
175	0x3db77fe6	0.089599416
176	0x3cb3c181	0.021942856
177	0xbda3781b	-0.07981893
178	0xbc5007a0	-0.01269713
179	0xbdd4fb8e	-0.10399543
180	0x3d2b541f	0.04182827
181	0xbdcb0cae	-0.09914528
182	0xbc7bdb7c	-0.015372153
183	0xbcb3f024	-0.021965094
184	0x3d9f67d1	0.07783473
185	0x3dc3c5ec	0.09559235
186	0xbdfe3846	-0.12413077
187	0xbd1a5523	-0.03767885
188	0x3d77319e	0.060350053
189	0x3c4ce694	0.012506146
190	0x3cc9a4c5	0.024614701
191	0xbb05dfce	-0.0020427587
192	0x3d84d2a7	0.06485491
193	0x3d552b02	0.05204297
194	0x3d23a6e1	0.03995407
195	0x3de9df48	0.11419541
196	0xbc233b3a	-0.009962851
197	0xbd99f704	-0.075178176
198	0xbccf65d4	-0.02531711
199	0xbd937516	-0.07200067
200	0xbcc8f697	-0.024531646
201	0x3c23f53c	0.010007199
202	0x3d27b502	0.040944107
203	0x3e0147a6	0.12624988
204	0x3df02f0c	0.117277235
205	0x3da450b0	0.080232024
206	0x3e0f1009	0.1397096
207	0x3deed1ce	0.11661111
208	0xbc0d66d5	-0.008630474
209	0xbe057211	-0.13031794
210	0x3db88f98	0.09011763
211	0x3c9ced48	0.019156113
212	0x3def8391	0.11695016
213	0xbce0a60a	-0.027422924
214	0x3daaaa5b	0.08333274
215	0x3dc3a1fb	0.0955238
216	0x3de04f13	0.10952582
217	0xbda00868	-0.07814103
218	0x3d0c0495	0.034184057
219	0xbd173534	-0.036915973
220	0xbbd0ae01	-0.006368399
221	0xbc898d30	-0.016790956
222	0xbd228771	-0.03967995
223	0xbd190941	-0.03736234
224	0x3d0fd1fe	0.035112374
225	0x3cc2287d	0.023700947
226	0xbd898dd7	-0.06716507
227	0x3d04bb6e	0.03240531
228	0x3d05715a	0.032578804
229	0x3da9356d	0.08262143
230	0xbd8ff9d9	-0.070300765
231	0x3e0715a7	0.13191853
232	0x3e06ed58	0.13176477
233	0xbda7f071	-0.082001574
234	0x3d94947f	0.07254886
235	0xbd1f9bf0	-0.038967073
236	0x3d974f3e	0.07388161
237	0xbd49bd38	-0.04925272
238	0x3da38b59	0.07985563
239	0xbdabd6ac	-0.08390555
240	0x3cb468c2	0.022022609
241	0xbdd8b96e	-0.10582243
242	0x3c89852f	0.01678714
243	0x3d72733d	0.05919193
244	0xbce253cc	-0.027627848
245	0xbddf2716	-0.10896127
246	0xbbd2d6e4	-0.0064343084
247	0xbdcd4f5a	-0.10024901
248	0x3c030994	0.007997889
249	0xbdc8c44b	-0.09803065
250	0xbc887151	-0.016655596
251	0x3d2ad730	0.041709125
252	0x3e14e810	0.1454165
253	0x3a17e000	0.00057935715
254	0x3dc61cae	0.09673439
255	0xbd9d9d0b	-0.07695969

lstm.bias_hh_l0 f4 [256]
0	0x3df93bff	0.121696465
1	0x3ddf5a87	0.109059386
2	0xbc885cb4	-0.016645767
3	0xbccc1faa	-0.024917442
4	0xbe03ffb1	-0.12890507
5	0x3cffe0a3	0.031235045
6	0x3dd316a6	0.10307054
7	0xbd9f87b2	-0.07789554
8	0x3c266e91	0.010158197
9	0xbdbb8aa1	-0.09157301
10	0x3d3bb191	0.045823637
11	0xbd165f4f	-0.036711987
12	0x3dd0c24b	0.101933084
13	0x3c1e48b1	0.009660886
14	0x3d409b0c	0.047022864
15	0x3c8e3a44	0.017361768
16	0x3c9ff9c6	0.019528281
17	0x3d1a9ec7	0.037749078
18	0x3d971b71	0.07378281
19	0xbdbb8f14	-0.09158149
20	0xbdbd5c0e	-0.09246074
21	0xbde211ff	-0.11038589
22	0x3d705168	0.058671385
23	0x3d5036fa	0.05083368
24	0x3d2182ca	0.03943137
25	0xbc79a676	-0.015237441
26	0x3de72683	0.112866424
27	0x3a37e6e8	0.00070153037
28	0xbdb8ad50	-0.09017432
29	0x3db41cd5	0.08794562
30	0xbd6bcf19	-0.05757055
31	0x3bccbde6	0.0062482236
32	0x3bbdca81	0.0057919626
33	0xbcec6d04	-0.028860576
34	0x3db6698c	0.0890685
35	0x3bf67e69	0.0075223935
36	0xbdd057a3	-0.101729654
37	0xbd1e47cf	-0.0386427
38	0x3df17df6	0.11791603
39	0x3de42e91	0.11141694
40	0x3e01b4b4	0.12666589
41	0x3c0095b6	0.007848194
42	0x3d9c5893	0.07634082
43	0x3d91e509	0.07123763
44	0xbd3ef4ec	-0.046620294
45	0xbc4bd53a	-0.012440974
46	0xbc4b3a48	-0.012404032
47	0x3d8f39a2	0.069934145
48	0x3da469bd	0.080279805
49	0xbdc371d9	-0.09543199
50	0xbde41d69	-0.11138422
51	0xbc56ebff	-0.013117789
52	0x3d8144c4	0.06311944
53	0xbd9d7adc	-0.07689449
54	0xbdabce94	-0.08389011
55	0xbdc7df33	-0.09759369
56	0x3d21aeae	0.03947323
57	0xbaa3e8ea	-0.0012505327
58	0x3dd90050	0.10595763
59	0xbcdd13a0	-0.026986897
60	0xbda9f838	-0.08299297
61	0x3d8924ef	0.06696498
62	0x3c5996ff	0.013280629
63	0xbdc48c52	-0.095970765
64	0x3d8fb856	0.07017581
65	0x3c60cc08	0.01372052
66	0x3cf9564d	0.03043666
67	0xbc3587bc	-0.011079725
68	0x3b4ce5c1	0.0031264874
69	0xbd8248e5	-0.0636156
70	0x3dc827d8	0.097732246
71	0x3d2039e5	0.039117713
72	0xbdca9a38	-0.09892696
73	0x3df0ebdf	0.11763739
74	0x3cf06f5d	0.029349977
75	0x3c6cdab7	0.014456443
76	0x3d2146b2	0.03937406
77	0x3e0afefa	0.13573828
78	0x3de91a91	0.1138202
79	0xbdadc7e2	-0.0848539
80	0x3d384e81	0.044996742
81	0xbbbbeee7	-0.0057352665
82	0x3d686ccf	0.056744393
83	0xbc1e00d1	-0.009643749
84	0x3cf01a85	0.02930952
85	0x3cc06740	0.023486733
86	0xbcf55bd0	-0.029951006
87	0x3de81bab	0.11333402
88	0xbce63fd0	-0.0281066
89	0x3deb7598	0.114970386
90	0x3d43c9ce	0.047799878
91	0xbe027d4a	-0.12743106
92	0x3e058a4d	0.13041039
93	0xbdb7fb2e	-0.089834556
94	0x3dc27ff3	0.094970606
95	0xbd554a5e	-0.052072875
96	0x3e04a62a	0.12954012
97	0x3c357574	0.011075366
98	0x3d882b73	0.06648912
99	0xbd84ccc6	-0.0648437
100	0xbd3283a6	-0.04358258
101	0x3dd0442d	0.101692535
102	0xbd43803c	-0.047729716
103	0xbc1872e0	-0.009304732
104	0x3c829dc0	0.015944362
105	0x3c271a44	0.010199133
106	0x3d8adcdd	0.067804076
107	0x3ddf80eb	0.10913261
108	0xbdfb2d0d	-0.12264452
109	0x3cad2192	0.021134172
110	0xbd16d62a	-0.036825337
111	0x3c81a79e	0.015826996
112	0x3dcbdb4a	0.099539354
113	0xbd1f5034	-0.038894847
114	0x3d6444b7	0.055729594
115	0x3db4cefb	0.08828541
116	0x3d9d43c9	0.076789446
117	0x3d0ff9c3	0.0351503
118	0x3da906f8	0.08253282
119	0xbd350604	-0.04419519
120	0x3d3dece1	0.046368483
121	0xba308f64	-0.0006735234
122	0x3e066991	0.13126208
123	0x3df93675	0.1216859
124	0xbdae6a82	-0.085164085
125	0xbccf4ba4	-0.025304623
126	0xbc9c749d	-0.019098574
127	0x3d7996f3	0.060934972
128	0x3d5a0159	0.05322394
129	0xbdc7b294	-0.09750858
130	0xbd8e7d8f	-0.06957542
131	0xbd0ba641	-0.0340941
132	0xbd9049df	-0.0704534
133	0x3d96b604	0.073589355
134	0x3cc01370	0.023446769
135	0xbd2b70d4	-0.04185565
136	0xbd4b80a3	-0.049683224
137	0x3d135ac2	0.035975225
138	0xbd2f8441	-0.042850737
139	0xbb9d5c75	-0.0048022815
140	0x3dfbfce4	0.123040944
141	0xbd021a17	-0.031763162
142	0xbe0915dd	-0.13387246
143	0xbd34918f	-0.044084128
144	0x3de1992a	0.11015542
145	0xbcf9ab99	-0.030477332
146	0xbdd61b1f	-0.10454392
147	0xbd32605f	-0.043548938
148	0xbac238fa	-0.0014818006
149	0xbd9eb886	-0.07750039
150	0x3d809760	0.062788725
151	0xbda81283	-0.08206656
152	0x3d3f1e38	0.04665968
153	0xbcb443ae	-0.022004928
154	0xbd3997ca	-0.045310773
155	0x3dbad078	0.091217935
156	0x3b178545	0.0023120206
157	0xbca3d327	-0.019998146
158	0x3d3d15a0	0.0461632
159	0x3df74a0c	0.1207467
160	0xbdbb96ab	-0.09159597
161	0x3d26a136	0.040681086
162	0x3d9b3849	0.07579095
163	0x3c4b9540	0.012425721
164	0xbdd96d25	-0.10616521
165	0x3dbf4945	0.09340147
166	0x3d180ac2	0.037119634
167	0x3d9c6c63	0.076378606
168	0xbdc058a7	-0.09391909
169	0x3d1aede6	0.037824534
170	0xbdff259c	-0.12458345
171	0xbd6d4534	-0.057927325
172	0xbd916894	-0.07100025
173	0xbe022803	-0.12710576
174	0xbbf69726	-0.0075253425
175	0x3e0a93ce	0.13532946
176	0xbc555334	-0.013020325
177	0xbc303e26	-0.010757005
178	0x3d8c2782	0.06843473
179	0xbda6c1fd	-0.08142469
180	0x3db9dafb	0.0907497
181	0xbd8b7036	-0.06808512
182	0x3c8cafe0	0.017173707
183	0x3dbb2eb0	0.09139764
184	0xbc096980	-0.00838697
185	0x3d75c2af	0.060000118
186	0x3d003e4c	0.03130941
187	0x3d13743d	0.035999525
188	0xbde2574b	-0.11051806
189	0x3c95939f	0.018258868
190	0xbde19658	-0.11015004
191	0xbd520796	-0.051276766
192	0x3d1e341b	0.03862391
193	0x3d8ee159	0.069765754
194	0x3d3d0caf	0.046154674
195	0x3da1ba7d	0.07896898
196	0xbd1f2973	-0.03885789
197	0xbd9a8be4	-0.07546213
198	0xbc80bafa	-0.015714157
199	0x3dde875f	0.10865664
200	0xbdce0255	-0.100590385
201	0xbd8297b1	-0.06376589
202	0xbd431f81	-0.047637466
203	0xbdaa1a33	-0.08305778
204	0x3d121be8	0.035671145
205	0xbdb4e6de	-0.08833097
206	0xbd88d791	-0.06681741
207	0xbd7f125e	-0.062273376
208	0xbcb62b1d	-0.022237355
209	0xbc4846d9	-0.012223923
210	0x3db9a998	0.090655506
211	0x3dacc154	0.08435312
212	0x3c013b6b	0.0078877015
213	0x3dcbcc07	0.099510245
214	0x3e14ce9a	0.14531937
215	0xbc96cdf8	-0.01840876
216	0x3ddf7aeb	0.109121166
217	0xbcf21e6d	-0.029555524
218	0x3de85605	0.11344532
219	0xbdd4b608	-0.10386282
220	0x3e0d524c	0.13800925
221	0x3d8545f9	0.06507487
222	0x3e01c383	0.12672238
223	0xbdcddcb9	-0.10051865
224	0xbaf6f49d	-0.0018841211
225	0xbd215f48	-0.039397508
226	0xbd971c45	-0.07378439
227	0x3d7922d5	0.060824234
228	0x3d3277d2	0.0435713
229	0xbd66042a	-0.056156315
230	0xbe00cc8c	-0.12578028
231	0xbda8a2c6	-0.082341716
232	0x3dc7d3b1	0.09757174
233	0xbc5ff5ed	-0.013669473
234	0xbdac1623	-0.0840266
235	0xbdb2e3fb	-0.0873489
236	0xbc4a7060	-0.012355894
237	0xbb27c5c8	-0.0025600065
238	0x3c57a33c	0.013161477
239	0xbc8f163b	-0.017466655
240	0x3dea6177	0.11444371
241	0x3d392a51	0.04520637
242	0x3db204ff	0.08692359
243	0x3da13cc3	0.078729175
244	0xbdd215fb	-0.10258099
245	0x3d115855	0.03548463
246	0x3cef3890	0.029201776
247	0x3dcb123e	0.09915589
248	0xbd822086	-0.063538596
249	0xbdb96e2f	-0.09054219
250	0xbd12af36	-0.035811625
251	0xbd01ef8a	-0.031722583
252	0xbcda269a	-0.026629735
253	0xbdac4429	-0.08411438
254	0x3d7cbecc	0.061705396
255	0x3da5a041	0.08087207

fc.weight f4 [1, 64]
0	0xbdebb586	-0.11509232
1	0x3cc19d3c	0.023634546
2	0xbdebb881	-0.11509801
3	0xbe198dd8	-0.14995515
4	0x3d9754d6	0.07389228
5	0xbd9ac70f	-0.07557499
6	0x3dec070f	0.11524784
7	0xbda8735b	-0.08225127
8	0x3ddeaff6	0.10873406
9	0xbda57aa2	-0.08080031
10	0x3c968c46	0.018377434
11	0x3d4902e2	0.049075015
12	0x3dd5588d	0.1041728
13	0xbdf71e0a	-0.12066276
14	0xbd608ee5	-0.054823775
15	0xbd86b13e	-0.06576775
16	0x3d88787d	0.06663606
17	0xbdcc28e3	-0.09968736
18	0x3ca77c37	0.020444972
19	0x3df282ec	0.118413776
20	0xbc5681ac	-0.01309244
21	0x3e00ef49	0.1259128
22	0xbdda126c	-0.10648045
23	0x3b353236	0.0027648336
24	0x3d937a1d	0.07201026
25	0x3e07c2a1	0.13257839
26	0x3dcc882f	0.099869125
27	0xbda46868	-0.080277264
28	0xbd601bd1	-0.054714028
29	0xbcc010ae	-0.023445453
30	0x3e0e0f4c	0.13873023
31	0x3bfaf736	0.0076588644
32	0xbd669f30	-0.056304157
33	0xbda9eb61	-0.08296848
34	0xbde298b4	-0.11064282
35	0x3dc6fdde	0.0971639
36	0x3d4e2b4a	0.050334252
37	0xbd06dd37	-0.03292581
38	0x3c300119	0.010742449
39	0x3d547bd6	0.05187591
40	0x3d1dad1f	0.03849518
41	0x3d590c5e	0.05299031
42	0xbaf5fbdb	-0.0018767075
43	0xbda44eef	-0.08022868
44	0x3d256274	0.040377095
45	0xbd1392c6	-0.036028646
46	0xbc3745ff	-0.011186122
47	0x3dd29957	0.102831535
48	0xbde2b880	-0.11070347
49	0x3d571166	0.052506827
50	0x3d80e8c4	0.062943965
51	0xbe05d4b0	-0.13069415
52	0x3d80ab7f	0.0628271
53	0x3da982c0	0.08276892
54	0xbd8fd3c1	-0.07022811
55	0x3d8269cb	0.06367835
56	0x3dde734b	0.10861834
57	0xbc103cca	-0.008803556
58	0xbdfb2347	-0.12262588
59	0x3e136d3d	0.1439714
60	0xbd24a4b5	-0.04019614
61	0xbc3029f9	-0.010752195
62	0xbd9c683a	-0.07637067
63	0x3da21b88	0.079154074
