trained_models/min_temp/rnn_model_1632050665.pt (torch, 19735 bytes, 5 tensors)

rnn.weight_ih_l0 f4 [64, 3]
000000 63 66 9d bd af e2 b7 bd 84 74 7f 3d 84 15 fb bc
       -0.07685544 -0.08978783 0.062366977 -0.030649908
000010 12 c3 e9 3c 03 01 fa bd 0a 00 a9 bd aa 46 18 bd
       0.0285354 -0.12207224 -0.082519606 -0.037176766
000020 58 8f fa 3c ef 71 95 bd e6 24 b0 bc e7 62 df 3d
       0.03058593 -0.07297122 -0.02150197 0.10907536
000030 7a ce 9b bd b7 c5 bc bd 8f 37 84 bd 73 ab a7 3d
       -0.07607742 -0.092173986 -0.064559095 0.08186998
000040 a7 f2 a7 bd 45 07 7f bd 68 86 0f 3d bb 04 00 bd
       -0.08200579 -0.062262792 0.03504029 -0.03125451
000050 fe d6 3e bd 64 30 99 3b a7 3b a9 bd 56 4d 9f 3d
       -0.04659175 0.004674958 -0.08263331 0.077784225
000060 22 5a 97 bd 88 45 bc 3d 70 ee a0 3d 25 91 d7 bd
       -0.07390238 0.091929495 0.07857978 -0.10525731
000070 4f 39 64 3d 6f 8d 5e 3c 89 85 62 3d 78 b8 e9 3d
       0.055718716 0.013583525 0.05530313 0.11412138
000080 82 d1 cf bd 0f c6 dd 3c 75 7a ce bd 9b 13 01 be
       -0.10147382 0.02707198 -0.100819506 -0.12605135
000090 d9 3a 93 bd bb 01 07 bc 83 ea 55 bd e2 29 d5 3d
       -0.07188959 -0.008240159 -0.0522256 0.10408379
0000a0 b3 c2 64 bd bf 7e cc 3d 26 28 d8 ba 43 c5 53 bc
       -0.055849742 0.099851124 -0.0016491457 -0.012925449
0000b0 cd 89 f1 bd b9 ab 71 3c c8 72 b9 bd a5 22 1f 3d
       -0.117938615 0.0147504145 -0.09055096 0.0388514
0000c0 60 0f 59 3c 8c 65 8d bd 02 e2 a0 3d cf 04 d3 bc
       0.013248295 -0.06904134 0.078556076 -0.025759129
0000d0 d0 95 a2 3d 9e da ec bc c9 40 8f 3d ab 39 be bc
       0.07938731 -0.028912839 0.06994779 -0.023220858
0000e0 ff 3f 6c 3d b6 7e 99 3d a3 34 87 bd 95 a8 5e bd
       0.05767822 0.07494871 -0.066018365 -0.05435999
0000f0 91 79 84 bd 4d b2 b1 3d b6 76 06 be cf a0 f7 3d
       -0.064684995 0.08676586 -0.13131222 0.12091219
000100 08 47 f9 bd cb 8d 70 3c 4e 90 b4 bd 32 be b9 3d
       -0.12171751 0.014682244 -0.088165864 0.0906948
000110 28 7e 4e 3c 61 bc 93 3c b5 a2 3d bd 15 40 c9 bd
       0.01260332 0.018034162 -0.046297748 -0.09826676
000120 97 01 c7 bd 2c 56 4c bb 0c fe fe 3d cf 65 df bd
       -0.097171 -0.0031179292 0.12450799 -0.1090809
000130 37 36 96 3c a4 16 a4 bd db 84 05 3b 29 49 1c bd
       0.018336399 -0.08012131 0.0020373377 -0.03815571
000140 c6 f3 0a 3e 9a 58 c6 3d 28 7c bf bc a5 86 ad bd
       0.13569555 0.09684868 -0.023374632 -0.08472947
000150 02 52 80 3c b5 ca e4 ba bc 79 d1 bd 22 10 48 bd
       0.015664104 -0.0017455431 -0.10228297 -0.04884351
000160 c4 6c d5 bc d2 7d 84 ba 6b da 89 bd 5d a2 e2 3d
       -0.02605284 -0.0010108298 -0.06731113 0.110661246
000170 44 61 e1 3d fb 9c 02 3c e6 40 a7 bd e1 3b 87 3d
       0.1100488 0.007971997 -0.08166675 0.06603218
000180 cb f9 41 bd 77 81 f8 bd cb a3 e4 bd 7f e0 84 3c
       -0.04735736 -0.121340685 -0.111640535 0.01622033
000190 10 3f cc 3d cc 6c 24 3d 94 06 a6 bc 31 8d c3 3d
       0.09972966 0.04014282 -0.020266809 0.095484145
0001a0 8b 1c d1 bc 88 10 0f 3d 35 1d dc bd b0 fd b7 bd
       -0.025526306 0.034927875 -0.10747758 -0.08983934
0001b0 e8 33 eb bc 31 f5 81 3d 73 7f 07 3e d0 21 a9 3b
       -0.028711274 0.06345595 0.13232212 0.0051615015
0001c0 99 51 6d 3d 8e ab 6c 3c 3d b3 5b bd d4 a3 5f bd
       0.057939146 0.014445199 -0.05363773 -0.054599598
0001d0 d4 e4 c2 3c 8f d4 82 bd 93 9a a7 3d dd 38 91 bd
       0.023790754 -0.063881986 0.081837796 -0.07090924
0001e0 40 03 b1 3c 31 ec 5f ba fc 5c 92 3d 86 16 33 bd
       0.021607995 -0.000854197 0.071466416 -0.043722652
0001f0 bb ab 7b 3d 14 40 17 3e a9 84 b8 bd 2d 94 f5 3d
       0.06144307 0.14770538 -0.09009678 0.11991153
000200 d8 b1 f4 3d fb 71 2c bb 1b b3 8a bd cc de 59 bd
       0.119479835 -0.0026313055 -0.06772443 -0.05319099
000210 68 7b 47 bc 67 43 8f 3d a3 17 ba 3d 76 15 fc bd
       -0.012175418 0.06995278 0.090865396 -0.12308781
000220 b2 b9 aa 3d 3a 92 10 be 82 e1 ff 3d ec 8f 46 3d
       0.083362 -0.14118281 0.12494184 0.0484771
000230 1f 18 53 3c 34 79 04 3c 23 c8 af bc b9 20 e5 bd
       0.012884169 0.008085538 -0.021457737 -0.11187882
000240 07 78 b4 3d 20 18 2b 3d a6 d1 f7 3d 05 b9 33 3b
       0.08811956 0.041771054 0.12100534 0.0027423513
000250 ae f1 c8 bd b1 77 c8 3c a7 a4 c1 bd db ed 69 bd
       -0.09811722 0.024471136 -0.09455233 -0.057111602
000260 e3 21 90 bd 19 59 b0 3d 6a c9 b7 bd f7 8a c0 3d
       -0.070377134 0.08610744 -0.089739636 0.094015054
000270 15 02 2f 3d 60 5e 73 bd 43 86 92 bd 96 bc 8e 3b
       0.042726595 -0.059416175 -0.07154515 0.0043559773
000280 13 fa 0d 3d 15 83 e1 bc be 10 a2 3c d3 2a 91 bd
       0.034662317 -0.027528325 0.019783374 -0.07088246
000290 3a 97 16 3e c6 03 39 bd 08 1c c7 bd a7 32 21 3d
       0.14706126 -0.045169614 -0.097221434 0.039354946
0002a0 cf 2e 5c bd 11 38 72 bc cd 2e 8c 3d dc c0 cd 3d
       -0.053755578 -0.014783875 0.06844864 0.10046551
0002b0 4b 25 fe 3d 92 d4 b4 bc dc e1 05 bc b0 ab ae bd
       0.12409457 -0.022074018 -0.008171525 -0.085288405
0002c0 a7 06 84 bc 86 6b ee 3c c3 b2 bb bc 36 37 f7 3c
       -0.016116453 0.029104006 -0.022912389 0.030177694
0002d0 ed 8e 89 bd 89 a6 44 bd 7b 2f a9 bd 81 00 00 be
       -0.06716714 -0.048010383 -0.08261009 -0.12500192
0002e0 02 36 e5 bd 56 d6 8e 3d 1d 9b f2 3c 3c 37 79 bd
       -0.11191942 0.06974475 0.02961498 -0.06084369
0002f0 f5 d2 b8 bd d3 d7 a1 3d 1b 0b 9f 3c 3d 08 7a bd
       -0.09024612 0.07902493 0.019414475 -0.061043013

rnn.weight_hh_l0 f4 [64, 64]
000000 9c b4 8c 3d c1 9b 9e bd 05 99 b2 bd 3c 75 ee 3c
       0.06870386 -0.077445515 -0.087205924 0.029108636
000010 4b a5 f4 bd 6b 1e e5 bd 1f 39 ad bd 9c 32 48 bd
       -0.1194559 -0.111874424 -0.084581606 -0.04887639
000020 45 5f c3 3d 77 a5 31 bd 6e a0 33 bd 40 2d 9c bd
       0.095396556 -0.04337069 -0.04385417 -0.07625818
000030 35 d3 4b bc e5 a6 d7 3d 1c 21 8f 3d 73 8f d9 bc
       -0.012440492 0.105298795 0.06988737 -0.02655766
000040 68 f3 b9 3d 11 df a8 bd d5 c1 b8 bd 7d fe 15 3d
       0.09079629 -0.082456715 -0.090213455 0.036619652
000050 ad f0 32 3d 7a 0f fd bd f2 91 32 bd 6d 0e f3 3d
       0.043686558 -0.123564675 -0.043596216 0.11867986
000060 8e cf bd 3d 1e 28 56 3d c1 f3 cd 3d 53 ea a4 bc
       0.092681035 0.052284352 0.10056258 -0.020131266
000070 ef 73 e9 3d bd 2d f1 3d 2e 1f 16 3d 2a f4 29 3d
       0.11399066 0.11776302 0.03665083 0.04149262
000080 dd 35 83 bc 1e 0a bd 3d 9b 97 a0 bd 1a 9f ea 3b
       -0.016016895 0.09230445 -0.078414164 0.0071600797
000090 45 cb cc bd 0e b7 ac bd ff 6a df 3c 8e 72 d3 3d
       -0.09999708 -0.084333524 0.0272727 0.10324584
0000a0 98 b5 cb 3d 5d 48 9a bd 4b 92 4b bd 89 bb 17 3e
       0.09946746 -0.075333335 -0.049700063 0.14817633
0000b0 3d e5 d0 3d ad 50 47 bd 49 78 3d bd 29 d0 11 3c
       0.10199974 -0.048660923 -0.04625729 0.008899727
0000c0 93 e4 10 bd 18 fe 43 bd e7 fc 92 3d 08 5e bf bd
       -0.035374235 -0.047849745 0.071771435 -0.09344107
0000d0 ba d5 5e bd 2a 1a ad 3c d3 2f c4 bd 82 30 a8 3d
       -0.054403044 0.02113064 -0.09579434 0.08212377
0000e0 68 8a db 3d 7e ca a6 bd 34 90 93 bd f8 92 dc 3d
       0.10719758 -0.08144091 -0.07205239 0.107702196
0000f0 1e dc 04 bd 10 d0 d1 bd db 9e 09 3e b6 85 4b bd
       -0.032436483 -0.10244763 0.13439505 -0.049688064
000100 fc 63 db bd f8 af b0 3c 89 95 e8 3b 37 7d 85 bd
       -0.1071243 0.021568283 0.007097904 -0.065180235
000110 b1 80 cf bd f7 d9 7e bd 48 53 14 bd 8c b5 29 3c
       -0.10131968 -0.062219586 -0.036212236 0.010358226
000120 b9 48 89 bc e8 48 6e bd 23 3d 9e 3d 2f 49 2e 3c
       -0.01675831 -0.058174998 0.07726505 0.0106375655
000130 1a 9a 88 bc a8 f9 1b 3c 02 6b 0f bc 78 82 81 3d
       -0.016675044 0.009519972 -0.00875354 0.06323713
000140 ae a3 d4 ba 29 1d f1 bd a0 e6 86 3c 0a 99 c1 3d
       -0.0016223097 -0.1177314 0.016467392 0.09453018
000150 a3 69 2e bd 3b aa 32 bd 0d 78 8b bb b6 5c 3d bd
       -0.04258121 -0.043619376 -0.0042562545 -0.046230994
000160 18 35 e2 3d 52 09 ad 3d 3b 01 e7 bc a0 ce de bd
       0.11045283 0.08449043 -0.028198829 -0.10879254
000170 77 be a3 3d 01 22 c7 bd c8 0f 98 bd 4a 11 5f bd
       0.07995313 -0.097232826 -0.07424885 -0.054459848
000180 a8 9c 64 bd 12 d6 dd bd f6 45 e2 bd 53 3d cf 3c
       -0.05581346 -0.10831846 -0.110485 0.025297796
000190 82 05 6d bd e2 1f 01 be 6b ea 8e 3d 7f 61 a0 bd
       -0.05786658 -0.12609819 0.069783054 -0.07831096
0001a0 22 23 7d 3d 1c 82 d2 bd 4d d3 96 3d 14 30 82 bc
       0.061801083 -0.10278723 0.07364521 -0.015892066
0001b0 05 5c 9b 3d 26 20 ac bd a4 64 8f bd 72 23 64 bc
       0.07585911 -0.08404569 -0.070016176 -0.013924466
0001c0 69 f7 c6 bd c0 6e 5d bd 5d 7c 02 bc d4 e1 b2 bd
       -0.097151585 -0.054060698 -0.007964221 -0.087344795
0001d0 53 0b 30 bd b0 28 dd bd 4a 13 8f bd a8 26 bd 3d
       -0.04297955 -0.10798776 -0.06986101 0.09235889
0001e0 2c c9 07 be 10 17 51 bd 3b 6a 86 bc e8 b7 02 be
       -0.13260335 -0.051047385 -0.016408077 -0.12765467
0001f0 69 7c 0a 3e e0 2a e2 3d 25 eb 27 bc 46 64 8e 3d
       0.13524021 0.11043334 -0.010248934 0.069527194
000200 8f a9 a8 bd f1 d4 4b bd 02 28 ff bd 1e 52 ed 3d
       -0.08235466 -0.049763624 -0.12458803 0.11587928
000210 65 fd 52 3d 8b aa c2 bd 73 ec cb bd cc ba f0 3c
       0.051511187 -0.09505185 -0.099572085 0.029385947
000220 3b 45 a1 bd 89 40 42 3d b3 d7 ae 3d f5 09 dc 3d
       -0.07874533 0.047424827 0.08537235 0.10744087
000230 91 0d f5 bc b6 ea 6b 3d c0 cc c0 bd 2a 4f 95 bd
       -0.029913696 0.057596885 -0.09414053 -0.0729049
000240 21 5d f4 bd f6 7c 06 3d ce 15 c5 bd eb 86 8d bc
       -0.119318254 0.032834016 -0.096232995 -0.017276248
000250 00 b3 08 bd 27 44 3e 3c 2e ce 3a bd 6b b3 9b bd
       -0.033373833 0.0116129285 -0.045606785 -0.07602581
000260 12 d9 04 3d d8 62 a9 3d da 98 90 3d ef 72 e9 bd
       0.032433577 0.08270806 0.07060404 -0.11398875
000270 1f 5a 0d 3c f1 b5 91 3d 36 78 4c bd 6a 29 cc 3d
       0.008627444 0.07114781 -0.04991933 0.099688366
000280 32 8c 14 bd e4 82 ba 3c b0 f3 a7 3d 75 ad ae 3d
       -0.036266513 0.022767492 0.082007766 0.08529178
000290 c1 c4 2e 3d 89 33 38 bc 3a f4 c1 bd 06 e6 0e 3d
       0.042668108 -0.011242756 -0.09470411 0.034887336
0002a0 14 5a 38 3b 6f 37 cd 3c 7c 4c b9 bd 97 bb e8 bd
       0.0028129863 0.025050847 -0.09047791 -0.11363905
0002b0 af 91 35 3d 10 57 b8 bb a1 e2 48 3c 95 5e 31 bd
       0.044328388 -0.005625613 0.012261064 -0.04330309
0002c0 79 c5 d0 bd 46 c3 fe bd 12 3e 6d bc 95 dd 06 be
       -0.10193915 -0.12439589 -0.014480131 -0.13170464
0002d0 8b 91 f4 3c 89 94 4b 3d 78 22 c3 3d 3e aa 7e 3c
       0.029854557 0.0497022 0.09528059 0.015543519
0002e0 96 a1 dd bc 61 19 d8 3d 9a 3e a1 bc 18 9f fe 3c
       -0.02705459 0.10551716 -0.019683171 0.031081721
0002f0 32 ce d0 3d 7e 76 ea bd 98 bf 85 3d 1e 34 96 bd
       0.10195579 -0.11448382 0.06530684 -0.07334159
000300 6e fc c0 3d 2e fe 2f bd 61 e4 1b 3d b1 48 c4 3d
       0.09423147 -0.042967014 0.038059596 0.09584177
000310 ef 5a 04 be 66 a0 98 3d 93 d2 23 3d 7d 81 d1 bc
       -0.12925313 0.074524686 0.03999574 -0.02557444
000320 67 de ea 3d 5d ae 00 3d 30 44 14 3c 1e b5 7f 3d
       0.11468201 0.031416286 0.00904946 0.062428586
000330 3e 27 8c 3d 6a 73 24 3d 19 26 e1 bd 41 83 c0 3d
       0.06843422 0.04014913 -0.10993595 0.09400035
000340 c3 93 83 bd 9e 4f 7e bd c6 18 1e 3d c6 2c 86 3d
       -0.06424668 -0.062087648 0.038597845 0.065515086
000350 ae 3a 42 3c 3c 44 6f 3d 13 cf b6 3a 24 be 4b 3d
       0.011854811 0.058414683 0.0013947211 0.04974188
000360 5c 7a 00 3d af 92 ec 3b f1 6d 3c 3d 45 45 e4 3d
       0.03136669 0.0072196345 0.046003286 0.111460246
000370 b0 96 c9 3c 25 eb ca bd 5c 42 ec bd d0 d1 ac bc
       0.024607986 -0.099081315 -0.115360945 -0.02109614
000380 af ec 61 bd be f4 c8 3d 87 a7 9d bc 09 32 93 3d
       -0.05515736 0.09812306 -0.019244922 0.07187278
000390 b1 fd c4 bd b2 7e 65 bd ee eb 28 bd 04 9b 0e bd
       -0.096187 -0.05602903 -0.041240625 -0.034815803
0003a0 53 73 63 bd 8c 4d 15 bd 4b 4a a8 bc 32 eb 18 3d
       -0.055529904 -0.036450908 -0.020543238 0.037333675
0003b0 20 42 b4 bd 2e a7 06 bd 47 e5 a1 b9 26 c8 b1 bc
       -0.08801675 -0.03287428 -0.00030879138 -0.021701884
0003c0 0e 3d 41 bd 08 34 dc 3d 90 9f a5 bb 24 e0 5e 3c
       -0.047177367 0.10752112 -0.0050544217 0.013603244
0003d0 45 74 c5 3d b4 a8 a5 3d f4 8a 4b 3d cb d0 d2 3c
       0.09641317 0.08088818 0.049693063 0.025734326
0003e0 48 dc 2c 3d 62 fa 45 3d 6d d2 b2 bc d7 42 b5 3d
       0.042202264 0.048334487 -0.021828854 0.08850639
0003f0 4b d6 76 3d 52 91 8b 3c b2 45 64 bd 7d 4d b3 bd
       0.06026296 0.017037068 -0.05573053 -0.08755014

rnn.bias_ih_l0 f4 [64]
000000 29 02 95 3d f3 cf de bc 4a 74 8a 3d 02 71 83 3d
       0.07275803 -0.027198767 0.06760462 0.06418039
000010 1e 70 83 3c 28 0c ba bd a3 84 71 3d ae 4c 89 3c
       0.016044673 -0.0908435 0.058964383 0.016760197
000020 4a f8 de 3d a9 80 81 3d fc d7 61 3c e1 a5 38 3d
       0.10887201 0.06323368 0.013784405 0.04508007
000030 ac e3 4f bb 4f 0b bb 3d 61 83 db 3d 7e da 50 3c
       -0.0031721396 0.09133016 0.10718418 0.012747405
000040 d8 2a a8 bd e6 bb d9 3d 80 10 67 3d 94 18 d5 3d
       -0.08211297 0.10631542 0.05641222 0.104050785
000050 8f b2 c2 3b 56 07 e0 3d ca 4b dd 3d 5a de d8 bd
       0.005941696 0.10938899 0.10805471 -0.10589285
000060 42 09 98 bd 9b 7f eb bd 6f a1 fe bc 12 84 f7 bc
       -0.07423641 -0.11498948 -0.031082837 -0.030214343
000070 33 19 c6 bd 66 81 94 bd 9b 93 60 3c ef cc e8 3d
       -0.09672775 -0.07251243 0.013707067 0.11367213
000080 f9 24 f9 3b 8c 3b 66 bc bf 09 53 bd cc 18 b8 bd
       0.0076032844 -0.014052283 -0.051522966 -0.08989105
000090 b3 43 bc bd b8 0f e6 3d a7 aa 0d 3d 9f 4c 55 bd
       -0.091926 0.11233467 0.034586575 -0.052075025
0000a0 5c 19 63 bd d7 87 d0 bc fa 4b 7d 3d 42 b1 c8 3c
       -0.055444106 -0.025455398 0.061840035 0.024498586
0000b0 ed 9a b9 bd 6a 78 38 bd 9e e3 86 bc ed 5e e8 bd
       -0.09062753 -0.04503671 -0.016465958 -0.11346231
0000c0 6e 12 f0 bd df d0 a7 3d e5 0d 4a bd f5 76 58 3c
       -0.11722265 0.08194136 -0.049329657 0.013211955
0000d0 16 99 1b 3d 19 2c 98 bd 52 dc 2a 3d 8d d1 ac 3c
       0.03798779 -0.07430286 0.04171402 0.021096015
0000e0 6a a4 c0 3d 35 ba e8 3d 77 69 93 bd 8e e8 5a 3d
       0.094063595 0.11363641 -0.0719785 0.053444438
0000f0 b0 a4 a5 3d 4d c6 bb bd 42 a1 40 3d 84 12 98 bd
       0.08088052 -0.09168682 0.047028787 -0.074254066

rnn.bias_hh_l0 f4 [64]
000000 fa 82 a1 39 12 91 e2 3b bb 90 0f bd e6 ce b8 bd
       0.00030805898 0.0069142664 -0.035050135 -0.09023838
000010 2b 60 c4 3d 86 e2 b0 3d 38 19 a8 3d c1 fe a4 3d
       0.09588655 0.08636956 0.08207935 0.08056403
000020 b0 3e 09 bd d6 58 02 be ea 41 ef 3d ba bf 81 bc
       -0.03350705 -0.127292 0.11682494 -0.015838493
000030 44 2b b3 bc 40 17 90 bd 1b c1 5d 3d 16 48 4b bb
       -0.021871217 -0.070356846 0.054139238 -0.0031018308
000040 65 73 ac 3d ef 01 1f bd 56 84 f7 bd 50 f9 89 bd
       0.08420447 -0.038820203 -0.12085788 -0.06737006
000050 b8 0d cf 3d 4a 84 d4 bd b7 80 52 3a 27 87 a0 bd
       0.101100385 -0.10376795 0.0008030044 -0.07838278
000060 f6 ce a4 3c de 31 a9 3d 65 06 d3 bc 53 f2 f9 bd
       0.020118218 0.082614645 -0.025759885 -0.12204423
000070 a9 0a d5 bb a9 f3 28 3c 69 9e 4b 3d 61 2c 96 bc
       -0.006501515 0.010311999 0.04971162 -0.018331708
000080 cd 84 52 3c c3 7d cc 3d 7a 65 00 3e f6 e5 9f 3d
       0.012849045 0.09984925 0.1253871 0.078075334
000090 c7 86 7d 3d cf 39 4a 3c 30 34 e4 bd 03 a7 b4 bd
       0.06189611 0.012342884 -0.111427665 -0.088209175
0000a0 c4 7d ed bc d8 f6 ab bd 4f 6c 7c 3d a7 a5 e3 bd
       -0.028990634 -0.08396691 0.06162673 -0.1111558
0000b0 b1 98 e7 bd 58 6e c8 bd de 1a a1 bc ae 1e 5f bd
       -0.113084204 -0.097866714 -0.019666132 -0.054472618
0000c0 92 11 02 3e d2 97 cc 3c 17 be 62 3d c0 db a9 3d
       0.12702015 0.024974737 0.055357065 0.08293867
0000d0 65 ff f6 3d d0 e7 81 bd a8 4b 99 bd db 41 18 3d
       0.120604314 -0.06343043 -0.074851334 0.03717218
0000e0 48 c4 b6 3d 21 03 bc bc b7 fb 95 3d 50 3e ee 3d
       0.089241564 -0.02295071 0.073234014 0.11632979
0000f0 89 23 a2 bd 7d 71 af 3d 85 7e 68 bd 79 38 c6 bd
       -0.07916934 0.08566568 -0.056761283 -0.0967874

fc.weight f4 [1, 64]
000000 a0 99 80 bb bd 28 92 bd fd 18 b6 bd e8 7a 89 bc
       -0.0039245635 -0.071366765 -0.08891485 -0.01678224
000010 a5 86 81 3c 7c 2e 54 bd 8a 50 e9 bd b3 93 c4 3d
       0.015811274 -0.051802143 -0.11392315 0.09598484
000020 b8 15 a4 3d 10 19 a4 3c c7 14 ed bd 1f 28 dd bd
       0.08011955 0.020031482 -0.115762286 -0.10798668
000030 60 44 a0 3d 0e 26 81 3d ae 19 04 be d6 03 b0 3d
       0.078255415 0.063060865 -0.12900421 0.08594482
000040 a9 64 57 bd 86 1a 05 3e d2 a2 9d bd 93 f1 62 bd
       -0.05258623 0.12998399 -0.07697071 -0.055406164
000050 27 7f a0 bd 81 7e d9 bd 8a d1 89 bd 4b 27 aa 3d
       -0.078367524 -0.10619832 -0.067294195 0.08308276
000060 a3 fb 8d bd e9 9b 0d bd c8 81 18 3e 59 fa 04 be
       -0.069327615 -0.034572516 0.14893258 -0.12986125
000070 95 20 65 bd be 6b 81 3d 72 0f 44 bd 34 72 82 3d
       -0.055939276 0.06319378 -0.047866292 0.06369439
000080 b6 56 ab bd be 45 49 bd 92 f4 a0 3d db 04 fd bd
       -0.08366148 -0.049138777 0.07859148 -0.12354442
000090 49 aa 9f 3c b2 9f cf 3d 9e c6 dc bd 06 c1 6a bd
       0.019490378 0.10137881 -0.10780071 -0.057312988
0000a0 5f 2c 9f bd 64 82 8e bd 5e 1d fd 3d 91 c7 ee 3d
       -0.07772135 -0.06958464 0.12359117 0.11659158
0000b0 86 cb 92 bd 43 c9 d2 bd 1d 5d ef 3d 39 42 4b bd
       -0.07167725 -0.10292294 0.11687682 -0.0496237
0000c0 08 b6 21 bc f2 2d 1a 3d c8 8e 25 bd 66 4e db 3c
       -0.00987006 0.037641473 -0.04041937 0.026770782
0000d0 fe 99 0d be e7 b0 92 3b 33 4f 4e 3d 43 0c 39 bd
       -0.13828275 0.004476655 0.0503685 -0.04517771
0000e0 3e e5 05 bd 61 94 ca 3c 13 79 ff bd a5 f0 71 3d
       -0.032689326 0.024728956 -0.12474265 0.059067387
0000f0 8e 6b a7 3c 22 7d db bd d5 54 9c 3d 1d d0 d4 3c
       0.020437028 -0.107172266 0.07633368 0.025978142
