trained_models/pressure/lstm_model_1632058112.pt (torch, 72727 bytes, 5 tensors)

lstm.weight_ih_l0 f4 [256, 3]
000000 f2 b5 1c 3d 58 20 a6 3c 14 a9 96 3d 24 23 ad 3d
       0.038259454 0.020279095 0.07356468 0.08453968
000010 bf e6 aa bd df d5 85 bc f0 b9 74 bd 1c c7 fa 3c
       -0.083447926 -0.016337333 -0.059747636 0.03061252
000020 61 94 7e 3d 6b ea 1e 3d b5 9f 8c bd 25 5d b7 3d
       0.062153224 0.038797777 -0.06866399 0.08953313
000030 26 35 4f 3d 70 d7 4f 3d 2e bb ca 3d 7a 19 91 bd
       0.050587796 0.050742567 0.09898983 -0.070849374
000040 3c f7 fd 3d 54 d8 a4 3d 8d 47 19 3e ca 5e ed 3d
       0.12400672 0.08049074 0.149687 0.11590345
000050 bc 50 f6 3d a6 f5 20 bb fb d2 a8 3b fc 65 09 3e
       0.120271176 -0.002456048 0.005152104 0.1341781
000060 e4 44 d1 3c 85 4a 15 bb ca 45 93 3d 13 2f 9d 3c
       0.025545545 -0.0022780013 0.071910456 0.019187486
000070 4b ff ad 3c 82 b1 c2 3d 4a 1a 22 bd db 94 9e 3d
       0.021239897 0.09506513 -0.039575852 0.07743236
000080 95 3d 1e 3e 5d 4b aa 3c c6 e5 ae 3d 01 54 ca bd
       0.15453179 0.02078789 0.085399196 -0.09879304
000090 c0 3d c4 bc 2f 06 cb 3c b6 97 02 3e 21 de 16 3e
       -0.023955226 0.024783222 0.12753186 0.14733173
0000a0 0d 1e e5 bd 65 d0 a5 3d d0 55 1c bd 01 d2 85 3d
       -0.11187372 0.08096389 -0.038167775 0.06534196
0000b0 d3 7a c2 bc 7a 2e 24 3d 0d b7 9f 3d 07 3f 64 bd
       -0.023740208 0.040083386 0.07798586 -0.05572417
0000c0 3e da fa 3d 0d f1 d6 3d e1 ef 0d 3e bf d7 ef 3c
       0.12248658 0.104951955 0.13861038 0.02927768
0000d0 53 ad bd 3d b1 2e e3 bc 8d 78 f4 bd 1f 80 9d 3d
       0.092615746 -0.027732225 -0.11937056 0.07690453
0000e0 df b9 ab bd 11 22 a7 bd e4 9d c6 bd 53 a5 9a 3d
       -0.083850615 -0.081607945 -0.09698084 0.07551064
0000f0 d9 64 5d 3d 74 d5 db bd a4 ef ae 3c 44 4f bc 3d
       0.054051254 -0.10734072 0.021354504 0.09194806
000100 c1 dd 5d ba eb ca 7f 3d 07 68 d9 3d e4 ef 8f bb
       -0.0008463525 0.062449377 0.10615545 -0.004392611
000110 fc 58 1d 3d a2 22 55 bc de c2 9e bc 65 16 1d 3d
       0.03841494 -0.013008745 -0.01938003 0.038351435
000120 00 f6 b5 bd 30 b3 64 bd 10 57 ca bd ca c2 61 bd
       -0.088848114 -0.05583495 -0.09879887 -0.055117406
000130 16 7b 3d bb 79 16 89 3d c9 7e ea 3d 3d cb fc 3a
       -0.0028912476 0.066937394 0.114499636 0.0019286644
000140 31 24 b8 3d 7a f5 16 bd 59 3a 7f 3d 86 2f a9 bd
       0.08991278 -0.0368552 0.062311504 -0.082610175
000150 a7 1c b1 3d 23 7c 96 bd 10 33 7a bd 95 f5 3f 3d
       0.08648043 -0.07347896 -0.061083853 0.046865065
000160 e4 4b ab 3d f0 ef 1b bd 0a 92 f5 3d 55 55 29 3d
       0.08364084 -0.03807062 0.11990745 0.041341145
000170 f7 1e 86 bc 1d 87 d7 3c 67 a8 ef bc 68 50 45 3d
       -0.016372187 0.026309544 -0.029255105 0.048172385
000180 db 47 da bd de ec ab bd ad 1b 27 3d 56 cf 83 bd
       -0.106582366 -0.08394788 0.040797878 -0.064360306
000190 6e 48 67 3d 88 3b 31 3c b4 de 87 3d 48 27 29 bc
       0.05646556 0.010817416 0.06634274 -0.010324307
0001a0 0c c5 6d 3d 38 7e 32 3d e9 d4 f6 bc 7d d6 3c 3d
       0.058049247 0.043577403 -0.03013082 0.04610299
0001b0 f6 ac b8 bd 69 a8 a1 bd 70 08 a2 bd ee 60 ab bd
       -0.09017365 -0.0789345 -0.079117656 -0.08368097
0001c0 f1 4d fd ba f5 65 50 3d b5 00 ca bd 8d 9d bb bc
       -0.0019325597 0.050878484 -0.09863416 -0.022902275
0001d0 43 25 7f bc 05 f8 20 bd 9d 20 a3 3d 3b f7 4a 3c
       -0.015572849 -0.03929903 0.07965205 0.012388046
0001e0 71 31 a4 bd 0b 8f f3 bd 18 48 74 3c 0f f2 89 bd
       -0.08017243 -0.11892518 0.014909767 -0.06735622
0001f0 3e 43 fd bc 36 4b 47 bd 93 c6 33 3d 31 0a 38 3d
       -0.030915853 -0.04865571 0.043890547 0.044931594
000200 fa d7 e6 3d a5 38 9f 3d 8b 11 cb 3d 19 2c 94 bd
       0.11271663 0.07774476 0.099154554 -0.072349735
000210 af f3 7c 3c d2 d9 5e bc 8e 5f b1 bd 4f fb 91 bd
       0.015438958 -0.013601737 -0.08660804 -0.071280114
000220 e8 51 e7 3d b7 87 6c 3d f3 b8 87 bd a6 b7 b1 bd
       0.11294919 0.057746615 -0.06627073 -0.08677606
000230 91 d9 e3 3d 9e 39 3b bd 64 a6 12 bd 48 5b 27 3e
       0.11125482 -0.045709245 -0.035803214 0.16343415
000240 46 b6 ac 3d 83 9b 49 3c dd ca af bd 8f 3d c2 3c
       0.084332034 0.012305143 -0.08583615 0.023710994
000250 25 8d b4 bd 43 1a 18 3c de af 38 bd 87 a1 a8 3c
       -0.08815984 0.009283605 -0.045089595 0.020584835
000260 06 8c c0 bb 3e 24 cf bd 41 8c 06 be 09 6a 58 3a
       -0.005876067 -0.101143345 -0.1313944 0.00082555466
000270 cc 1c a4 bd f3 18 54 3d a2 5e 60 3d d1 c5 c1 3d
       -0.08013305 0.051781606 0.05477775 0.094615586
000280 3b 07 ab 3d 9b 70 0c 3e 71 c8 dc 3c 42 2f e1 3d
       0.083509885 0.1371483 0.026951047 0.10995342
000290 bb 72 9c bb ff d5 ee 3d 6c b9 15 bd 9e 24 94 3c
       -0.004774419 0.1166191 -0.036553785 0.018083867
0002a0 b6 95 f5 bd 21 2f cc bd 5c 76 64 3d f2 f3 39 bd
       -0.11991446 -0.099699266 0.05577694 -0.04539866
0002b0 ad 7d 28 3d 90 ca 0b 3e ee c0 18 3d e0 a8 e0 3d
       0.04113548 0.1365149 0.037293367 0.1096971
0002c0 ce 97 00 bd a1 ec 03 3d f1 dc fd bc 45 d6 84 3d
       -0.031394772 0.03220809 -0.030989142 0.06486181
0002d0 8c 2d 82 3c 00 69 b8 3d 57 f1 ae 3b fe f9 7e bd
       0.015890859 0.09004402 0.0053388285 -0.06225013
0002e0 34 1f 44 bd 77 16 d8 3a ac ea b9 bb cc 2f a5 3d
       -0.04788132 0.0016486187 -0.005673727 0.08065757
0002f0 c8 07 16 3d 5e 44 2b 3e 00 35 32 bd e5 0f ad 3d
       0.036628515 0.16725299 -0.043507576 0.08450297
000300 16 26 fd bd e8 08 00 be 1d c9 2e 3d 79 37 45 3d
       -0.1236078 -0.12503397 0.042672265 0.048148606
000310 6e b8 6a bd 43 e3 0e 3d ce 6a c5 3d ee ed dc bc
       -0.057304792 0.034884702 0.09639512 -0.026968922
000320 86 70 de 3d a1 63 5c bd 28 23 18 3d 1f 0e 46 bd
       0.10861306 -0.05380595 0.037142903 -0.04835331
000330 e9 26 87 bd bb 8f df 3d cd d9 61 bd 25 6a 99 bc
       -0.065992184 0.10916086 -0.05513935 -0.018727371
000340 a2 7b 14 bd 4d 98 dd 3c f1 a0 5c bd 61 ec 71 bc
       -0.036250718 0.027050162 -0.053864423 -0.01476583
000350 08 b2 dd 3d ec a5 83 bd 12 63 98 bd 5b 06 81 bd
       0.108249724 -0.064281315 -0.07440771 -0.0630004
000360 91 24 54 3d aa bd 04 3e 0c 24 9b 3d bd 17 5c 3d
       0.051792685 0.12962976 0.07575235 0.053733576
000370 55 27 45 3d 0f 85 c0 3d 41 8b 4d bb ee 23 95 bd
       0.048133213 0.09400379 -0.003136352 -0.07282244
000380 87 8d 92 bd 4b 3d a9 3d fe bd 3f 3d 6d 4e cc 3c
       -0.071559004 0.08263644 0.04681205 0.02493974
000390 2c 05 91 bb 10 c5 54 3d 76 39 16 3a 04 56 11 3e
       -0.0044256654 0.051945746 0.0005730608 0.14192969
0003a0 e9 b7 48 bd fc d1 3e 3d db 0c f6 bc 83 c7 4f bd
       -0.049003515 0.046586975 -0.030035427 -0.05072738
0003b0 12 eb 70 3d 6f ba aa 3d 31 fc a3 bd e6 99 87 bd
       0.05881793 0.08336341 -0.08007086 -0.06621151
0003c0 3e 1a ca bb 83 1d 96 3d 2c e7 8c bc 00 f5 40 3d
       -0.006167679 0.07329848 -0.017200075 0.04710865
0003d0 25 bb fc 3d df da 45 bd a8 15 24 bd f0 ff bc 3c
       0.123403825 -0.048304435 -0.040059716 0.02307126
0003e0 20 0b 86 3c b7 48 d6 bd 5e 67 93 3c 48 04 63 3d
       0.016362727 -0.10463088 0.017993625 0.055424005
0003f0 d7 bf c4 3d d9 76 f9 bd c4 d2 3e bd a6 1d 5a 3d
       0.09606903 -0.121808715 -0.04658772 0.05325093

lstm.weight_hh_l0 f4 [256, 64]
000000 f0 0c c4 3d ee 35 d5 3b ae d8 34 3d 2b 0b 96 bd
       0.0957278 0.006506673 0.044151954 -0.07326349
000010 81 df 9b bd 51 13 bb 3d cf 5d 60 3d cc 70 55 3d
       -0.07610989 0.09134544 0.054776963 0.052109525
000020 47 37 c4 3d 9c 27 c1 bd 12 5f e9 bd c9 85 99 bd
       0.09580856 -0.09431383 -0.11395086 -0.074962206
000030 49 2c 23 3d 8e ab 6b 3d 6f 12 01 3e 3f a4 88 bd
       0.039837155 0.057536654 0.12604688 -0.066719525
000040 09 24 be 3d 7b ad 05 be 48 33 be bd 2b 84 c5 bd
       0.09284217 -0.13054459 -0.09287125 -0.0964435
000050 e7 85 98 bd fd 8e d3 bd 30 f4 dc bd 20 e0 e9 bd
       -0.07447415 -0.10330007 -0.107887626 -0.114197016
000060 83 cb 84 3d b6 9b da bd 03 ee 82 bd 84 c4 00 be
       0.06484129 -0.10674231 -0.063930534 -0.12574965
000070 26 3a 9b bd 7f 3e 13 3d 57 ec 61 bc 3c f6 9d bd
       -0.0757945 0.035948273 -0.013789258 -0.07712981
000080 1a 8a c3 3d 0c e9 85 bc 16 97 c5 bc 77 e6 2b 3d
       0.09547825 -0.016346477 -0.024119895 0.041967835
000090 c9 e8 cd 3c e6 3a 8e bd 2b 46 fe 3d 81 f7 d8 bc
       0.025135415 -0.06944828 0.12415727 -0.026485207
0000a0 ae d6 86 3d 23 16 f6 bd 67 e3 00 bb 5d 49 94 bd
       0.06583916 -0.12015941 -0.0019666792 -0.072405554
0000b0 f8 dd da 3d 80 45 7a bc 9f fd fd 3c c1 ab 90 3d
       0.106868684 -0.015275359 0.031004725 0.070640095
0000c0 1a 62 ea 3d 2c 2b 3e 3d 96 6e 64 bd 72 07 ed 3d
       0.11444493 0.04642789 -0.055769525 0.11573686
0000d0 4c e7 d6 bd 0f 9a bf bb cc d4 f7 3c 23 60 bc 3d
       -0.10493335 -0.0058472226 0.030252837 0.09198024
0000e0 24 a3 d3 bd 58 b2 4b bd fa 0c dd bd 53 78 99 bd
       -0.10333851 -0.04973063 -0.10793491 -0.07493653
0000f0 d3 65 aa 3d 47 4b 03 bd 18 5f 85 bd 52 38 c4 bd
       0.08320203 -0.032054212 -0.06512278 -0.09581055
000100 6c ac 55 3d 7c 45 6e 3d 73 38 61 bd c9 be 82 3d
       0.052166387 0.058171734 -0.054985475 0.06384046
000110 a3 bd 80 bd ec 68 57 3d 16 2e c3 bd fc f6 b7 bc
       -0.0628617 0.052590296 -0.095302746 -0.022456639
000120 e0 b5 21 bc ed 11 51 3d 8c 63 60 3d b0 18 9b 3d
       -0.009870023 0.051042486 0.054782435 0.07573068
000130 e4 23 56 3d 95 79 79 bd d4 34 f6 bd ee 15 74 bd
       0.05228032 -0.060906965 -0.12021795 -0.059591226
000140 13 8b 6b 3d cf 6c 55 bd 13 75 e5 bc e2 9a a3 bd
       0.05750568 -0.05210572 -0.028009927 -0.07988526
000150 2a 40 e3 3d ba 63 06 3e 52 be 09 3e 91 a8 3f 3c
       0.11096223 0.1312398 0.13451508 0.011697904
000160 d3 e6 c7 bd 04 e1 08 be 2d 63 c6 3d 24 80 9b bd
       -0.09760823 -0.13367087 0.09686885 -0.075928
000170 b0 ce 70 3d fd 0f 77 3d 05 a8 87 3d fe c1 c9 bd
       0.058790863 0.060317982 0.06623844 -0.09851454
000180 b7 4e eb 3d f8 dd 06 be 41 20 82 bc dc d1 82 bd
       0.11489623 -0.13170612 -0.01588452 -0.06387684
000190 82 da 5a bd 41 c4 09 3e 41 dc 19 bd d4 1a f2 3d
       -0.05343104 0.13453771 -0.037563566 0.11821523
0001a0 bd 2f e4 3d 3b 0d ab bd 61 69 72 3d 4e 48 a4 bd
       0.11141918 -0.08352133 0.05918253 -0.080216035
0001b0 63 25 d7 bd 08 28 b6 3d 50 90 06 3e e4 0e 41 bd
       -0.10505178 0.08894354 0.13140988 -0.04713334
0001c0 b6 fc d2 bc b8 23 92 3d 95 c7 93 bd 1d 0f cc bd
       -0.025755268 0.07135719 -0.072158016 -0.0996382
0001d0 1b 25 cf bd b1 35 49 3a da bf 00 3d 14 7e 10 3e
       -0.10114499 0.0007675542 0.031432964 0.14110595
0001e0 03 e3 2b 3d 8f 0c 05 3e 48 af 90 3d b8 3e 2f bd
       0.041964542 0.12993072 0.07064682 -0.042784423
0001f0 f7 23 5b bd d1 04 c7 bd c5 47 a4 bd 16 f3 f2 3d
       -0.053501096 -0.097177155 -0.080215015 0.11862771
000200 96 64 82 3d 0f 05 8c bc a5 94 df 3a 27 12 15 bc
       0.063668415 -0.017092256 0.0017057849 -0.009098566
000210 5c 0d ae bd 23 0e ee bd 26 74 cf bd 47 03 51 3d
       -0.08498642 -0.1162379 -0.101295754 0.051028516
000220 89 d5 f7 3c 5e cf fd 3b d0 1f bd ba 12 0d 7b bb
       0.030253189 0.0077456674 -0.0014429037 -0.003830735
000230 94 5d 14 bd 73 c2 c1 bd 60 88 44 bd 38 a5 8b 3c
       -0.036222056 -0.09460916 -0.04798162 0.017046556
000240 3a 24 06 3c fe 2f 83 bb 46 a6 fe 3b 99 ea 98 bd
       0.008187348 -0.004003524 0.007771286 -0.07466621
000250 32 99 ea bd 51 15 44 3b ac ab cd 3d 75 89 87 3d
       -0.11455001 0.0029919932 0.100425094 0.06618015
000260 ba 6c 9e 3d 47 06 cc bc 1c 1b 04 3d 00 88 9e 3d
       0.07735582 -0.024905337 0.032252416 0.07740784
000270 94 39 3a 3a 98 2a 6f bc 8a 52 58 3d 2b 0c 52 bc
       0.0007103917 -0.0145975575 0.05281309 -0.012820284
000280 8f a7 98 bd ce 33 83 bc 0c da 7a bd 69 8d 52 bd
       -0.07453834 -0.016015913 -0.061243102 -0.05140439
000290 fc c2 f7 bd 7f b1 ae 3d cb 19 f7 bd 12 ec 8c 3d
       -0.12097737 0.085299484 -0.120654665 0.06880964
0002a0 fa b2 ee bc d6 82 04 bd 61 e3 20 3d c8 23 a1 bd
       -0.029138077 -0.032351337 0.039279345 -0.07868153
0002b0 87 2d f6 3d b7 88 cc 3d a0 7b 37 3d 0f 21 0d 3d
       0.120204024 0.09987014 0.044795632 0.034455355
0002c0 cc 0e 34 bc d6 a4 4d bd d8 d0 10 bd 52 95 3e 3d
       -0.010989856 -0.050206028 -0.03535542 0.04652912
0002d0 be c0 e5 bd 83 a6 ef 3d 0c 8b ae bc d3 5d dd bd
       -0.11218403 0.117016815 -0.021306537 -0.10808911
0002e0 66 a3 5b 3d 86 9a 81 bd 37 dc d8 3c 03 ea 7e bc
       0.053622626 -0.06328301 0.026472194 -0.015558722
0002f0 74 b5 6e 3d 72 c8 38 3b a0 99 9f bd fc 8b 87 3d
       0.058278516 0.0028195647 -0.077929735 0.06618497
000300 f8 c7 39 bd 68 b0 67 3d 63 4b 05 be e3 3a 1f 3d
       -0.04535672 0.05656472 -0.13017039 0.038874518
000310 03 28 12 3d f5 b1 48 bd d5 c8 1e 3a 10 84 5e bd
       0.03568269 -0.048997838 0.0006057148 -0.054325163
000320 63 2a 09 bc 9a d7 b8 bd 83 2e 8f bd 1c c1 c4 3d
       -0.008371922 -0.09025498 -0.06991293 0.09607145
000330 b4 fd 09 3e e1 9e be bc 40 ed 6b bd 64 47 85 bd
       0.13475686 -0.023269119 -0.057599306 -0.06507757
000340 f4 c3 89 bc 8f 99 96 3d 55 c8 80 3d 70 c4 68 3d
       -0.01681707 0.07353508 0.0628821 0.056827962
000350 f2 f9 86 3c 52 fc 4d 3d 3d b9 72 bd e6 2d 29 3d
       0.016476605 0.05028946 -0.05925869 0.041303538
000360 a7 a0 d0 3d 76 ae 76 3d fd 2e 63 3d 43 f3 18 bd
       0.10186892 0.060224973 0.055464733 -0.037341367
000370 33 b2 46 3d 64 c3 0a bc b2 82 0e 3d 1d f2 e1 bd
       0.048509788 -0.008469436 0.03479261 -0.110325076
000380 0b d6 0e bd 28 39 c5 3d 3c ed b6 3d 01 46 07 3e
       -0.034872096 0.09630042 0.089319676 0.13210298
000390 d8 36 d8 3d ea 3e ac bd 02 2e cd 3b eb 5a 10 3d
       0.105573356 -0.084104374 0.006261588 0.035242956
0003a0 1a 1f 04 3e 3e 9c 1e 3d 06 4a 6d bd b9 6e f3 bc
       0.1290249 0.038723223 -0.057931922 -0.029715883
0003b0 93 21 52 3d 09 1a cf bd 67 fd 24 3d d1 27 8e 3d
       0.05130155 -0.10112388 0.040280726 0.06941188
0003c0 cc b6 02 be 87 90 0d 3e 44 dc 13 be 8b fc a9 bc
       -0.12765044 0.13824664 -0.14439493 -0.020750305
0003d0 23 b5 77 3c f5 4c 58 bd 4a 42 c3 bd 55 8f a0 3d
       0.01511887 -0.052807767 -0.09534128 0.078398384
0003e0 6e e8 ab 3d fc 81 e3 bb b8 58 ef 3d b6 cc a9 3a
       0.08393942 -0.0069429856 0.11686844 0.0012954685
0003f0 85 67 65 3d 65 93 02 3e c8 df 70 bd 31 38 98 bd
       0.056006927 0.12751539 -0.058807164 -0.07432593

lstm.bias_ih_l0 f4 [256]
000000 ff dc 01 bc db 45 ca bc aa 9c c6 3d a8 1c b2 bc
       -0.007926225 -0.024691513 0.0969785 -0.02174218
000010 f4 90 1a bd 8e 71 ae bd 69 62 e4 3d ee e7 3c 3c
       -0.037735894 -0.085177526 0.11151583 0.011529906
000020 63 f0 f0 3d c7 c8 ce 3d 4a 75 11 3e 4b e2 c2 bd
       0.117646 0.10096889 0.14204898 -0.09515818
000030 b1 8e bd 3d 3e 3c b3 3d 4f 3d 0e 3d c0 d9 23 bb
       0.09255732 0.08751725 0.034726437 -0.0025001615
000040 6f b4 e9 3c 25 c1 b5 3d 5e 33 e3 3d 0a 08 20 bc
       0.02852842 0.0887473 0.11093782 -0.009767542
000050 6e ed 25 3d a0 97 d5 bd 04 6e 8f 3d 60 e4 64 bc
       0.040509634 -0.10429311 0.07003406 -0.0139704645
000060 fb e4 87 bd 5d 4e 0d 3e 05 81 1d 3d 92 32 a3 bd
       -0.066354714 0.13799424 0.03845312 -0.0796863
000070 65 3f c7 3d 01 ac ac 3d 4d 27 2b 3e be a5 13 3d
       0.097288884 0.08431245 0.16714211 0.036046736
000080 b1 ab 14 3e 6d 67 af 3d 74 a2 9a 3d 5f 3f 96 bd
       0.1451862 0.08564649 0.07550517 -0.07336306
000090 6a 30 71 bd 13 e5 2a 3d fa 36 71 bd dd 3f 8e 3c
       -0.058884062 0.04172237 -0.05889032 0.017364437
0000a0 8a 20 3a bd a2 36 e4 bd e6 f3 4d bc 99 bd fc 3a
       -0.045441188 -0.11143233 -0.012570357 0.0019282579
0000b0 d2 9c 00 bd e0 5b 17 3e 54 79 80 bd 75 ca b2 bd
       -0.031399556 0.14781141 -0.062731415 -0.08730022
0000c0 c6 38 a7 bd 98 97 a7 bc 6c b3 02 3d 84 78 b9 3c
       -0.081651255 -0.020458028 0.03190939 0.022640474
0000d0 fc d0 f0 3d 99 63 2c bd c8 f1 a6 bc ef 07 15 3d
       0.117586106 -0.04208717 -0.020378962 0.03638452
0000e0 2b 3b 10 3d 56 8a a4 3d 64 2d b1 bd 77 ac 01 bd
       0.035212677 0.08034198 -0.08651236 -0.031658616
0000f0 9b da 52 bd 09 c1 d5 bb ce 1f 16 bd 02 c5 ef 3d
       -0.05147801 -0.0065232557 -0.036651425 0.11707498
000100 43 f4 11 bc 6b f1 f9 3d f3 27 27 3d c5 01 f6 3d
       -0.008908334 0.1220425 0.040809583 0.12012056
000110 85 92 14 3e 8d f3 0a 3e 48 ab 08 3e 16 75 80 bd
       0.14509018 0.1356947 0.13346589 -0.06272332
000120 5e ea 62 3d 82 46 35 3c a6 45 0b 3e c1 57 87 bc
       0.05539929 0.011064174 0.13600788 -0.016521337
000130 6c 2e ae bd 1c 9a bb 3d 89 ce a1 3d df c6 bf 3d
       -0.08504948 0.091602534 0.079007216 0.093641035
000140 8d 94 a5 bd ce 9a 91 3d 53 46 ab bd 4c b6 c1 3d
       -0.080849744 0.07109605 -0.08363023 0.094585985
000150 c2 47 e7 3c 02 53 f5 bc a4 6d 0e bc 0c f2 09 3d
       0.028232459 -0.029946808 -0.008693133 0.0336781
000160 a4 7a 09 3e 5c d9 d0 bd 69 7c 5b 3d a1 ef 1a 3b
       0.1342569 -0.10197708 0.053585444 0.0023641365
000170 b9 a2 62 bd ed cb 6b bd b5 66 30 3e e2 1f c5 bc
       -0.055330966 -0.057567526 0.1722668 -0.024063054
000180 ea 9b 1f bd cc c5 52 bd f2 30 b4 3c 58 6f 00 be
       -0.03896705 -0.051458165 0.021995995 -0.12542474
000190 8b b4 c8 3c a7 b0 5d bc b6 cc ee bc 65 ef 88 bd
       0.024500152 -0.013530887 -0.029150348 -0.06686286
0001a0 b0 d6 18 3d 32 30 1e bd 48 a4 c4 bd 3f 1c 67 3d
       0.037314117 -0.03862018 -0.09601647 0.056423422
0001b0 db 2b 9f bd 98 b7 83 bd 1e 05 ae bd f7 b8 7b 3d
       -0.07772037 -0.06431502 -0.0849707 0.061455693
0001c0 f4 bd 88 3c c7 f8 6d bd 3c 1a ab 3c 1d 04 58 3d
       0.01669214 -0.05809858 0.020886533 0.052738298
0001d0 d2 fe 40 bd 81 8c c1 3d 69 77 f2 3d cb c5 e7 3d
       -0.047118016 0.09450627 0.11839182 0.11317023
0001e0 84 d4 3e 3d 81 46 c5 bd c6 27 64 bb 6d 81 eb bc
       0.04658939 -0.09632588 -0.0034813746 -0.028748238
0001f0 5e 4f a6 bd 26 9b 31 bb f5 1c 55 3d f4 e7 16 3e
       -0.08120607 -0.0027100532 0.05202957 0.1473692
000200 55 36 f2 bd c2 56 1d 3d 75 33 a0 3d 34 a1 54 3d
       -0.11826769 0.038412817 0.07822315 0.051911548
000210 df ca 07 3d 1d a7 f1 bd 6d c1 b7 bc ba 38 0b 3d
       0.033152457 -0.117994525 -0.0224311 0.033989646
000220 2b 50 a3 bd f6 f7 f8 bd fd 64 43 bc 1f 97 9c bd
       -0.07974275 -0.1215667 -0.011925933 -0.076460116
000230 b6 1a df 3c 8b a5 8d bd 6a 08 e8 bd fe f1 0d 3d
       0.027234416 -0.069163404 -0.1132973 0.03465461
000240 fe ec a2 3c cc 05 ff 3d 7c 3d 31 bd 5b 58 ab 3b
       0.019888397 0.124522775 -0.043271527 0.0052290387
000250 1d 66 db 3d 80 dc 8d 3d 0a e7 32 bd e2 c4 68 3d
       0.10712836 0.06926823 -0.043677367 0.056828387
000260 9c f4 aa 3d b6 de a2 bd 6d fe f4 bc 27 8f ac bd
       0.08347437 -0.07952635 -0.029906476 -0.08425742
000270 15 30 3a 3d fe 14 cc 3d f3 bf 82 3d 6a b9 90 bd
       0.04545601 0.099649414 0.06384268 -0.07066615
000280 f7 c0 ce bd 47 d5 fe bd 61 2c d7 bc 4e 6a 8b 3d
       -0.10095399 -0.12443023 -0.026266279 0.068073854
000290 1d 08 c9 bd 8f 51 47 3d 1d 09 dd 3c a4 d7 c7 3d
       -0.098160006 0.048661765 0.026981885 0.09757927
0002a0 f8 e4 04 bd 5e 00 06 be b3 d7 85 3d ce df 94 bd
       -0.032444924 -0.13086078 0.06535282 -0.0726925
0002b0 81 87 df 3d fa f1 bf bd 80 de 78 bd 76 55 d8 bc
       0.10914517 -0.09372325 -0.060759068 -0.026407938
0002c0 b4 97 28 3d a5 c7 ec 3d b8 84 dd 3d df d0 c5 bd
       0.0411603 0.11561517 0.1081633 -0.096589796
0002d0 d0 f5 d9 3d 65 ff 45 bd ba 1d ed 3c 59 16 60 3d
       0.10642588 -0.048339266 0.028944839 0.054708812
0002e0 ac 99 e7 bb 10 75 60 3d b7 6e 05 3d a8 ab 8e bc
       -0.0070678797 0.05479914 0.03257629 -0.017415836
0002f0 f4 25 c5 3d 0a 6e e8 3d 78 1e d9 3d c7 a4 9c 3d
       0.096263796 0.11349113 0.106015146 0.07648616
000300 78 16 e4 bd 0e fb 84 3c 9d 35 9c 3a 0c 60 06 bd
       -0.11137098 0.016232993 0.0011917833 -0.03280644
000310 26 3e 8e bd cc ce 32 3d 66 11 d9 3d bd fe b0 bd
       -0.069454476 0.043654248 0.105990216 -0.086423375
000320 6b 63 07 3d a9 43 8e 3d e8 df de 3d 18 99 65 bd
       0.033053797 0.06946499 0.108825505 -0.056054205
000330 4f 60 59 3d 1a b3 d8 bc 07 36 02 3e 85 ea 6d bd
       0.053070363 -0.02645259 0.12715922 -0.058084983
000340 70 31 c1 bb 8d 37 fc 3d 46 2e e8 3d da c0 58 bd
       -0.005895786 0.12315283 0.11336951 -0.052918293
000350 e9 df 69 bd 69 43 95 3d 31 49 de 3d fa 00 f9 3c
       -0.057098303 0.07288248 0.10853804 0.030395973
000360 76 66 55 bd 66 8f f5 3d 81 cf 90 bc b7 42 33 bd
       -0.052099667 0.11990242 -0.01767707 -0.043764796
000370 a4 e8 a4 bc 81 24 ff bc a8 8b f6 bc 10 bb 1a bc
       -0.020130463 -0.031145336 -0.03009589 -0.009444013
000380 73 e4 d6 3c af fe 88 3d ea 83 81 3d e2 49 f8 3d
       0.02623198 0.06689202 0.06323989 0.12123467
000390 c1 ab 04 3e 34 e8 d6 bd 08 14 cc 3d f8 5b 4a 3c
       0.12956144 -0.10493508 0.09964758 0.012351029
0003a0 2c a1 52 bd ae 61 4b bb 4a 55 ad 3c 23 ec 1a 3d
       -0.051423237 -0.0031033563 0.021158833 0.037822854
0003b0 10 fb c6 bc ad 57 e6 3c 89 99 30 bc 6b 93 b3 3c
       -0.024289638 0.028117979 -0.010778793 0.02192088
0003c0 53 9e 38 3a f9 2c 1d 3d 2e e0 7f 3d b0 c2 79 3d
       0.0007042635 0.038372967 0.062469654 0.060976684
0003d0 7e 01 77 3c 9d 65 a2 bd ca ef 8d 3b e4 da 4c bc
       0.015076039 -0.079295374 0.0043315636 -0.0125033595
0003e0 24 05 c6 3d 9a f0 d9 3d 2f 69 e8 bd d8 87 98 3d
       0.09668949 0.10641594 -0.11348187 0.07447785
0003f0 59 00 81 bd b5 41 b4 3d 74 e6 11 3e 20 f5 11 3e
       -0.062988944 0.08801595 0.14248067 0.14253664

lstm.bias_hh_l0 f4 [256]
000000 42 09 03 bd f3 07 78 bd 9a f9 7d 3d c8 8e 5e bd
       -0.03199125 -0.060554456 0.062005617 -0.054335386
000010 c9 9d 29 3d 36 6a ec bc 72 af 22 3e 11 00 9e 3c
       0.04141024 -0.02885924 0.1588724 0.019287141
000020 f8 fc fc 3d d1 ee 86 3c 98 15 e7 3c 1c 5f 2e 3d
       0.123529375 0.016471298 0.028208539 0.042571172
000030 c1 5a a0 3d 58 f4 2f bd 56 4e 96 bd 27 61 7f 3c
       0.0782981 -0.042957634 -0.0733916 0.015587128
000040 e8 b2 8d bd 86 65 80 bd 6b 7c 02 bd 34 0d ec bc
       -0.06918889 -0.06269364 -0.031856935 -0.02881489
000050 ec e7 67 3d 5b b6 55 bd 8c f5 61 ba 99 b2 f1 3d
       0.056617662 -0.05217586 -0.0008619658 0.11801643
000060 59 f9 f4 3b cd 3f 81 bd 39 7d 01 3d b4 40 c4 bd
       0.0074760136 -0.06310997 0.031613562 -0.09582654
000070 03 c5 a9 bd 4c 4a be bc 65 3e 18 3e e6 e4 f8 3c
       -0.0828953 -0.023228787 0.14867552 0.030382585
000080 e3 12 0e bd 36 7c ca bb 4c 8a 82 38 ad 93 b8 3d
       -0.03468598 -0.006179358 6.224643e-05 0.09012542
000090 b8 f3 86 3c 7c 20 a0 3c 1f 2f f1 3d d8 a6 ab bd
       0.016473636 0.01954674 0.11776566 -0.08381432
0000a0 f3 40 66 3d 5f 1c e6 3d 5e ba 31 3d 7f 77 a2 bd
       0.056214284 0.1123588 0.043390624 -0.07932948
0000b0 3f 7e e7 3c 55 2c a8 3d 43 5f e6 3c 58 0f d1 bc
       0.028258441 0.08211581 0.028121596 -0.025520012
0000c0 5c 85 05 bc 98 18 df 3d d5 b2 f2 3d c9 04 ce bd
       -0.008149471 0.10893363 0.11850516 -0.100595064
0000d0 04 86 c6 3d a3 6d cd bd af 24 92 3b 16 23 72 bc
       0.0969353 -0.10030677 0.0044599394 -0.014778873
0000e0 43 26 78 3b f3 88 85 bb c1 43 fc 3c e3 4b 2a bd
       0.0037864603 -0.0040751635 0.030794026 -0.041576277
0000f0 d1 ac ab 3d b8 44 7f bd ea 81 6f bd 13 c5 00 3e
       0.083825715 -0.062321395 -0.058473505 0.12575178
000100 c1 ff d4 bc ca c2 10 3e e6 e7 9c bd 9f 65 84 bb
       -0.02600086 0.14136806 -0.076614186 -0.0040404345
000110 10 61 2e bd 6a 0b c0 3d c5 79 15 3e 65 a1 2d 3d
       -0.042573035 0.09377177 0.14597233 0.042390246
000120 f0 a4 a3 bb e4 90 83 bd 86 8b 20 3e 5e 3f de bd
       -0.0049940273 -0.0642412 0.15678224 -0.1085193
000130 92 cf 25 ba 7c 93 f8 3b 0b 23 f7 3d 8e 0e d0 bc
       -0.0006325181 0.007585941 0.12067231 -0.025397565
000140 94 eb af 3d a1 ba 14 3e 1d 76 f9 3d 96 ba 17 bd
       0.08589855 0.14524318 0.121807314 -0.037043177
000150 b6 22 a3 3d b0 3e 92 3d 68 13 2f 3c 1c be b1 3d
       0.07965605 0.07140863 0.010685779 0.086788386
000160 1d 72 91 bd e9 43 15 bc 47 19 e9 3d 7e 66 2f bd
       -0.071018435 -0.009110429 0.113817744 -0.042822354
000170 1a af f5 3d 85 9a af bd 8b ba ef b8 d1 9d fc 3d
       0.119962886 -0.08574394 -0.000114311544 0.123347886
000180 bb 3f b3 3d 52 fa ec bd 97 26 90 bc a8 08 d9 bc
       0.0875239 -0.11571182 -0.017596526 -0.026493385
000190 c7 81 fd 3d f6 39 dd 3d 91 1b a2 bd 60 3e 4b bd
       0.12378269 0.10802071 -0.07915414 -0.049620032
0001a0 25 fa 90 3d a7 7e a1 bd 5e 73 05 3e 59 d8 86 bd
       0.07078961 -0.07885485 0.1303229 -0.06584234
0001b0 f4 3b 64 bd cb 51 b3 3d 69 e6 06 3e cc 4d 6e bd
       -0.05572124 0.08755835 0.13173832 -0.05817966
0001c0 27 ef e7 3c e7 26 c2 bd 1e a8 42 3c 1e be 6e bc
       0.028312279 -0.09480076 0.011880903 -0.014571695
0001d0 23 5d 61 3d 75 0e 8a bb ff f9 9d bd 90 b9 2b bd
       0.055020463 -0.004213149 -0.077136986 -0.041925013
0001e0 65 a1 bc bd 31 ad 87 bd d1 83 e0 3b 8a f6 6d bd
       -0.09210471 -0.066248305 0.0068516512 -0.058096446
0001f0 f9 1e e9 3c fd 0a 03 3d 8c c4 cc bd d3 ea 1d 3d
       0.028457152 0.0319929 -0.09998426 0.038554024
000200 5b 52 3b 3d 72 03 a9 3d e8 6e 8b bd b1 08 24 bd
       0.045732837 0.0825261 -0.06808263 -0.04004735
000210 75 4f 00 be bd 5b ee bd 71 e4 d8 3d ad 12 0c 3e
       -0.1253031 -0.116385914 0.10590447 0.13678999
000220 0d 91 00 3e 39 8a d9 bd d6 f3 2c bc 81 e9 d8 3d
       0.12555332 -0.10622067 -0.010556182 0.10591412
000230 4b 22 05 3e 6c 61 fd 3c b2 9d 93 3d a4 7c 78 bd
       0.13001363 0.030930243 0.07207812 -0.06066574
000240 c3 1f 03 bc 3c 71 7d bd 74 40 dc bb e0 42 8e bd
       -0.008003178 -0.061875567 -0.0067215506 -0.06946349
000250 58 86 7a bd 70 9f 11 3d 7e 7d 4c bd 07 6e f5 bd
       -0.061163276 0.035552442 -0.049924366 -0.11983877
000260 2c 0a 02 3d c6 2b e7 bd 29 c0 cb bc 51 b0 f6 3d
       0.031747982 -0.11287646 -0.024871903 0.120453484
000270 9f db b9 3d b6 8d 20 bd 5c 7a b9 bd 03 c9 bd bd
       0.090750925 -0.039197646 -0.09056541 -0.092668556
000280 23 cc d5 bd 62 dc dc bd 8f a4 a5 bd 4e 12 fd 3c
       -0.104393266 -0.10784222 -0.08088028 0.030892517
000290 f0 79 35 3d 9d fa 0a 3e 5d 9a cc bc 19 68 74 3d
       0.04430574 0.13572164 -0.02497595 0.059669588
0002a0 3d 71 36 3d 70 e2 dd 3c c3 0f 20 3d 6f d3 09 3d
       0.044541586 0.027085513 0.03907753 0.033648904
0002b0 93 9e c6 3d 20 e0 25 bd 13 bc 01 bc 26 86 ec bd
       0.096982144 -0.040496945 -0.007918376 -0.11549024
0002c0 51 e1 11 bd b6 b6 80 3b 19 3d d9 bc 17 83 b6 3d
       -0.03561527 0.003928031 -0.026518391 0.08911722
0002d0 4e a3 02 3c 3d 32 f5 3d 65 fe ad bd 57 3f d8 3c
       0.007973505 0.11972473 -0.084957875 0.02639739
0002e0 30 d6 db bc 3b 3a 02 3e 7a 47 7e bb 1d c6 9e 3d
       -0.026835531 0.12717526 -0.0038799928 0.07752631
0002f0 3a 4c b3 bd 3b 3d fa 3d fe 42 a7 bd 97 5d 9d bd
       -0.087547734 0.1221871 -0.081670746 -0.076838665
000300 86 ad 16 3c 11 e8 99 bd 90 f4 1c bd 95 d1 3d 3d
       0.009196645 -0.07514966 -0.03831917 0.04634245
000310 04 ac 6e bc ea d7 65 3d a0 ed 44 bd 8b 85 d9 bb
       -0.014567379 0.056114115 -0.04807818 -0.006638234
000320 eb 73 e3 bc bc 86 3d 3d 17 ce 4d 3c 1e 04 2a bd
       -0.027765235 0.04627107 0.012561343 -0.041507833
000330 02 7a 74 bd e2 47 21 3e 43 31 da 3d 77 87 36 3d
       -0.05968667 0.15750077 0.10653927 0.044562783
000340 84 da 49 3d 6e b0 4a 3d 37 f3 03 3d b9 0f 8b 3d
       0.04928066 0.049484663 0.03221437 0.06790108
000350 8d 81 23 3d 75 90 16 3d 18 10 8d 3d f1 f0 ab bd
       0.03991847 0.03675886 0.06887835 -0.08395565
000360 1b 05 78 3d 9c cd a6 bd c8 74 a7 3d dd 9b b1 bd
       0.060551744 -0.081446856 0.08176571 -0.08672307
000370 3c 69 d0 3c 21 1b 02 3e 39 1b 50 3c 4c 38 4a bd
       0.025440805 0.12705661 0.012701803 -0.049370095
000380 b0 d6 98 3d 68 a6 9e 3d 19 4a 86 3d 1a a0 97 3d
       0.074628234 0.07746583 0.06557102 0.07403584
000390 e4 6d 84 3d 55 af 2e bd 20 13 ce bd d0 df 29 3d
       0.064662725 -0.04264768 -0.100622416 0.04147321
0003a0 a4 b6 79 3d 94 27 c7 bc f0 2d 6b 3d b9 02 99 3c
       0.060965195 -0.024310865 0.057416856 0.018678056
0003b0 8d 1d c9 bd 24 f4 b0 3d 18 d2 c2 bd 69 c8 0f bb
       -0.098200895 0.08640316 -0.095127285 -0.0021939522
0003c0 77 4e 78 bc b3 b5 e6 3d 04 fa 2a 3d 10 89 5b bc
       -0.015155426 0.11265125 0.04174234 -0.013399377
0003d0 ba ce 0a 3e 07 fd b5 3d 01 0c a9 bd e6 00 b6 3d
       0.13555422 0.08886152 -0.08254243 0.0888689
0003e0 16 86 30 bd 2c f2 60 3d 95 82 c8 3d d6 9b 82 bc
       -0.043096624 0.054918453 0.097905315 -0.015943449
0003f0 5e 1f 11 3e 57 07 ba 3d 7e e2 db 3d c8 65 23 bd
       0.14172122 0.09083431 0.10736559 -0.039891988

fc.weight f4 [1, 64]
000000 20 e7 ed 3d be b4 94 3d e7 c8 63 bd 78 0d 75 3d
       0.11616349 0.07261036 -0.055611517 0.059827298
000010 08 1f d3 bd 5b 27 07 be 95 f0 1c bd f1 f9 01 3d
       -0.10308653 -0.13198607 -0.038315374 0.031732503
000020 cf 68 ec 3c 37 67 63 bd 17 fe af 3d 21 bc 55 bd
       0.02885857 -0.055518355 0.08593386 -0.052181367
000030 75 27 da 3d 3a b7 b6 3c 08 7c a4 bd 39 97 7f 3d
       0.10652057 0.022304166 -0.080314696 0.062400077
000040 02 92 73 3c 79 18 79 3d 3c 56 51 bd 66 b2 eb bd
       0.014866354 0.060814355 -0.05110763 -0.11508636
000050 d6 fb 03 3e 2d 1c d6 bc b2 91 60 3d c5 86 80 3d
       0.12889037 -0.026136482 0.054826446 0.06275705
000060 be e5 ca bd bf e1 34 bd 62 3a a1 3d eb e8 14 3d
       -0.09907101 -0.0441606 0.07872464 0.03635494
000070 e7 f6 a9 3d 7c c7 52 bc 19 9c 67 3d dd 2e 01 be
       0.08299046 -0.012864944 0.05654535 -0.12615533
000080 a2 07 dc 3d bc df d1 bd df 66 a4 3d c0 7f 08 bd
       0.10743643 -0.10247752 0.080274336 -0.033324957
000090 e2 61 b8 bd 5f 46 8b 3d de d8 93 bd 21 b6 1a bd
       -0.09003045 0.068005316 -0.072190985 -0.037771348
0000a0 a8 6d fe 3c eb b3 8d bd 65 d9 bb bc 0e 7e e4 3d
       0.031058148 -0.06919082 -0.02293081 0.111568555
0000b0 51 e7 a7 bd 00 35 6f bd fb da b6 3d 06 4d 08 3c
       -0.08198417 -0.058400154 0.08928486 0.008319145
0000c0 02 cd da bd ed 4f 41 3b 15 f0 49 3d 75 01 e2 3d
       -0.106836334 0.0029497102 0.049301226 0.11035434
0000d0 29 1a 97 bd b5 70 5c 3d b2 45 ec bd a4 ca 36 3d
       -0.073780365 0.053818423 -0.11536731 0.044626847
0000e0 34 66 d6 3d c5 20 2e 3d d1 57 ed 3d c3 51 f2 3d
       0.104687124 0.04251172 0.11589015 0.11832001
0000f0 0c f7 50 3d d6 81 b8 bd 3f 10 89 bd fd 09 8f bc
       0.051016852 -0.09009139 -0.06692552 -0.017460817
