trained_models/pressure/rnn_model_1632058094.pt (torch, 19735 bytes, 5 tensors)

rnn.weight_ih_l0 f4 [64, 3]
0.09580503 -0.07467851 0.028161982 -0.08366315 -0.060406867 0.07742302 -0.08344275 -0.0539885
0.09893878 -0.13127089 -0.1193095 0.0819547 -0.051547375 0.03786072 -0.10860244 0.001737685
0.116862275 -0.050443146 -0.038459808 -0.019791365 -0.092316486 0.019325726 0.054989047 0.01522189
-0.052091923 0.06316684 -0.0165899 0.03378793 0.019187829 -0.03610095 0.05758772 0.018257167
-0.07030609 0.091029465 -0.023102535 -0.016427035 0.0811248 0.06867451 0.06673117 -0.0920338
-0.027783288 -0.09460726 -0.04541176 0.009981016 0.059077747 -0.05932972 0.045279816 -0.11751199
0.053802952 -0.11072143 0.13317771 -0.112127915 0.11360395 0.0019633612 0.05416883 -0.07901884
0.056847446 0.021557609 0.04905977 -0.07341623 -0.057615224 -0.07732872 -0.06393525 0.12280616
0.09800888 -0.007965196 0.12313029 -0.060841385 -0.10262586 0.11641975 0.019524366 0.121412165
-0.07263322 -0.10655001 -0.094279334 -0.00945067 -0.052505083 0.050841894 0.0073768077 -0.13463058
-0.053550947 0.12607501 -0.04504326 0.08591401 -0.009478177 0.02243972 0.00970716 0.09313855
0.097318634 0.103805766 -0.113353014 -0.09219346 0.07355386 -0.086617894 0.009346766 0.10578309
0.07911872 -0.008810879 -0.024013272 -0.09623654 0.02818885 -0.028749187 -0.056139965 -0.103018135
-0.00019099475 0.08362659 -0.011235498 0.011087989 0.1229118 0.062963076 0.03319754 -0.08961183
-0.039004073 0.09097721 0.08583841 -0.007823016 -0.019994281 -0.091258995 0.07095998 0.08743566
-0.10328327 -0.07666095 -0.005364372 0.116590865 -0.06733226 -0.097213164 -0.019449916 -0.016824009
-0.04920884 -0.09593921 0.030450702 -0.05594263 0.021903032 0.11359444 0.04909572 0.0069221575
-0.09272243 0.0159516 0.004532761 0.072991796 0.030843368 -0.043556068 -0.08994218 -0.14839438
-0.0017914388 -0.0045906627 0.010628018 0.05966454 0.04839369 -0.09806277 0.028754707 -0.09089755
-0.12266905 -0.067304395 0.0022385751 -0.14113568 0.07650458 0.11767427 0.09278073 -0.027794125
0.1015418 -0.06306673 -0.07368606 -0.103336744 0.107815705 0.00028968352 -0.063253574 0.13600403
0.06338593 0.12796336 -0.1211497 -0.06379632 -0.028123109 -0.049611405 0.050663307 0.047130354
-0.076646134 0.0454823 0.015388648 -0.05929848 -0.10658585 -0.04602647 0.010793007 -0.0076171933
0.078997366 -0.09349684 0.11980361 0.06802665 0.086061515 -0.076118395 0.0068245917 0.03831175
00000000: 6d35 c43d 0cf1 98bd f5b3 e63c 9657 abbd
00000010: 316d 77bd f68f 9e3d 08e4 aabd 0c23 5dbd
00000020: 6aa0 ca3d e06b 06be 8a58 f4bd ded7 a73d
00000030: 5723 53bd d813 1b3d f56a debd 08c3 e33a
00000040: 7d55 ef3d 799d 4ebd 0888 1dbd 8021 a2bc
00000050: 6d10 bdbd fc50 9e3c 323c 613d 3c65 793c
00000060: 575e 55bd 9e5d 813d 8be7 87bc 3665 0a3d
00000070: cb2f 9d3c 97de 13bd 1ae1 6b3d 0e90 953c
00000080: a4fc 8fbd a86d ba3d 8741 bdbc fd91 86bc
00000090: c224 a63d 39a5 8c3d 5aaa 883d 387c bcbd
000000a0: c799 e3bc 73c1 c1bd af01 3abd 6a87 233c
000000b0: 82fb 713d b803 73bd 5477 393d 20aa f0bd
000000c0: 7c60 5c3d ebc1 e2bd bd5f 083e 52a3 e5bd
000000d0: 30a9 e83d bcab 003b 23e0 5d3d a1d4 a1bd
000000e0: ded8 683d 9599 b03c e6f2 483d 405b 96bd
000000f0: f1fd 6bbd 855e 9ebd 7cf0 82bd cc81 fb3d
00000100: e1b8 c83d 7480 02bc bc2b fc3d d134 79bd
00000110: 822d d2bd 7a6d ee3d 90f1 9f3c f1a6 f83d
00000120: bac0 94bd e436 dabd 8615 c1bd fcd6 1abc
00000130: 920f 57bd 973f 503d 26b9 f13b 99dc 09be
00000140: 3d58 5bbd cf19 013e 487f 38bd aff3 af3d
00000150: 5b4a 1bbc 81d3 b73c c80a 1f3c 6dbf be3d
00000160: fe4e c73d 1e98 d43d a025 e8bd edcf bcbd
00000170: 68a3 963d b964 b1bd 2e23 193c cea4 d83d
00000180: ff08 a23d 815b 10bc 7bb7 c4bc aa17 c5bd
00000190: 4eec e63c 6a83 ebbc 05f3 65bd 2cfb d2bd
000001a0: c345 48b9 6b44 ab3d 1815 38bc 66aa 353c
000001b0: 2fb9 fb3d c9f2 803d 25fa 073d 6886 b7bd
000001c0: bcc2 1fbd 4252 ba3d 0ccc af3d 1b2c 00bc
000001d0: 0ccb a3bc ffe5 babd 7753 913d 7811 b33d
000001e0: 2e86 d3bd 6b00 9dbd 9dc7 afbb 31c7 ee3d
000001f0: 7fe5 89bd b217 c7bd 6e55 9fbc 81d2 89bc
00000200: 358f 49bd c77b c4bd c073 f93c 1924 65bd
00000210: fd6d b33c 34a4 e83d 9818 493d 44d3 e23b
00000220: 42e5 bdbd eeac 823c 8e87 943b b97c 953d
00000230: 3bab fc3c d967 32bd 9b33 b8bd b2f4 17be
00000240: b6ce eaba 456d 96bb 2321 2e3c ce62 743d
00000250: 7638 463d 22d5 c8bd fe8e eb3c 7f28 babd
00000260: e939 fbbd e3d6 89bd 0fb5 123b df85 10be
00000270: 6fae 9c3d 35ff f03d d303 be3d 81b0 e3bc
00000280: 26f5 cf3d 2129 81bd b8e8 96bd 37a2 d3bd
00000290: 7bce dc3d aae0 9739 178b 81bd a444 0b3e
000002a0: 7cd0 813d d408 033e 551d f8bd a5a7 82bd
000002b0: 6f62 e6bc 5435 4bbd 5484 4f3d c20b 413d
000002c0: a6f8 9cbd a64b 3a3d ab20 7c3c f7e2 72bd
000002d0: af49 dabd 4086 3cbd 27d5 303c a699 f9bb
000002e0: 5fc9 a13d 457b bfbd 985b f53d 8e51 8b3d
000002f0: 0541 b03d f6e3 9bbd d3a0 df3b c8ec 1c3d

rnn.weight_hh_l0 f4 [64, 64]
-0.09609136 -0.03740597 0.042516056 0.058480717 0.102481544 0.12046874 0.057631295 -0.0564765
-0.07335722 -0.00990972 0.023860697 0.009415557 0.025342615 0.042907044 0.020219874 -0.018733533
-0.0967223 0.08584608 -0.06804206 0.07797448 0.058613844 0.031353142 0.075774685 -0.095474936
0.025957268 0.073698856 -0.058497723 0.031082047 0.11648836 0.0068912897 0.08399597 -0.10921649
-0.069993906 0.08184423 -0.10377648 0.10741779 0.047825824 0.047737665 -0.12484536 -0.009083748
0.087702796 0.038645543 0.025821129 0.051587988 0.039906222 0.022874665 -0.051711064 -0.055537336
-0.13460685 0.06380132 0.071684286 0.10276445 -0.013255564 0.051942427 0.06888647 -0.051964946
-0.12100221 -0.12198551 0.066969715 -0.089294374 0.095855854 -0.029796861 0.022565937 0.10702744
0.016339537 -0.03702144 -0.06359126 0.09813642 -0.13727401 0.046786383 -0.09159946 0.022915043
-0.11745638 -0.063304745 -0.08865024 -0.111416146 0.027889477 0.086513795 -0.08826744 0.105105385
0.09581999 -0.108121715 0.10539948 0.084722966 -0.0375734 -0.109043844 -0.12798907 0.030223256
-0.1274253 0.064558975 -0.07193029 -0.09406433 0.01759511 0.086079955 0.10537357 -0.053305473
0.0122808255 -0.03282883 0.0809052 0.08377063 0.11105441 -0.08263031 0.07419246 0.042497292
-0.063308686 0.11108558 -0.05548762 -0.08794088 0.09871775 0.062025815 0.015598838 0.0036346165
-0.04782848 0.034635976 -0.086913556 0.039968167 0.108443104 0.06711457 0.10328717 -0.09228243
0.110340156 -0.072164 -0.01295504 -0.0031890115 -0.050105 -0.048214383 0.04259068 0.051786274
0.0497865 -0.03523677 0.0869508 -0.07404049 -0.042172797 -0.079879336 0.0048975167 -0.049346603
0.08624438 -0.08314648 -0.009063355 0.10543484 -0.124868244 0.115340136 -0.1330393 -0.025112137
0.09219232 -0.11371581 0.11025654 -0.020956181 0.06767225 -0.055565555 0.06921954 0.09840742
0.100128874 0.1009576 0.11973161 -0.120660834 -0.058010627 -0.052728556 0.08356516 -0.008100873
0.007963426 0.033521965 -0.12675813 -0.1077375 0.09037749 -0.009745664 -0.020573828 -0.06896539
0.07825223 -0.073129974 -0.040994123 0.06145259 0.106476516 -0.07833741 -0.12856019 0.011668149
0.008486948 -0.040241938 -0.049497817 -0.017549783 -0.11224992 0.0778348 -0.07247213 -0.09487687
0.13117449 0.035650115 -0.038423024 -0.062938504 0.11047495 -0.10906585 0.032626063 -0.013587976
-0.031926192 0.087775744 0.022730922 0.017069297 -0.0973226 -0.060109112 0.011466284 -0.04310479
-0.12365288 -0.14050256 -7.699754e-05 -0.09574606 -0.0060122404 0.06725865 -0.020744003 -0.06401018
-0.06622687 0.084736906 -0.104003295 -0.066837 0.1150704 0.0853685 -0.06802025 0.020931926
-0.06799238 -0.06761438 -0.09939348 -0.08688199 -0.062922865 0.047417726 0.059262108 -0.11451251
-0.08072696 0.035430323 -0.029543402 -0.055278935 0.04725512 0.1093257 -0.043155618 -0.1037915
-0.124629505 -0.092275985 -0.029503921 -0.07562522 0.08700749 -0.03408288 -0.113467626 -0.024943626
0.0049826372 -0.08112437 0.10090156 -0.1068972 0.10667143 0.121009186 -0.029419323 0.051394913
0.07309943 0.12417514 0.12394171 -0.017315105 0.09555585 -0.06854739 -0.11532123 0.034882627
00000000: 8ccb c4bd 0137 19bd 5125 2e3d 7a89 6f3d
00000010: d8e1 d13d 51b8 f63d cb0e 6c3d e753 67bd
00000020: 4f3c 96bd 615c 22bc 8277 c33c b543 1a3c
00000030: 519b cf3c 4cbf 2f3d 26a4 a53c 1177 99bc
00000040: 5716 c6bd 12d0 af3d a359 8bbd 16b1 9f3d
00000050: 1215 703d 276c 003d c22f 9b3d 5d88 c3bd
00000060: 56a4 d43c 6def 963d 4f9b 6fbd c79f fe3c
00000070: 7391 ee3d 54d0 e13b 1406 ac3d e5ac dfbd
00000080: f758 8fbd f39d a73d c388 d4bd dcfd db3d
00000090: 03e5 433d 9288 433d edae ffbd 00d4 14bc
000000a0: 869d b33d ca4a 1e3d d586 d33c ed4d 533d
000000b0: b574 233d a663 bb3c fbce 53bd 1e7b 63bd
000000c0: 61d6 09be 44aa 823d 36cf 923d 2b76 d23d
000000d0: dd2d 59bc 95c1 543d 5914 8d3d 32d9 54bd
000000e0: 02d0 f7bd 8ad3 f9bd 6b27 893d f8df b6bd
000000f0: 1350 c43d 8c18 f4bc 33dc b83c 3431 db3d
00000100: 7eda 853c cba3 17bd 223c 82bd bffb c83d
00000110: 8f91 0cbe 14a3 3f3d 7f98 bbbd 54b8 bb3c
00000120: f88c f0bd eba5 81bd 428e b5bd 262e e4bd
00000130: 7978 e43c 252e b13d 8fc5 b4bd 7e41 d73d
00000140: 453d c43d eb6e ddbd afdb d73d 3c83 ad3d
00000150: 91e6 19bd 6152 dfbd 910f 03be c396 f73c
00000160: c77b 02be 7f37 843d 3050 93bd cda4 c0bd
00000170: 9f23 903c b04a b03d 19ce d73d d756 5abd
00000180: 8435 493c 8677 06bd a0b1 a53d f08f ab3d
00000190: 7f70 e33d 143a a9bd 37f2 973d a411 2e3d
000001a0: fca7 81bd d680 e33d fd46 63bd 591a b4bd
000001b0: 882c ca3d c80e 7e3d 4592 7f3c bf32 6e3b
000001c0: cce7 43bd 74de 0d3d bcff b1bd a9b5 233d
000001d0: 6b17 de3d 5d73 893d 3988 d33d 92fe bcbd
000001e0: 05fa e13d b8ca 93bd 6041 54bc bcfe 50bb
000001f0: e73a 4dbd 727c 45bd 9173 2e3d d81d 543d
00000200: eeec 4b3d 6e54 10bd 4313 b23d 8aa2 97bd
00000210: 62bd 2cbd c797 a3bd 597b a03b aa1f 4abd
00000220: e5a0 b03d b448 aabd 777e 14bc 39ee d73d
00000230: ecba ffbd 7337 ec3d 743b 08be f8b7 cdbc
00000240: 54cf bc3d d6e3 e8bd 2ece e13d 4cac abbc
00000250: c097 8a3d b598 63bd f9c2 8d3d d489 c93d
00000260: 5e10 cd3d dcc2 ce3d d935 f53d 071d f7bd
00000270: 8d9c 6dbd e6f9 57bd 3624 ab3d 86b9 04bc
00000280: 0879 023c 544e 093d e2cc 01be 7aa5 dcbd
00000290: d517 b93d 47ac 1fbc 728a a8bc ba3d 8dbd
000002a0: b542 a03d 2bc5 95bd 74e9 27bd b6b5 7b3d
000002b0: 5c10 da3d 5d6f a0bd 48a5 03be c42b 3f3c
000002c0: d70c 0b3c bbd4 24bd 39be 4abd 90c4 8fbc
000002d0: 49e3 e5bd da67 9f3d 456c 94bd ce4e c2bd
000002e0: 9b52 063e db05 123d 7661 1dbd e7e5 80bd
000002f0: b140 e23d eb5d dfbd e8a2 053d 1aa0 5ebc
00000300: 0ac5 02bd c5c3 b33d 3336 ba3c e9d4 8b3c
00000310: 1251 c7bd f934 76bd 15dd 3b3c a68e 30bd
00000320: b93d fdbd e7df 0fbe bd79 a1b8 8316 c4bd
00000330: 5402 c5bb e7be 893d 54ef a9bc c517 83bd
00000340: f4a1 87bd 8b8a ad3d aeff d4bd d6e1 88bd
00000350: 08aa eb3d aed5 ae3d 334e 8bbd 6e79 ab3c
00000360: 973f 8bbd 6879 8abd cf8e cbbd 2fef b1bd
00000370: b4dd 80bd 1739 423d d3bc 723d 8985 eabd
00000380: 2d54 a5bd 631f 113d 0105 f2bc 2a6c 62bd
00000390: 968e 413d 27e6 df3d f2c3 30bd a390 d4bd
000003a0: c13d ffbd 31fb bcbd 35b2 f1bc 65e1 9abd
000003b0: fc30 b23d 7d9a 0bbd b761 e8bd 9356 ccbc
000003c0: 6445 a33b 8924 a6bd 7aa5 ce3d ebec dabd
000003d0: 8d76 da3d aad3 f73d cb00 f1bc 7983 523d
000003e0: 27b5 953d 894f fe3d 27d5 fd3d 68d8 8dbc
000003f0: c9b2 c33d 9362 8cbd 892d ecbd 16e1 0e3d

rnn.bias_ih_l0 f4 [64]
0.05421983 -0.047366675 -0.038189474 0.06819122 -0.042906635 -0.075372145 0.12066894 -0.0010908069
0.05562889 0.048330046 -0.12473615 -0.046641313 0.08247181 -0.06698207 -0.00984864 -0.12280659
0.11570815 -0.036307473 0.11698028 -0.07531255 -0.058343366 -0.11096105 0.040002927 -0.073174566
0.024188966 0.096660405 -0.10228604 -0.011634445 0.09691698 -0.023854727 0.10196237 -0.051771373
0.06850237 -0.05892254 0.010211042 0.0749611 0.0075760954 0.06063062 -0.039870713 0.07190372
-0.023248283 0.11209357 0.08448553 -0.05464181 -0.11682157 -0.0778197 0.10469402 0.034390364
-0.029419614 -0.12003205 0.057739064 0.053028166 -0.099706665 -0.03146516 -0.083071865 -0.13002285
-0.04876759 -0.12708943 0.019536993 0.13071078 -0.0798202 0.1017852 0.06974387 0.10936299
00000000: 9d15 5e3d 8f03 42bd 916c 1cbd d7a7 8b3d
00000010: debe 2fbd b65c 9abd 4721 f73d 68f9 8eba
00000020: 1edb 633d baf5 453d ab75 ffbd f60a 3fbd
00000030: fbe6 a83d e52d 89bd 315c 21bc 0582 fbbd
00000040: 65f8 ec3d 25b7 14bd 5b93 ef3d 773d 9abd
00000050: 74f9 6ebd 8c3f e3bd 1cda 233d 8cdc 95bd
00000060: f027 c63c e4f5 c53d 587b d1bd 669e 3ebc
00000070: 697c c63d fd6a c3bc a6d1 d03d 380e 54bd
00000080: f84a 8c3d c358 71bd 374c 273c 3585 993d
00000090: e540 f83b d057 783d 794f 23bd 4242 933d
000000a0: 2f73 bebc 5091 e53d c006 ad3d 17d0 5fbd
000000b0: 2640 efbd ef5f 9fbd d169 d63d e9dc 0c3d
000000c0: 6701 f1bc 5dd3 f5bd cc7f 6c3d 1034 593d
000000d0: 0233 ccbd 9de1 00bd 9521 aabd b624 05be
000000e0: 86c0 47bd bb23 02be 0b0c a03c 0cd9 053e
000000f0: c678 a3bd c274 d03d e0d5 8e3d b4f9 df3d

rnn.bias_hh_l0 f4 [64]
0.07653416 0.10150218 0.06808755 0.048394676 0.060171716 0.09606835 0.013547301 -0.105452724
-0.015258649 0.06240738 0.101584025 -0.076109245 0.08425157 0.093413465 -0.09105167 -0.086940415
-0.10231244 -0.05136779 0.05465389 0.04958833 -0.12181006 -0.067829356 -0.08857288 0.023108514
0.09682732 -0.05792977 -0.010881421 -0.012032664 0.05730047 -0.10284353 -0.054729905 0.11509002
-0.08331348 0.07640099 0.11965776 0.080012865 0.079358876 -0.07662664 0.05917529 0.12026267
0.08549321 -0.0359288 0.0942826 0.03706916 0.120644644 -0.059260137 -0.02648459 0.004815141
0.090185255 -0.095822595 0.04804708 -0.054521322 0.11306149 -0.09617409 0.12881158 0.10457092
-0.07988484 -0.027606752 -0.08359518 0.0016319803 0.07288401 -0.0021494275 -0.11795403 0.09381505
00000000: f1bd 9c3d 60e0 cf3d 7c71 8b3d 7f39 463d
00000010: 9e76 763d 7cbf c43d 80f5 5d3c 99f7 d7bd
00000020: 6aff 79bc e29e 7f3d 490b d03d 2adf 9bbd
00000030: 168c ac3d 8f4f bf3d 4c79 babd d10d b2bd
00000040: 2f89 d1bd 0867 52bd c2dc 5f3d 221d 4b3d
00000050: 8e77 f9bd 1eea 8abd b365 b5bd 114e bd3c
00000060: 674d c63d c447 6dbd fd47 32bc a724 45bc
00000070: e6b3 6a3d a19f d2bd 772c 60bd 51b4 eb3d
00000080: 42a0 aabd 1f78 9c3d 210f f53d c9dd a33d
00000090: e886 a23d 6eee 9cbd ca61 723d 464c f63d
000000a0: 1017 af3d 142a 13bd 3c17 c13d d5d5 173d
000000b0: 8a14 f73d c2ba 72bd 36f6 d8bc 55c8 9d3b
000000c0: 0cb3 b83d a33e c4bd 04cd 443d c051 5fbd
000000d0: c88c e73d ecf6 c4bd 2fe7 033e 4729 d63d
000000e0: aa9a a3bd 8e27 e2bc f333 abbd 2ce8 d53a
000000f0: 3644 953d 69dd 0cbb e291 f1bd 1b22 c03d

fc.weight f4 [1, 64]
0.06804478 0.13266087 -0.06999849 -0.053963777 -0.009743596 -0.025488751 0.1004112 0.093857765
-0.09869346 -0.0301876 -0.08934363 -0.060619466 -0.11695435 -0.062327426 -0.029267795 0.041155726
0.020970918 -0.11592162 -0.11405781 0.082727365 -0.026880596 0.112747096 -0.09688962 0.1374544
-0.12725021 0.11441569 -0.06297332 0.115659684 -0.09932364 0.04457657 0.12402599 0.08253201
0.0020224527 0.0789576 0.1147935 0.055768628 0.13436694 0.0935858 0.077327736 0.028189762
0.009647603 0.031158686 0.10940669 -0.020805 -0.009390646 -0.12543128 0.0058854474 -0.015857317
0.058585037 -0.08651564 -0.11630634 -0.036577854 -0.073473915 0.09904163 -0.01074812 -0.0036662216
-0.05112984 -0.08588259 -0.06395202 0.10906456 -0.036315154 -0.12770917 -0.0064364905 0.036077365
00000000: 105b 8b3d 40d8 073e 5e5b 8fbd 1f09 5dbd
00000010: 9ba3 1fbc c9cd d0bc 63a4 cd3d 8038 c03d
00000020: cc1f cabd fc4b f7bc cbf9 b6bd 1e4c 78bd
00000030: c385 efbd 0b4b 7fbd 04c3 efbc e892 283d
00000040: 34cb ab3c 5068 edbd 2497 e9bd f76c a93d
00000050: b234 dcbc f3e7 e63d 116e c6bd d9c0 0c3e
00000060: e14d 02be c652 ea3d 28f8 80bd fcde ec3d
00000070: 316a cbbd ec95 363d 5701 fe3d 8b06 a93d
00000080: 208b 043b 86b4 a13d db18 eb3d a56d 643d
00000090: 7d97 093e e9a9 bf3d 015e 9e3d 37ee e63c
000000a0: fb10 1e3c 8040 ff3c 9d10 e03d 3f6f aabc
000000b0: 39db 19bc 0f71 00be b6da c03b 34e7 81bc
000000c0: ddf6 6f3d 1d2f b1bd 0532 eebd a9d2 15bd
000000d0: 7e79 96bd 57d6 ca3d e218 30bc fe44 70bb
000000e0: 866d 51bd 36e3 afbd 47f9 82bd 3d5d df3d
000000f0: 33bf 14bd 31c6 02be 32e9 d2bb dcc5 133d
