trained_models/max_gts_temp/lstm_model_1632058043.pt (torch, 72727 bytes, 5 tensors)

lstm.weight_ih_l0 f4 [256, 3]
000000 ea 03 c7 3d 73 01 13 3e f1 43 04 3d 9e ce 8d bc
       0.097175434 0.14356022 0.032291356 -0.017310437
000010 12 53 ee bd cd 4e 23 3e 72 7d d7 bd 8c 4b a8 bd
       -0.11636938 0.15948029 -0.10521974 -0.082175344
000020 56 61 16 3e eb df 85 3d 5f bf fc 3c 9b fb 5f bd
       0.14685568 0.065368496 0.030852972 -0.05468331
000030 3a 00 e3 bd f4 04 5b bd 07 fd 0b 3b cf 6e 6f 3d
       -0.110840276 -0.05347152 0.0021360533 0.058455285
000040 4c c0 df bc ad 7a 3b bd 6d b7 21 3b c5 14 8c bd
       -0.027313374 -0.04577129 0.002467598 -0.06839899
000050 f5 52 b2 3d fb 93 63 3d a1 5c c4 3d f8 55 46 3d
       0.08707229 0.055561047 0.0958798 0.04842183
000060 3a 03 08 3d 59 0a e5 bd 4a 35 94 3d 1c 26 89 bd
       0.033206202 -0.11183614 0.072367266 -0.06696722
000070 9b 1e 72 3c 1f bd 80 bd 10 02 3d 3c ec c4 be bc
       0.014777805 -0.06286072 0.011536136 -0.023287259
000080 7b 49 ec 3d 0d dc 6b bd 24 56 9d bb 22 3b 27 3d
       0.11537453 -0.057582904 -0.0048015285 0.040827878
000090 55 81 e7 3d 73 7c ac 3d 22 95 1d 3d 88 c1 0e bc
       0.11303965 0.08422174 0.038472302 -0.008713134
0000a0 36 80 cf 3d 88 75 c3 bc 86 c7 27 bb e2 48 b1 bd
       0.10131876 -0.023859754 -0.0025601103 -0.086564794
0000b0 64 18 08 3e 4b a6 80 bd a5 93 6c 3d 10 a4 ae bd
       0.13290554 -0.06281718 0.057757992 -0.08527386
0000c0 4b 6a 97 ba 0d 09 06 bd f0 1e b8 3d a8 87 fb 3d
       -0.0011552064 -0.032723475 0.08990276 0.12281734
0000d0 49 53 72 3d 6b b2 b8 bd 89 6a 07 bd 98 30 cd 3d
       0.05916146 -0.090184055 -0.033060584 0.10019034
0000e0 1b f7 0d bd 41 53 61 bd 78 b2 ec 3d 55 ad d3 3d
       -0.034659486 -0.055011038 0.11557478 0.10335795
0000f0 14 ab e7 3d cd e5 a1 3d 2c 51 83 bd 54 69 54 bd
       0.113119274 0.07905159 -0.06411967 -0.05185826
000100 ee da 08 bd ef e1 79 3b 60 e6 9f bb 95 0f a0 bd
       -0.033411913 0.0038129052 -0.0048797578 -0.07815472
000110 09 a4 f8 3d a7 44 82 bd d2 66 89 3d 4e 00 2a 3d
       0.12140662 -0.06360751 0.067090645 0.041504197
000120 6b fd c1 bd 3a 75 23 bd ed 41 fa bc 93 cb 16 3d
       -0.09472164 -0.039906718 -0.030549014 0.036815237
000130 df c9 ed 3d 54 8f 77 3d ba f1 02 3e 27 2e 16 3d
       0.116107695 0.060439423 0.12787524 0.036665108
000140 d8 b4 72 3d 6f 4b 82 3d df 82 c1 3c 53 e9 40 3c
       0.059254497 0.06362044 0.023621975 0.011774379
000150 c6 b1 9e 3d d5 e7 09 3d ac 32 71 3c 59 cc f4 3d
       0.07748751 0.033668358 0.014721554 0.11953039
000160 92 a4 cc 3d b9 05 08 3e ce d7 c9 bd 1e 24 b3 bd
       0.09992327 0.13283433 -0.098556146 -0.08747123
000170 3a b8 58 3d 23 a9 a9 3d da dc 9d bd 45 c7 ae bd
       0.052910067 0.082842134 -0.0770814 -0.085341014
000180 22 20 b7 bc 79 a2 dc 3c 2f 1d f3 3c a1 1f 0b 3c
       -0.02235419 0.026932942 0.029677002 0.008491428
000190 39 01 ad bc cf e5 a6 bd c7 33 63 bd 43 5c 3c bd
       -0.021118747 -0.08149301 -0.0554693 -0.045986425
0001a0 87 31 06 3e 3b 8e 7f 3b 66 e3 3a 3d 0c 1f e4 3d
       0.1310483 0.0038994688 0.04562702 0.11138734
0001b0 4f f1 a3 3c b9 79 85 bd 42 01 ac bd 0d e0 94 3d
       0.020012526 -0.065173574 -0.083986774 0.07269297
0001c0 f6 2f 06 be 3d ea 29 bc ea 5c 08 3e 50 64 e1 bc
       -0.13104233 -0.010370788 0.13316694 -0.027513653
0001d0 0e 54 11 3e d7 81 ca bd 84 ac 43 3c 48 8b 76 3d
       0.1419222 -0.09888046 0.011942986 0.060191423
0001e0 1a ae 48 bd 9c 4c 99 bd 92 e1 a9 3c c1 e8 88 bd
       -0.04899416 -0.07485315 0.020737443 -0.06685019
0001f0 f1 82 98 3c d0 36 7b 3d fa 72 e5 3c 8e d0 c6 3d
       0.018617125 0.06133157 0.028008927 0.097077474
000200 8f a7 5d bc 47 e6 c3 3d 03 ce 3b bd a1 0c 22 3d
       -0.013528719 0.09565406 -0.045850765 0.039562825
000210 42 ef 5c bd 0b f9 99 bc 6d 83 48 bc 9d 34 f1 bd
       -0.05393911 -0.01879551 -0.012238366 -0.11777613
000220 36 75 09 bd b0 a6 d9 3d 9a 13 09 bb 56 75 a7 bd
       -0.033559047 0.10627496 -0.0020916224 -0.08176677
000230 93 ae ae bd d2 30 52 3c af c7 bb bd b7 4f fc 3a
       -0.08529391 0.0128290225 -0.09168946 0.0019249831
000240 98 b9 fe 3d 04 b6 82 3d e2 84 f3 3d 31 b5 96 3d
       0.12437743 0.06382373 0.1189058 0.07358778
000250 bb d2 fa bd 4b fb fd 3d 2a 54 74 3b 4b 6d 8f 3d
       -0.12247225 0.12401446 0.003728161 0.07003268
000260 81 d8 07 bd b0 a8 c5 ba f6 e6 2a 3d f8 57 1f 3d
       -0.03316546 -0.001508018 0.041724168 0.038902253
000270 c9 51 b1 3d 83 e7 56 bd 29 5d a7 bd 86 91 34 3d
       0.086581774 -0.05246688 -0.08172066 0.044084094
000280 e5 56 de bc 9c 99 9e 3c 3e 87 ea bc 37 f2 d0 3d
       -0.027141044 0.019360356 -0.028628942 0.10202449
000290 a1 66 e7 3d 28 10 0c 3d 85 c8 9c bd 90 9e 04 3e
       0.11298872 0.034195095 -0.076554336 0.12951112
0002a0 72 20 95 bd c7 c7 82 3d 63 72 3c 3d cc 9b 22 3d
       -0.07281579 0.06385761 0.046007525 0.03969936
0002b0 12 2c 8a 3b 1c 6c 94 bd 80 d9 c6 bd 00 2f 0c bd
       0.0042166794 -0.07247183 -0.097094536 -0.03422451
0002c0 18 25 1f 3d 37 ab 58 bd b7 22 f6 bd 7d f2 ac bd
       0.038853735 -0.05289766 -0.1201834 -0.084446885
0002d0 78 9f eb 3d 9c fc f6 bd df bd ed 3d d4 5a 08 bc
       0.115050256 -0.120599 0.11608481 -0.008322436
0002e0 d6 e4 6f 3d 43 1c 54 bc 06 ff e2 3d 1b d1 8f 3d
       0.058567844 -0.012946191 0.11083798 0.070223056
0002f0 69 5f 28 3d a4 cb f6 3c 65 a7 60 3d 6f 91 ca 3d
       0.041106615 0.0301264 0.05484714 0.098910205
000300 22 9a 4f 3c 1d 66 7b bd f5 54 96 bd dd 37 ba 3b
       0.0126710255 -0.06137668 -0.07340423 0.005682929
000310 2a 33 a7 3c 88 ea f5 3d bf 80 f7 3c f3 f0 9a 3d
       0.02041014 0.12007624 0.030212758 0.07565489
000320 bb 51 14 3e 44 ff 3e 3d c4 7b 19 bd 89 25 73 bd
       0.14484303 0.04663016 -0.037471548 -0.05936197
000330 94 70 19 bd 8e 01 9b 3d 06 01 61 3d 91 72 f3 3d
       -0.03746088 0.07568656 0.054932617 0.11887086
000340 ad 4b 8d bd 12 54 e6 bd 0d b6 c3 3d 57 3a 80 bd
       -0.068992 -0.11246504 0.09556208 -0.062611274
000350 36 20 ee 3d f5 ac 64 bd a1 e2 8d bd 8e 2e 17 bd
       0.116272375 -0.055829007 -0.06927992 -0.036909632
000360 e1 bf 9b bd f4 85 b7 bd 3b cf 90 3b 82 07 3d 3a
       -0.07604957 -0.089610964 0.004419235 0.00072108966
000370 b6 47 41 3d 2e 4a be 3d b0 be c6 3d 6a a7 a1 bc
       0.04718753 0.092914924 0.097043395 -0.01973315
000380 3d 09 86 bd fe 76 96 3d 1f 94 ef bb 63 a5 d0 3c
       -0.06544731 0.07346915 -0.0073113586 0.025469488
000390 e2 af b2 3d d9 51 18 3c 5b 49 4e bd 9e 05 09 bd
       0.08724953 0.009296858 -0.050362926 -0.033452623
0003a0 56 75 c7 bd 83 95 27 bc 77 df c2 bd 67 0e c7 3d
       -0.09739177 -0.010228517 -0.09515279 0.09719544
0003b0 26 0a 02 3d 9c 43 53 bc fd c0 d5 3c ad d8 03 3e
       0.03174796 -0.012894537 0.026093 0.12875624
0003c0 75 4e c9 3d c8 72 95 bd 24 7d dc bd b4 66 fe bd
       0.098294176 -0.072972834 -0.10766056 -0.12421933
0003d0 05 b1 d7 bc 7e 19 ed 3d 7e 5e d2 bd 52 06 8f 3d
       -0.026329527 0.11577128 -0.10271929 0.069836274
0003e0 e2 db 9b 3d c8 f4 87 3d 26 69 de 3d 10 05 89 3c
       0.07610299 0.06638485 0.10859899 0.016726047
0003f0 0a 8d 2b bc 23 f8 9c bd 1d ff 1a 3e c5 b0 b9 3d
       -0.010470638 -0.07664516 0.1513638 0.09066919

lstm.weight_hh_l0 f4 [256, 64]
000000 5b 7c 10 be de 40 4b 3d 91 7f 85 3d 6e 7d ed 3a
       -0.14109938 0.04962241 0.06518472 0.0018119046
000010 02 53 c2 bd db fe 1e be 92 89 57 3d 2b 38 1e 3e
       -0.09488489 -0.15526907 0.05262143 0.15451114
000020 39 90 66 bd fa a0 ab bd 84 c8 94 bd 9f a8 a2 bd
       -0.056289885 -0.08380313 -0.07264808 -0.07942318
000030 98 aa 11 3d 25 db cb bc 62 90 37 3d eb d3 e0 3b
       0.03556308 -0.02488477 0.04481543 0.0068612
000040 e9 d5 07 be bb cd 11 3e ba 7f 53 bd 55 84 0b be
       -0.13265194 0.14238636 -0.05163548 -0.136247
000050 9a d7 cd bc fa d1 2b bd 2b bf f0 bd 9b 7a 19 be
       -0.02512722 -0.041948296 -0.117552124 -0.14988177
000060 6e 66 87 bd e9 2a 04 3e 7a fc 3c 3d 0e 8b b4 3d
       -0.06611334 0.12906994 0.046139218 0.08815585
000070 aa 25 43 3b 73 0c 62 3d de 6f 06 3c 7b 6c 20 3c
       0.0029777088 0.055187654 0.008205382 0.009791489
000080 f6 0e 25 be 52 33 cb bd ee 1c 97 bd ec 6d 49 bd
       -0.16118988 -0.09921898 -0.07378565 -0.049177095
000090 c6 36 5e 3d 1b f0 a2 bd cf 24 06 be 31 40 26 3d
       0.054251455 -0.07955953 -0.13099979 0.04058856
0000a0 a4 cd 82 3d 8b e7 97 bd a3 f7 00 3e 95 ea d4 3c
       0.06386879 -0.0741721 0.12594466 0.025990764
0000b0 8d 01 cc bd 32 f6 ad bd 19 02 cb 3d 6e 83 19 be
       -0.09961233 -0.08494224 0.099125095 -0.14991543
0000c0 a3 dd e9 bd 0b 7a 1d be 58 db 03 bd 68 4f 10 3e
       -0.11419227 -0.15378587 -0.032191604 0.14092791
0000d0 c1 03 09 be 3c 10 a8 3d 07 cd a1 3d d8 e1 0c 3d
       -0.13380338 0.082062215 0.07900434 0.03439507
0000e0 1f 9a ac 3b 18 56 05 be b5 89 03 bc ec 08 60 3d
       0.005267396 -0.13021123 -0.008028437 0.05469601
0000f0 3a 23 f2 3d 9f 3c b2 bd 51 d6 db 3d 75 cd c4 3d
       0.11823125 -0.08702969 0.10734237 0.096095
000100 35 b2 e7 bd fc b5 10 3e ec 1b a4 3b 4b 01 68 3d
       -0.11313287 0.14131922 0.0050082114 0.056641858
000110 c4 45 b2 3c 36 55 d7 3c 3b e1 6c 3d 3d c9 97 3d
       0.021761782 0.026285749 0.057831984 0.0741143
000120 89 fc 4c 3d c4 85 78 bd c9 25 87 bd 20 2e cc bd
       0.050045524 -0.060674444 -0.06599004 -0.09969735
000130 25 7f a2 3d a7 21 7a bc 4c 16 03 be a6 e1 ba 3c
       0.07934407 -0.015266812 -0.12801474 0.022812676
000140 07 be bf 3d 65 cf a4 3c f7 51 52 bd b7 04 ab bd
       0.09362417 0.020118425 -0.0513477 -0.08350509
000150 ee 9d a4 bd ee 37 b7 bd e5 01 7b 3d c3 dd ac bd
       -0.08037935 -0.089462146 0.061281104 -0.08440735
000160 31 2a f9 bd d5 6d 00 bd 5f c8 86 3a fc 0d ad 3d
       -0.121662505 -0.031354744 0.0010283104 0.08449933
000170 0f 83 1a 3d cf 70 19 be 6c 7f 99 bb c4 69 cd 3d
       0.037722643 -0.1498444 -0.0046843793 0.10029939
000180 89 7c 52 3d 3f 70 2a 3d e2 f0 4f bc 7f aa d7 bd
       0.051388297 0.041610952 -0.012691708 -0.105305664
000190 cd 9f 91 3d 5a 17 41 3a f5 93 97 bd 94 1d de bd
       0.07110558 0.00073658454 -0.074012674 -0.10845485
0001a0 0d eb a0 bd b9 79 93 bb d4 58 b7 bc 10 59 d8 3d
       -0.078573324 -0.0045005945 -0.022381224 0.10563862
0001b0 cd 96 9d 3c 0e c0 39 bd b8 db 07 be 0b 0a 85 3c
       0.019236946 -0.045349173 -0.1326741 0.01624014
0001c0 76 d0 18 3d cf b8 e7 bd 6d ed c9 bb c0 7d 9f bc
       0.03730818 -0.11314546 -0.0061623366 -0.019469142
0001d0 6f 84 fa 3c 2a 63 08 bd 8f 37 d7 bc 52 6b 16 bd
       0.030580727 -0.033297695 -0.02627161 -0.036723442
0001e0 87 5e 11 be 43 a6 21 bd 3b 46 dd 3c f7 10 12 3d
       -0.14196216 -0.0394652 0.027011028 0.03566071
0001f0 a3 72 46 3c 94 aa d7 bd dd 62 8a 3b 21 38 0c 3e
       0.012112292 -0.10530582 0.004223211 0.13693286
000200 22 00 85 3d ee 0b 41 bd ba 91 86 3d 87 34 42 3d
       0.06494166 -0.047130518 0.06570764 0.047413375
000210 75 ff 42 3d 2a b4 b8 3d 7e 84 bf 3d 00 1c c6 bd
       0.047606904 0.090187386 0.09351443 -0.09673309
000220 3d cc 97 bd 98 78 82 3d 07 53 c8 3d 22 98 e2 bd
       -0.07412002 0.06370658 0.09781461 -0.11064173
000230 c3 a7 3a 3c a2 f5 85 bd 1a be b4 bd 4a 56 a8 3d
       0.011392537 -0.06540991 -0.088253215 0.08219583
000240 13 ea 88 3d 2e ef 0c bd b2 af 5c bd c3 5c 84 3d
       0.06685271 -0.034407787 -0.053878494 0.064630054
000250 78 b9 0b 3e 67 40 05 be 6d c4 e4 bd cc cf 49 bd
       0.1364497 -0.13012849 -0.11170278 -0.049270436
000260 88 e9 05 3d e2 47 25 bd 42 d4 00 be b9 52 71 bd
       0.032693416 -0.040351756 -0.1258097 -0.05891678
000270 ae 22 13 3d 60 cb 9b bd 9a 76 70 3d 55 f8 a5 bd
       0.035921745 -0.0760715 0.058706857 -0.08104006
000280 bd 28 1b be f3 af a3 3d 2b 86 6b 3d 02 84 a9 ba
       -0.15152259 0.07992544 0.057501 -0.0012933018
000290 7c 3f f3 ba df bd f0 3d b7 ed 9c bd e3 d4 d7 bc
       -0.0018558349 0.11754965 -0.07662528 -0.02634663
0002a0 06 56 fa bd be cf 37 3d 88 33 eb bb be b5 81 bd
       -0.12223439 0.044875853 -0.007177774 -0.06333493
0002b0 79 8c a9 bd d1 77 b1 3a 57 fa 15 be d7 4c f3 bd
       -0.08278746 0.0013539736 -0.14646278 -0.118798904
0002c0 f5 b0 65 ba 17 be 3a bb b9 9a 98 3d d3 7b 78 3d
       -0.00087620254 -0.002849465 0.07451386 0.060664963
0002d0 2e 88 97 bd 6c 70 9a bd 7b 51 8d bd 64 0c 46 3c
       -0.07399021 -0.07540974 -0.06900307 0.012087915
0002e0 f3 18 05 bd 66 b9 a5 3d 20 67 bf bd 57 ec 86 3d
       -0.032494497 0.080920026 -0.093458414 0.06588047
0002f0 1a f1 6a 3d c2 a7 12 be 19 b1 10 3e 91 cd 19 bd
       0.05735884 -0.14321807 0.14130057 -0.03754956
000300 4a 5a ac 3d c4 cb bc bd 9c ca 83 3b c6 7a cc bc
       0.08415659 -0.09218553 0.0040219557 -0.024960887
000310 d3 96 11 bd e5 e9 3b 3d 47 b8 50 bc 27 24 f5 3d
       -0.035544228 0.045877356 -0.012739248 0.11969786
000320 fe 12 bb 3c fd 3b a5 3d c6 95 2c bc 3f e8 5c bd
       0.022836205 0.080680825 -0.010533756 -0.053932425
000330 a6 dd 0c be a8 75 c6 3d 1c 45 ae 3c 40 92 e3 bd
       -0.13756427 0.0969041 0.021273188 -0.11111879
000340 17 8e 3d bd 4f c1 9a 3b 93 7a c0 3d 03 b3 fe bd
       -0.046278086 0.004722751 0.09398379 -0.124364875
000350 2b 0c ca 3d 22 05 19 bd 82 72 a8 bd 5f 9f 51 3d
       0.09865602 -0.03735841 -0.08224966 0.05117738
000360 af 16 c4 3d 87 1c 79 3d 87 96 e5 3a f9 5a 3f 3d
       0.09574639 0.06081822 0.0017516174 0.046717618
000370 9a f4 28 3d ef 25 9e 3c bc 55 2f 3d 8a f3 d6 3c
       0.041248895 0.019305198 0.042806372 0.026239175
000380 5f 1b 76 bd 2a ff af 3d ec 76 b8 3d 7e f9 e2 3d
       -0.060084697 0.085935906 0.090070575 0.11082743
000390 9e 8d 93 bd 1f 71 d9 3c 17 f3 9b bd 58 79 ad 3b
       -0.07204746 0.026543198 -0.07614725 0.0052940063
0003a0 91 c1 c9 3d 68 47 84 3d fd 58 47 bd 5a ee 16 3d
       0.09851373 0.06458932 -0.04866885 0.036848404
0003b0 cd aa 57 3d 64 f5 c5 bd e3 1a a3 bd aa 65 5f 3d
       0.052653123 -0.09665945 -0.079641126 0.054540314
0003c0 6e 4f f0 bc ac 6f a0 3d 03 66 f5 bc 49 11 0d 3e
       -0.02933475 0.078338 -0.02995587 0.13776125
0003d0 49 05 73 3d 8a d1 ee 3d 9e 4b a8 bd 1d b2 db 3b
       0.059331212 0.1166106 -0.08217548 0.0067045824
0003e0 e7 ed bf 3d 61 14 04 be 43 21 bb bc c3 87 9d 3b
       0.09371548 -0.12898399 -0.022843009 0.004807444
0003f0 30 d4 39 3d 0d 85 d0 bc cf fc f5 bc e2 57 81 bd
       0.045368373 -0.025454069 -0.030027775 -0.063155904

lstm.bias_ih_l0 f4 [256]
000000 43 85 92 3d 36 53 84 bd 42 4b c7 3d b7 ff 88 3d
       0.07154324 -0.06461184 0.09731151 0.06689399
000010 90 ca a5 3d a6 64 a9 bd 83 09 82 bd 0a 28 43 3d
       0.08095276 -0.0827115 -0.063494705 0.047645606
000020 2c 6f 9f bd 5f 6d ab 3d e5 c2 e7 3d ec 15 2e bd
       -0.07784876 0.0837047 0.1131647 -0.042501375
000030 2c e0 f4 3d e3 29 d1 bc b7 47 10 bd 92 26 ac bd
       0.1195682 -0.025532668 -0.035224643 -0.08405794
000040 b2 c5 a8 3d 0e 74 3d bc 6b 70 ae 3d 78 61 9d b9
       0.082408324 -0.011563314 0.08517536 -0.00030017993
000050 80 2c 08 bb d5 c2 5e 3c aa 2b ec bd 5b 01 1a bd
       -0.0020778477 0.013596256 -0.11531766 -0.03759895
000060 77 44 87 3c 4c 3e 75 bd 27 7b e4 bc 4c 6c a2 3d
       0.016512139 -0.059873864 -0.027890755 0.07930812
000070 38 d8 17 3d 82 0e b5 bb 10 8d 66 3d 7c 12 f4 3b
       0.037071437 -0.005525411 0.05628687 0.0074484926
000080 9d 22 7e 3d bf 7a cc bd ae d4 9f bd e7 e9 f0 3d
       0.06204473 -0.099843495 -0.07804237 0.11763363
000090 9a c4 20 bd 10 d8 b0 3c 80 bd c3 3d 3b 15 be 3d
       -0.039249994 0.021587402 0.09557629 0.09281393
0000a0 35 60 69 3c d6 67 b9 3c 9f 24 7d 3c 7d ab 03 3e
       0.014244129 0.02263252 0.015450626 0.12858386
0000b0 c0 3c fe bd fa c3 9d bd 41 3c c3 bc bb 1a a3 bd
       -0.12413931 -0.07703395 -0.023832442 -0.07964083
0000c0 0d bd c5 3d 20 24 8b 3b c8 24 78 bd 14 88 0c 3d
       0.09655199 0.00424625 -0.060581952 0.03430946
0000d0 73 5c ef 3c cf ec 9d bd eb 72 ac bd e2 4e 0a 3e
       0.029218888 -0.07711183 -0.08420356 0.13506654
0000e0 8e 79 6b bd 42 7c 7f bd f6 dc a4 bd b2 49 95 3d
       -0.05748897 -0.06237436 -0.080499575 0.07289447
0000f0 ee ec 6c bd 10 00 ed 3b 10 0b 70 3d e4 68 e1 bd
       -0.05784314 0.0072326735 0.0586043 -0.110063344
000100 6d 41 6a 3d 5c 64 66 3d 92 ea b3 bd 6b d2 72 bc
       0.0571913 0.056248054 -0.08784975 -0.014820675
000110 39 a7 9d bd 60 63 bd bd 89 82 ad bd 7f ab c1 bd
       -0.07697911 -0.0924747 -0.08472163 -0.094565384
000120 b2 19 b6 3a 42 60 52 bb e9 87 11 bd ae 7d 44 3c
       0.0013893156 -0.003210083 -0.035530005 0.011992855
000130 83 10 39 bd ec 5d ac 3d dc 94 e2 3d 80 b1 2c bd
       -0.045181762 0.08416352 0.11063549 -0.042161465
000140 30 fb 24 3d f0 91 96 3d 69 69 08 bd b9 7d f1 bc
       0.040278614 0.07352054 -0.033303652 -0.029478895
000150 46 0d b9 3d e6 40 0e 3e c7 67 fc 3d 57 95 c3 bd
       0.09035735 0.13891944 0.123244815 -0.09549969
000160 d0 6c 0b 3d 69 1b 53 3b 76 df bc 3d 27 91 85 3d
       0.03403932 0.0032212383 0.09222309 0.06521826
000170 e7 c4 92 bc 6e 84 e1 3d dd 0a 81 bd 25 41 d5 3c
       -0.017916156 0.11011587 -0.063009 0.02603204
000180 81 38 59 3d a9 56 09 3e 8f 22 ef bb 05 6c 06 bd
       0.053032402 0.13411964 -0.007297821 -0.03281786
000190 a1 70 a3 bd e8 40 22 bd 80 75 93 3d b6 7d 9f bc
       -0.07980467 -0.03961268 0.07200146 -0.019469123
0001a0 e2 55 30 bd a7 de 0a bd 88 c7 9f bc d7 b6 ab 3d
       -0.043050654 -0.033903744 -0.019504324 0.08384483
0001b0 8e 6e 1a bd 9f 5b ba bd 3b 35 cc 3c 52 b4 dd 3c
       -0.03770309 -0.090995066 0.024927726 0.027063522
0001c0 16 09 fa 3d a6 80 de bd d7 ba 04 bd ec ef dd 3d
       0.12208764 -0.108643815 -0.032404747 0.10836777
0001d0 93 4c ae bd 8d 54 c9 3d 2f b8 83 bd 88 d3 83 3d
       -0.08510699 0.0983058 -0.064316146 0.06436831
0001e0 bc e9 0b bc f3 b7 05 3d dd 26 0a 3e 82 87 3e bb
       -0.008539613 0.03264613 0.13491388 -0.0029072468
0001f0 18 1d e8 bb 66 cd 0e 3e 8a 9d 23 3d 9b c2 8e bb
       -0.0070835464 0.13945541 0.039945163 -0.004356695
000200 f4 e5 95 3d 9e 15 1f 3d 1d 84 15 bd 25 b2 6c bd
       0.07319251 0.038838975 -0.036502946 -0.05778708
000210 ae 8c a0 bd 3e 2c c3 3d b4 2d 9a bb 1f ab a2 bd
       -0.078393325 0.09529923 -0.0047051553 -0.07942795
000220 47 b1 de 3d 82 3a 84 3d 40 19 1a 3d 41 a7 d4 3d
       0.10873657 0.06456472 0.037621737 0.10383464
000230 fe 72 c9 bd 08 f5 7f 3d 58 1a 8b bd 4b b0 d6 bc
       -0.09836386 0.06248954 -0.06792134 -0.02620711
000240 1a b8 da bd 0c 9a 4f 3d d1 4e a4 bc e4 46 e9 3c
       -0.10679646 0.05068402 -0.020057114 0.028476186
000250 65 89 fc 3d 3d 36 1a 3d a4 01 9e 3b 1d 17 0c be
       0.123308934 0.037649382 0.004821973 -0.13680692
000260 b9 e6 82 bc cc 12 7d 3c 00 8c 8f bd d1 96 f1 3d
       -0.015979158 0.015446376 -0.07009125 0.11796344
000270 40 fb 83 bc e3 ad 0d be 70 be cd bd 7f 95 b2 bd
       -0.016111016 -0.13835864 -0.10046089 -0.0871992
000280 60 0b 95 bd bf 83 eb bd 50 99 ac bd b9 e8 50 3d
       -0.0727756 -0.11499738 -0.084276795 0.05100319
000290 de 65 0f 3c c2 ad 8d 3d 89 91 5d bd 39 7c 23 bc
       0.008752314 0.06917907 -0.05409387 -0.009978347
0002a0 90 d6 e4 3d e6 f4 00 bd 64 68 9d 3d 15 df 91 bd
       0.11173737 -0.031483553 0.076859266 -0.07122628
0002b0 44 89 3a bd f3 ac 76 bd 2f f8 22 3d 58 9a 7b 3d
       -0.045541063 -0.06022353 0.039787468 0.06142649
0002c0 b6 ec 56 bd 5c 4c 31 3d e4 82 93 bd a9 1b e6 3d
       -0.05247184 0.043285713 -0.072027 0.112357445
0002d0 6f ef 8e bd 93 5f 5a bd 1e 13 4c 3d 5b b7 12 3d
       -0.06979262 -0.053313803 0.04982292 0.035819393
0002e0 53 3a 5f 3d 6b d1 b7 bd 89 bb cc 3c ff a9 d6 bd
       0.05449898 -0.0897549 0.024991767 -0.10481643
0002f0 08 14 d4 bd 9d a7 3e 3c 93 3c c0 3d 88 90 ae bd
       -0.10355383 0.011636642 0.093865536 -0.08523661
000300 48 d9 c9 3c 2e 6b 68 bd 9c a7 ae 3d 76 23 c3 bd
       0.02463974 -0.05674284 0.08528063 -0.09528248
000310 a2 2f 8b 3d 62 55 f3 3d 24 01 c0 3d 11 74 ef 3d
       0.067961946 0.1188152 0.093752176 0.1169206
000320 94 d3 5b bd fa 73 b6 bd 13 14 c9 bd 81 a8 48 bd
       -0.053668573 -0.089088395 -0.09818282 -0.048988823
000330 a7 d3 54 bd 0c e7 db 3d 78 ca b1 bd 3e 5b e8 3d
       -0.05195966 0.10737428 -0.08681196 0.11345528
000340 e2 64 a4 bd ba 0b 8f bd 53 46 01 3e f5 92 46 3c
       -0.08027054 -0.069846585 0.12624483 0.012119998
000350 66 3d b5 bd 0a 6b fe 3d 09 45 d6 bd 27 ef 86 3d
       -0.088496014 0.1242276 -0.10462386 0.065885834
000360 6b b3 9e bd d6 b1 f9 3d 25 35 ab 3d 5e 60 fc bd
       -0.07749065 0.12192123 0.08359746 -0.12323068
000370 9b be c6 3d 3b f7 24 3b d3 82 c3 bd 36 e3 80 3c
       0.09704324 0.0025171775 -0.09546437 0.015733343
000380 d7 45 a6 3d 9b 54 c4 3c 48 68 94 3d 05 f9 4c bc
       0.0811879 0.023966124 0.072464526 -0.012510543
000390 69 18 a7 bd 5e 41 65 bc da c7 d5 bd f9 73 32 bd
       -0.08158953 -0.0139926355 -0.10438509 -0.04356763
0003a0 53 cb d7 3d 9c 3b 58 3c a9 15 22 bd 5b f9 a4 3d
       0.10536828 0.013197806 -0.039571438 0.08055373
0003b0 0a 21 ea 3c a2 27 a0 bd 22 94 86 bc 77 85 73 bd
       0.028580207 -0.07820059 -0.016428057 -0.059453454
0003c0 50 64 cb 3d 19 cd a7 bd 85 91 10 bc b9 8a 3e bd
       0.099312425 -0.08193416 -0.008823757 -0.046519015
0003d0 97 98 e8 bd ed 03 fd 3d 9f 48 04 3e 7e f2 ec 3d
       -0.11357229 0.123542644 0.12918328 0.11569689
0003e0 68 78 2c 3b 96 cb ea bd d7 0d 8b bd d9 f5 ab bb
       0.0026316885 -0.11464612 -0.06789749 -0.005247813
0003f0 2a c7 e9 bc 9c e8 c6 3d 11 77 db bd e1 37 c9 bd
       -0.028537352 0.097123355 -0.107160695 -0.09825111

lstm.bias_hh_l0 f4 [256]
000000 ea 1e 01 3e c2 98 ae 3d ba 99 66 3c f7 42 33 bd
       0.12609449 0.0852523 0.014074737 -0.043765035
000010 3e f5 98 bd b2 18 cf bc 3f 7a a1 bc cb 0e e0 3d
       -0.07468651 -0.02528033 -0.019711612 0.109403215
000020 be 4d 3d bd c9 4e 82 3c ab 71 b8 3c c2 90 e7 bd
       -0.04621672 0.015906708 0.022515139 -0.11306907
000030 14 45 a9 bc 3e a8 e9 3d de 34 15 3d db ee 9c 3d
       -0.020662822 0.11409043 0.03642737 0.076627456
000040 b4 0f a1 3d d1 21 ef bd 1d 89 e2 3d ce bb c4 3d
       0.07864323 -0.11676372 0.110613085 0.096061334
000050 49 e9 31 bd 5c 58 e6 3d 33 22 12 3a 81 6e e3 3c
       -0.04343537 0.11247322 0.0005574554 0.027762653
000060 3e a0 0f 3e 6c c4 06 bd 4a 66 10 bd 37 83 a1 3a
       0.14025971 -0.032902166 -0.0352538 0.001232243
000070 09 01 e2 3b 4c ae d3 3c f8 d0 b4 3d 8d 5b 23 bd
       0.006897096 0.025839947 0.0882892 -0.03988223
000080 59 2b bf 3d 22 18 c9 bd 97 99 99 bd fd 29 fd 3d
       0.0933444 -0.09819056 -0.07499998 0.12361524
000090 15 43 d7 bd a2 47 a7 3d 88 9d 94 3c 50 52 17 bd
       -0.10510842 0.0816796 0.018141523 -0.036943734
0000a0 a3 c5 70 bd 8e 94 b8 3c c6 ff b5 bc af 22 99 3c
       -0.05878223 0.022531774 -0.022216689 0.018693296
0000b0 00 83 78 3c ed bb 4c bd b5 78 73 bd 49 31 f4 bc
       0.015167952 -0.049983907 -0.059441287 -0.029808657
0000c0 40 ab 03 3d 3b 63 b2 bd 14 9f b5 3c 35 d4 95 bd
       0.03214574 -0.08710333 0.02217058 -0.07315866
0000d0 73 9a c4 3c 6b fd ea 3d dd 0f 74 3c 60 bf f3 3c
       0.023999428 0.11474117 0.01489636 0.02975434
0000e0 b0 66 9d bd 05 61 89 bd c4 99 99 3d dc 8f 64 3d
       -0.07685602 -0.06707958 0.075000316 0.055801257
0000f0 46 7d a0 bd 7f 3c ac 3d 36 52 bd bd f4 45 b8 bc
       -0.07836394 0.08409976 -0.09244196 -0.022494294
000100 67 6f a3 3c ad b3 51 3d ff 5f 29 bd c3 cb c6 3d
       0.019950582 0.051196743 -0.041351315 0.09706833
000110 8b bc 06 3d 0f b8 78 bc 79 f7 00 3e 82 e6 15 3d
       0.032894652 -0.015180602 0.12594403 0.036596783
000120 dc 29 49 3c 42 7c 8a 3d 36 ac 3d 3d 2d 9e f3 3d
       0.012278046 0.067619815 0.04630681 0.11895404
000130 8a 39 94 3d b0 d6 d6 bd fd df 11 3e 59 3c a7 3d
       0.07237537 -0.10490167 0.14245601 0.08165807
000140 8e bb cd 3d ba ed 58 3d c0 69 d2 3d 92 de b1 bd
       0.10045539 0.05296109 0.102740765 -0.0868503
000150 88 11 4f bd 22 d7 09 3e a5 09 5b bd 9e de 7b 3d
       -0.05055383 0.13460973 -0.053475995 0.0614916
000160 f6 67 04 3e 9e a6 7a 3d 27 35 48 bd ca 94 1a 3d
       0.12930283 0.061194055 -0.048878815 0.037739553
000170 c8 2d 0a 3e f9 16 d8 bd 74 29 f6 bd 50 62 f5 3d
       0.13494027 -0.10551257 -0.12019625 0.11981642
000180 bc b9 06 3e ce a8 6e bd 96 66 37 bc 91 25 78 bd
       0.1315679 -0.058266453 -0.011193892 -0.0605827
000190 95 57 d9 bc 80 13 20 3d c5 94 d0 bb 83 ef 56 3d
       -0.02653102 0.039081097 -0.006365391 0.05247451
0001a0 a1 86 8b bc 02 39 8c 3d 12 21 09 be d8 44 57 3d
       -0.01703197 0.06846811 -0.13391522 0.05255589
0001b0 45 c2 2a 3d 08 4c e8 bd 12 46 f1 3b e5 07 99 bd
       0.041689176 -0.11342627 0.0073630894 -0.07472209
0001c0 a0 2c ee 3d 22 82 2c bd ba 90 a2 3d 32 6b d3 bd
       0.11629605 -0.04211629 0.07937761 -0.1032318
0001d0 01 70 e9 3d 85 1b d6 ba 54 44 a6 bd 4e 9d f0 3d
       0.11398316 -0.0016335106 -0.08118501 0.117487535
0001e0 b3 b2 49 3d af 3b 16 bd 27 2b bf 3d 5d 87 64 bd
       0.049242686 -0.036678012 0.093344025 -0.055793155
0001f0 17 82 c5 3d b9 70 49 3d 9e de d6 3d ab e0 e0 3d
       0.09643953 0.049179766 0.104916796 0.10980352
000200 8f 47 01 be db f6 80 3d e1 4c d0 bc 14 71 ba 3d
       -0.12624954 0.06297084 -0.025427284 0.09103599
000210 94 05 9e 3d ea ec dc bb 05 f1 ca bc f1 c8 9e 3d
       0.07715908 -0.0067421095 -0.02477313 0.0775317
000220 55 0f d0 3c 0b 53 06 3e 14 f1 e2 bd cf c7 23 bd
       0.025397936 0.13117616 -0.11081138 -0.039985474
000230 b6 21 1f bd 7b 2f 95 3d 92 be 61 bd 7b 4a d7 bd
       -0.03885051 0.07284447 -0.055113383 -0.10512253
000240 48 f9 9e 3c 97 e9 b6 3d 4e 86 e3 3d e1 0c 36 bd
       0.019405976 0.089312725 0.11109601 -0.044445876
000250 8a 66 10 bd 23 bc 2d bd b3 a6 99 bc 1f 40 bd 3d
       -0.03525404 -0.04241575 -0.018756246 0.09240746
000260 18 c9 b7 bd d8 f0 90 3d 26 b2 ad 3c 87 fb d8 3d
       -0.089739025 0.07077187 0.021203112 0.1059485
000270 a6 8e 46 3d ce c2 e4 bd 44 a4 06 bd c7 70 75 3d
       0.048475884 -0.111699685 -0.0328715 0.059922006
000280 19 58 58 3d 6f 2c 55 3d 28 89 d5 3d 0e 9f b9 bd
       0.05281839 0.05204433 0.10426551 -0.090635404
000290 59 c4 09 3e 88 2f 2c 3d 5d 09 bc b9 d6 52 9f bd
       0.13453807 0.042037517 -0.0003586513 -0.077794716
0002a0 1c 2e c9 bd 2c c1 0c bd 64 2a 8e 3d 40 e6 12 3e
       -0.09823248 -0.03436391 0.06941679 0.14345646
0002b0 b5 75 d7 3d 39 f8 7f bd a9 12 c9 bd 19 f3 bf bd
       0.10520498 -0.062492583 -0.09818012 -0.09372539
0002c0 5e 20 b8 bd 9f 14 75 bd 27 12 38 3d 23 cc 25 3c
       -0.089905486 -0.05983412 0.044939186 0.010119471
0002d0 b7 88 d4 bd 12 8e f2 3d d4 2e d4 3d cf c9 b6 3d
       -0.10377639 0.11843504 0.10360494 0.08925211
0002e0 43 bd 07 be 70 84 e5 bd ab 07 9d bc 27 a9 bc bd
       -0.13255791 -0.11206901 -0.019168695 -0.09211951
0002f0 af d3 e8 3c e7 16 6e 3d dd d0 94 bc 4a 40 cf 3d
       0.028421251 0.05812731 -0.018166 0.10119684
000300 7d c0 06 3e 36 2e b9 bd b3 50 8f 3d f2 46 0c 3e
       0.13159366 -0.09042017 0.06997814 0.13698938
000310 f7 a8 f1 3d a4 e8 c2 bd c4 89 ce bd 0b 48 e1 3b
       0.117998056 -0.09517029 -0.100848705 0.0068750433
000320 94 0d b9 3d 52 ef d3 3d cd 36 11 bd c2 0e ee bb
       0.09035793 0.10348381 -0.035452653 -0.007264943
000330 20 a1 07 3e ae 78 46 bc e5 4f 7b bb 98 53 32 3c
       0.13245058 -0.012113733 -0.0038347181 0.010884188
000340 19 d4 d6 bd 94 91 cf bd d6 f5 d2 3b ae 6e 0a 3e
       -0.10489673 -0.10135189 0.0064379973 0.13518783
000350 a6 e7 87 3d 1a 47 9c 3d c9 09 f0 39 1e c9 3f 3c
       0.0663598 0.07630749 0.00045783658 0.011705665
000360 2b d8 ef 3d 1d db 57 3d 34 68 0e 3e 69 8e d0 bd
       0.11711153 0.052699197 0.13906938 -0.101834126
000370 a5 18 da 3c ae fd 63 3d 48 ab 54 bd 54 d9 13 3d
       0.02662308 0.05566185 -0.05192116 0.036095932
000380 75 cf 0d 3d a3 bf c2 bc e6 60 8c bd 54 b4 bc 3d
       0.034621675 -0.02377302 -0.068544194 0.09214082
000390 b9 0d ec 3d 7d ec 98 bc 52 2f ab 3d f5 2b f5 bc
       0.11526055 -0.018667454 0.08358635 -0.029928187
0003a0 0d 25 8c bd 91 16 97 bd bf 0d 31 bd d9 56 c3 3d
       -0.068430044 -0.07377351 -0.043226 0.09538049
0003b0 24 8a 98 bc 3b 2b 1b bd 29 d6 a1 bc 55 5a 56 3d
       -0.018620558 -0.037883025 -0.01975544 0.05233224
0003c0 19 cd ac 3d 89 ad 89 3d 66 72 0f bd 89 32 fc 3d
       0.08437557 0.06722552 -0.03502121 0.12314326
0003d0 f2 58 b4 3c 61 f8 07 3e 8f bd 11 3e 63 fe 44 bd
       0.022015069 0.13278343 0.14232467 -0.048094165
0003e0 e1 92 d3 3d 90 8a f0 bd d8 49 7d bd 1b 15 e5 3d
       0.10330749 -0.11745179 -0.061838 0.11185666
0003f0 e5 47 bb 3d 3b b2 51 3d d7 e7 00 bd cf f6 a9 bd
       0.09144572 0.051195364 -0.0314711 -0.08299028

fc.weight f4 [1, 64]
000000 de 9e cb bd 19 78 0f 3d 72 63 a6 3c 3e 89 0d be
       -0.09942411 0.035026643 0.020311091 -0.13821885
000010 88 b1 96 bd 82 d4 f0 bc 29 a4 07 be 2e 91 1a 3c
       -0.0735808 -0.029398207 -0.13246216 0.009434028
000020 24 c0 b3 3d 6d 06 75 3d e7 b1 96 3d c5 e2 a8 bd
       0.08776882 0.05982058 0.07358151 -0.08246378
000030 be 4a f2 3b bd 3b d3 bd 89 75 89 bd 70 3d 05 be
       0.007394164 -0.103141285 -0.06711871 -0.13011718
000040 c2 cd 08 3d f6 bb 97 bc ff 15 ce 3d a4 be 12 be
       0.03339935 -0.018522244 0.10062789 -0.14330536
000050 f8 e0 10 3e db f5 48 bd aa 26 f5 bd ad 03 8d bc
       0.14148319 -0.04906259 -0.11970265 -0.017213667
000060 69 ef ad bd 88 be 00 3e f4 b1 c6 bd 03 75 5b bd
       -0.084929295 0.12572682 -0.097019106 -0.053578388
000070 79 11 dc 3d 50 cc 71 bc 6b 0a dd 3d e1 6c de bd
       0.1074552 -0.014758185 0.10793003 -0.10860611
000080 e2 ce 67 3d 47 90 b2 bd af 29 8c 3d 85 11 44 bd
       0.056593783 -0.08718925 0.06843888 -0.04786827
000090 29 1c 3d 3d ea 06 0a bd 14 9e e4 bd f1 91 a5 3d
       0.046169434 -0.033698 -0.111629635 0.08084477
0000a0 4f 26 f0 bd 87 8f 93 bd d6 7e b9 bd 04 f3 f7 3c
       -0.11726057 -0.0720511 -0.09057395 0.030267246
0000b0 c5 4a b0 bd e4 27 88 3d a0 4f af 3d 24 92 d8 bc
       -0.08608011 0.066482335 0.08560109 -0.026436873
0000c0 37 b5 03 bd fb d6 9b bd c1 34 b0 bc 56 8a 00 3e
       -0.03215524 -0.07609364 -0.02150953 0.12552771
0000d0 2c 0a 3c 3d a4 60 06 3e aa 07 4f 3d 16 18 8a bb
       0.04590814 0.13122803 0.05054442 -0.004214297
0000e0 4d 77 af bd 6f dd 3a 3d e4 18 da 3d 26 26 8a bd
       -0.08567677 0.04562133 0.10649279 -0.067455575
0000f0 7a 6f cb 3c cc 8c c6 bd 87 15 b8 3d ff c0 dd 3d
       0.02483343 -0.096948236 0.08988481 0.10827827
