trained_models/max_gts_temp/rnn_model_1632058024.pt (torch, 19735 bytes, 5 tensors)

rnn.weight_ih_l0 f4 [64, 3]
0	0x3d17edd5	0.03709205
1	0x3d9d82e5	0.07690982
2	0xbda0d038	-0.078522146
3	0xbcb74272	-0.02237055
4	0x3dc8d14f	0.098055474
5	0xbd28d745	-0.041220922
6	0x3dd4a6bb	0.10383364
7	0x3de586d6	0.112073585
8	0x3db2e353	0.08734765
9	0x3d21fc7a	0.03954742
10	0xbd131839	-0.035911772
11	0xbb4bd794	-0.0031103836
12	0xbd2579e5	-0.04039945
13	0xbdeccb13	-0.11562171
14	0xbd873cef	-0.06603419
15	0xbd07f3ae	-0.033191375
16	0x3cb356c9	0.021891968
17	0xbd15c20c	-0.03656201
18	0x3de85913	0.113451146
19	0xbdbcb606	-0.09214406
20	0x3d62f519	0.055409525
21	0xbdcc3a7c	-0.099720925
22	0x3de26a64	0.11055449
23	0xbccdb6b0	-0.025111526
24	0xbd0be3c8	-0.034152776
25	0xbd6658f9	-0.056237195
26	0xbc8d27b3	-0.017230844
27	0x3d137139	0.03599665
28	0xbdc48dd9	-0.09597368
29	0xbded0555	-0.11573283
30	0x3e0133b2	0.12617376
31	0xbce4336a	-0.027856547
32	0x3c9dba6f	0.019253938
33	0xbde6dff1	-0.11273182
34	0x3d9dae35	0.07699243
35	0x3cccc109	0.02499439
36	0xbcc30b57	-0.023809118
37	0xbd23e5fa	-0.040014245
38	0xbd418b2f	-0.047251876
39	0xbcacd5f9	-0.021098124
40	0xbd8f825b	-0.07007285
41	0x3d2cc396	0.042178713
42	0x3d9f8305	0.07788662
43	0x3d61eb6f	0.055156168
44	0xbcafd99e	-0.021466073
45	0x3d7c771b	0.061637025
46	0x3cf79f8c	0.030227445
47	0xbe040292	-0.12891605
48	0x3adf63a0	0.001704324
49	0x3da1e757	0.07905453
50	0xbc4508b4	-0.012026001
51	0xbccd92f2	-0.025094483
52	0x3d295db6	0.041349135
53	0x3d277219	0.040880296
54	0xbd90cb1e	-0.070699915
55	0xbdec237b	-0.11530205
56	0x3a792bbd	0.00095051137
57	0x3d99fbca	0.07518728
58	0xbdab962c	-0.083782524
59	0xbd822784	-0.06355193
60	0x3df0ced6	0.11758201
61	0xbb86b55b	-0.0041109747
62	0xbd2b3481	-0.04179812
63	0x3db65185	0.08902267
64	0x3dad491c	0.0846121
65	0x3daba2ea	0.08380683
66	0x3c8283f1	0.015932055
67	0xbd5318a1	-0.05153716
68	0xbd320933	-0.043465804
69	0xbddf21fd	-0.108951546
70	0x3cacea43	0.021107798
71	0xbcf2af5e	-0.029624637
72	0xbbb23294	-0.0054381583
73	0xbd7ac5da	-0.061223842
74	0x3d56c903	0.052437793
75	0x3d6ed274	0.058306172
76	0xbce7b51b	-0.0282846
77	0xbde2dd07	-0.11077314
78	0xbcefe338	-0.029283151
79	0x3d96624f	0.073429696
80	0x3def5c5b	0.11687537
81	0xbc97df91	-0.018539222
82	0x3d3e7720	0.046500325
83	0x3bd7496d	0.0065700323
84	0xbd241f69	-0.040069018
85	0x3d734e1d	0.059400667
86	0xba3975b2	-0.0007074728
87	0x3d7f7203	0.06236459
88	0x3dce68f5	0.10078613
89	0x3da93413	0.082618855
90	0xbddbd655	-0.1073424
91	0x3d07a297	0.033114042
92	0xbda252e7	-0.079259686
93	0xbdd07d6c	-0.10180172
94	0x3da48666	0.08033447
95	0x3e010cb3	0.126025
96	0xbd62dd38	-0.055386752
97	0xbad34595	-0.001611876
98	0xbd5445f4	-0.051824525
99	0xbdef1b90	-0.11675179
100	0x3cbd08b4	0.023075439
101	0x3e0f849d	0.14015432
102	0x3da6d688	0.08146387
103	0xbd7e6a46	-0.06211307
104	0x3dbb507b	0.0914621
105	0x3d84b449	0.06479699
106	0xbdb8283e	-0.089920506
107	0xbdc933cf	-0.09824335
108	0xbdc3d98f	-0.095629804
109	0x3b16c880	0.002300769
110	0xbdcb4b60	-0.09926486
111	0xbd17bdf0	-0.037046373
112	0x3cbcfd52	0.023070011
113	0xbc054a71	-0.008135424
114	0xbdacb6b2	-0.08433284
115	0x3da9ea53	0.08296647
116	0xbd88b620	-0.066753626
117	0xbda5064d	-0.080578424
118	0xbce08032	-0.027404878
119	0xbc36a217	-0.011147044
120	0x3dd1ca73	0.10243692
121	0x3ddc0bd7	0.10744446
122	0xbd2bac33	-0.04191227
123	0x3d471a92	0.048609324
124	0xbd4866af	-0.04892605
125	0xbd28c69d	-0.041205037
126	0x3d10e160	0.035371184
127	0xbd5beed4	-0.05369456
128	0xbd8db8a0	-0.0691998
129	0x3d91899e	0.071063265
130	0x3de37a18	0.11107272
131	0xbd9757b1	-0.07389773
132	0x3cbc84b0	0.02301249
133	0xbcd8c2e9	-0.026460128
134	0x3d91b136	0.071138784
135	0xbd3c0dc3	-0.04591156
136	0xbdf5674f	-0.11982595
137	0x3df70f40	0.120634556
138	0x3d8491d0	0.06473124
139	0x3dd0fe43	0.102047466
140	0x3a3dc969	0.000723979
141	0x3cc30333	0.023805236
142	0xbd54d950	-0.051965058
143	0xbca6f9cf	-0.02038279
144	0xbdf69d22	-0.120416895
145	0xbd2f8e24	-0.042860165
146	0x3d1843d5	0.037174065
147	0x3aae9d68	0.0013322057
148	0xbddbe330	-0.10736692
149	0x3e02481a	0.12722817
150	0xbdd581b6	-0.10425131
151	0xbd974e9e	-0.07388042
152	0xbdc0213e	-0.093813404
153	0xbd005e1e	-0.031339757
154	0x3d0c6542	0.034276254
155	0xbd6446cf	-0.05573159
156	0xbdf70e9c	-0.120633334
157	0xbdcb533a	-0.099279836
158	0xbcb3f990	-0.021969587
159	0x3d7c6fe9	0.061630163
160	0xbc81c5ff	-0.015841482
161	0x3dc2a27b	0.09503647
162	0x3d89efb9	0.067351766
163	0xbd9aedf4	-0.07564917
164	0xbdee6bc6	-0.1164165
165	0xbdfcf45a	-0.12351294
166	0x3df0c493	0.117562436
167	0xbe0c716f	-0.13715146
168	0xbdef6889	-0.116898604
169	0xbdef1696	-0.1167423
170	0x3da31eef	0.079648845
171	0xbda4b2bf	-0.080419056
172	0xbdd54d2e	-0.104151115
173	0xbdaacf5c	-0.08340332
174	0xbd446d4b	-0.047955792
175	0xbd88a8ad	-0.06672797
176	0xbde8c656	-0.113659546
177	0xbd527aa2	-0.051386483
178	0xbdf8141d	-0.12113211
179	0xbd854e49	-0.06509072
180	0x3d895643	0.06705906
181	0xbdb0d90e	-0.0863515
182	0x3bb0644c	0.00538305
183	0xbc10e9b7	-0.008844784
184	0xbdc49fc0	-0.096007824
185	0x3dff3736	0.124617025
186	0x3d1a8690	0.037725985
187	0xbd7c6a10	-0.061624587
188	0x3d5b7321	0.053576592
189	0x3d9e68d5	0.07734839
190	0x3d9f5597	0.07779997
191	0xbcda938a	-0.02668168

rnn.weight_hh_l0 f4 [64, 64]
0	0x3e07b1ba	0.13251391
1	0x3da7b9ba	0.081897214
2	0xbcfadcef	-0.030622927
3	0xbdc9d7a2	-0.09855582
4	0xbd433847	-0.047661092
5	0x3de25e02	0.11053087
6	0x3de5aec6	0.11214976
7	0xbd59f421	-0.053211335
8	0x3d57d876	0.052696668
9	0xbd340169	-0.043946657
10	0xba4af88f	-0.00077427266
11	0xbe02f0b5	-0.12787135
12	0xbb5295a1	-0.0032132643
13	0xbc764f6b	-0.015033583
14	0x3dbfcb24	0.09364918
15	0xbd216195	-0.039399702
16	0x3cbf2207	0.023331655
17	0x3d8dedfc	0.069301575
18	0x3da2e5f3	0.079540156
19	0x3dd5d2a4	0.10440567
20	0xbc928925	-0.017887661
21	0xbdd6f1d5	-0.104953445
22	0xba660528	-0.0008774572
23	0xbde615d0	-0.11234629
24	0xbdc71d37	-0.09722369
25	0xbc8129ef	-0.015767066
26	0xbc9db2b5	-0.019250253
27	0xbd283378	-0.04106471
28	0xbdfc0ab8	-0.12306732
29	0x3ba38f65	0.004991459
30	0x3da71b25	0.08159474
31	0x3e04478f	0.12917922
32	0xbdc8516b	-0.09781154
33	0x3e0506f7	0.12990938
34	0xbda576d0	-0.08079302
35	0x3c602e6c	0.013682943
36	0x3db6c271	0.089238055
37	0x3c86b3e6	0.016443204
38	0xbcf6338c	-0.030053876
39	0xbd512d95	-0.05106886
40	0xbda0a7a7	-0.07844477
41	0x3b9ff5bc	0.0048815887
42	0x3d81a160	0.06329608
43	0xbd54e666	-0.051977538
44	0xbdb8d663	-0.09025266
45	0x3dff8491	0.12476457
46	0xbe0e6101	-0.13904192
47	0xbde44e34	-0.111477286
48	0x3de9cc92	0.11415972
49	0x3e08acd6	0.13347182
50	0xbd87853c	-0.06617209
51	0x3ce0e467	0.02745266
52	0xbd96e343	-0.073675655
53	0xbc7dece8	-0.015498377
54	0x3d3ec43d	0.046573866
55	0xbb3a1ef0	-0.0028399788
56	0xbdd3fc79	-0.1035089
57	0xbb3bdbd2	-0.0028664959
58	0xbc7da8d3	-0.015482145
59	0x3d442a3a	0.047891833
60	0xbde7d7a3	-0.11320426
61	0x3c34808e	0.011016978
62	0xbd9b5b7c	-0.07585809
63	0xbdaab080	-0.08334446
64	0xbda11d34	-0.07866898
65	0x3cba02eb	0.02270647
66	0x3db13eb6	0.08654539
67	0xbd7ab576	-0.06120821
68	0xbd777745	-0.06041648
69	0xbd877687	-0.06614404
70	0x3e00a345	0.12562282
71	0x3df58400	0.119880676
72	0xbc1d6ce8	-0.009608485
73	0xbc8dcb19	-0.017308759
74	0x3c929d4c	0.01789727
75	0xbdd94431	-0.106087096
76	0xbcc8c870	-0.024509639
77	0xbd25fec0	-0.04052615
78	0xbcd07a1d	-0.025448853
79	0x3dd754b3	0.10514202
80	0xbdb078b1	-0.0861677
81	0xbcf6b94d	-0.030117655
82	0xbd40ddf2	-0.047086664
83	0x3c9baba6	0.019002747
84	0xbde9d116	-0.11416833
85	0x3db56caf	0.088586204
86	0xbd12dd5c	-0.035855636
87	0xbbd8efb5	-0.006620372
88	0x3c9deae0	0.019277036
89	0x3dd7a3b9	0.105292745
90	0xbe00bb17	-0.12571369
91	0xbc803c38	-0.015653715
92	0x3dcc72e0	0.09982848
93	0x3ddb7ae2	0.107167974
94	0xbd9636b2	-0.07334651
95	0xbe000774	-0.12502843
96	0x3d3ac3ff	0.045597073
97	0xbca9f397	-0.020746036
98	0xbd7d17a3	-0.06179012
99	0xbcad2198	-0.021134183
100	0xbd12d218	-0.035844892
101	0xbdcfd797	-0.101485424
102	0x3d4eaaea	0.050455965
103	0x3dae7645	0.08518652
104	0x3d216da7	0.039411213
105	0x3dc302d4	0.09522024
106	0xb8768eeb	-5.8784073e-05
107	0xbad8d5c3	-0.0016543198
108	0xbc9efac1	-0.019406678
109	0x3da030b5	0.0782179
110	0x3d75ad40	0.059979677
111	0xbd295685	-0.041342277
112	0x3c6f84f8	0.014619105
113	0xbde9d1ec	-0.114169925
114	0x3cc152f2	0.023599122
115	0xbc3b2fe1	-0.011424989
116	0x3e0450bc	0.12921423
117	0xbd7dd66e	-0.061972074
118	0xbd008979	-0.031381104
119	0x3cf41e5d	0.029799635
120	0x387c7e80	6.0199294e-05
121	0xbc6a0cae	-0.01428525
122	0xbc281cb1	-0.010260747
123	0xbdc3bebc	-0.09557864
124	0xbdc9bf6c	-0.09850964
125	0x3b4519eb	0.0030075263
126	0xbdf00285	-0.117192306
127	0x3cec8650	0.028872639
128	0xbdda7c0d	-0.10668192
129	0xbd8fe8ff	-0.07026862
130	0x3d930b69	0.07179911
131	0x3cfc1379	0.030771004
132	0x3d820573	0.063486956
133	0xbc82cbea	-0.015966374
134	0xbda32ce7	-0.07967549
135	0xbde91481	-0.11380864
136	0xbdd2874a	-0.102797106
137	0x3d88a44d	0.06671963
138	0xbc905cc1	-0.017622354
139	0xbd89f731	-0.06736601
140	0x3d9d9ae4	0.07695559
141	0x3d3236d4	0.04350932
142	0x3ac14e70	0.0014748108
143	0x3dcb88e7	0.099382214
144	0x3a060894	0.00051129726
145	0xbd9c2607	-0.07624441
146	0x3ba6a915	0.005086074
147	0xbd9ecb70	-0.077536464
148	0x3d135d40	0.035977602
149	0x3de03952	0.10948433
150	0x3d876db2	0.066127196
151	0x3deb05df	0.11475729
152	0x3dbcb792	0.09214701
153	0x3c350671	0.011048899
154	0xbb7b8caf	-0.0038383415
155	0x3dd0ba42	0.10191776
156	0xbdd58733	-0.10426178
157	0x3c104718	0.008806013
158	0x3dec1516	0.11527459
159	0x3da2e16d	0.07953153
160	0x3e042238	0.12903678
161	0xbdc42e8d	-0.09579191
162	0xbda3b3de	-0.07993291
163	0x3ba7a09b	0.005115581
164	0x3d853664	0.06504515
165	0x3db3c8f7	0.087785654
166	0xbd7e986c	-0.06215708
167	0xbe07a7e1	-0.13247634
168	0x3d9cdefc	0.076597184
169	0x3dd48c9f	0.10378384
170	0x3d926c53	0.071495675
171	0xbc3e45a9	-0.011613288
172	0x3cd51847	0.026012553
173	0x3dde8ff5	0.108673014
174	0x3d22b31b	0.03972159
175	0x3d699a4c	0.057031915
176	0xbba2aa6d	-0.004964164
177	0xbcb69d23	-0.022291726
178	0xbdfc7f76	-0.12328999
179	0x3dfe8ff6	0.12429802
180	0x3a11ad8a	0.00055571704
181	0xbd8a599d	-0.067553736
182	0xbdabba24	-0.08385113
183	0xbdf2d17c	-0.11856362
184	0xbcad64ec	-0.021166287
185	0xbd3e5fd2	-0.0464781
186	0xbcbec32a	-0.02328642
187	0xbcf8b4b9	-0.030359613
188	0x3d886ff4	0.06661978
189	0xbcc991c8	-0.024605647
190	0x3db6af9f	0.08920216
191	0xbda8da65	-0.082447805
192	0xbc1fbb43	-0.0097492365
193	0x3dfca96b	0.123370014
194	0xbdf744bf	-0.12073659
195	0x3cfcadb8	0.030844554
196	0xbdb545ef	-0.088512294
197	0xbda05a2b	-0.07829698
198	0x3d48d47d	0.04903077
199	0xbdde4828	-0.108536065
200	0xbcecde9f	-0.028914748
201	0x3d41af12	0.0472861
202	0x3d51c5b5	0.05121394
203	0xbc92abc0	-0.017904162
204	0xbd01041e	-0.031498067
205	0x3dbf9604	0.09354785
206	0xbdc657cd	-0.096847154
207	0xbda78813	-0.08180251
208	0xbd2bdffa	-0.041961648
209	0x3dfa1cd6	0.12212531
210	0x3dc58b8f	0.09645759
211	0x3d08f774	0.033439115
212	0xbdd0bdff	-0.10192489
213	0x3cce2101	0.025162222
214	0x3d2e0b2d	0.042491127
215	0x3d03247c	0.032017216
216	0xbd560c13	-0.05225761
217	0xbc9f8f11	-0.019477399
218	0xbcee6334	-0.029100038
219	0xbc092611	-0.008370892
220	0xbd483785	-0.048881073
221	0xbd8ca77a	-0.06867881
222	0xbd833e42	-0.06408359
223	0x3da751b3	0.0816988
224	0x3d1c504e	0.038162522
225	0xbde3b54d	-0.11118565
226	0xbe0524d6	-0.13002333
227	0x3dac5cb0	0.08416116
228	0xbdd6110d	-0.10452471
229	0x3d9c5b24	0.07634571
230	0xbc433f31	-0.0119169215
231	0x3dbe233f	0.092840664
232	0x3cd258b2	0.025677059
233	0xbdee7f25	-0.11645345
234	0x3dc72944	0.09724668
235	0xbb6c008c	-0.0036011068
236	0xbca8b2c4	-0.020593055
237	0xbdd33a73	-0.10313883
238	0xbca83135	-0.020531276
239	0x3ad150af	0.001596948
240	0x3d830ea4	0.06399277
241	0xbd291182	-0.041276462
242	0x3d477e5f	0.0487045
243	0xbded3609	-0.11582572
244	0x3ca4b91f	0.020107804
245	0xbd4b06b9	-0.049566958
246	0x3d9f5466	0.077797696
247	0x3d6952ba	0.05696366
248	0x3da0fb41	0.07860423
249	0x3d740574	0.059575513
250	0xbd25aee1	-0.04044998
251	0x3c206d2d	0.009791655
252	0xbd925471	-0.07145012
253	0x3d974cc5	0.073876895
254	0xbd251910	-0.040307105
255	0x3d973b83	0.07384398

rnn.bias_ih_l0 f4 [64]
0	0x3e0024c0	0.12514019
1	0xbdef29b1	-0.11677874
2	0xbd99eb25	-0.075155534
3	0x3deed275	0.11661235
4	0xbd14aaa6	-0.036295556
5	0xbdb0319d	-0.08603213
6	0xbdb7cc0e	-0.08974467
7	0xbd84d5a9	-0.06486065
8	0x3c7d557e	0.015462277
9	0x3d5cd6f7	0.053915944
10	0xbd2b0b3f	-0.041758772
11	0xbd347af9	-0.04406259
12	0x3db18638	0.08668178
13	0xbc9f0e79	-0.01941608
14	0x3dcc2f49	0.099699564
15	0x3d63a334	0.055575565
16	0xbd1d4388	-0.03839448
17	0x3ca190db	0.019722393
18	0x3d12c618	0.03583345
19	0xbd94e984	-0.07271102
20	0xbd5f32e2	-0.054491885
21	0x3deeed1d	0.116663195
22	0xbce0d7d1	-0.02744666
23	0xbcba55c4	-0.022745974
24	0x3ba037e4	0.004889475
25	0xbd4fc267	-0.050722506
26	0xbd543c77	-0.051815476
27	0x3dd40cbf	0.103539936
28	0x3d27e061	0.04098547
29	0xbc206905	-0.009790664
30	0xbd872c17	-0.06600206
31	0xbc43e051	-0.011955337
32	0x3c7fcfff	0.015613555
33	0x3db64218	0.08899325
34	0xbdcbdf0c	-0.09954652
35	0xbd779d26	-0.060452603
36	0xbdec8f79	-0.11550803
37	0xbaadaf5b	-0.0013251113
38	0xbd50daa1	-0.05098975
39	0xbd2ebedf	-0.042662498
40	0xbde126bc	-0.10993716
41	0x3e019857	0.1265577
42	0xbdecc7ea	-0.11561568
43	0x3d5e1df0	0.05422777
44	0xbd947875	-0.07249538
45	0xbd8323dc	-0.06403324
46	0x3df1f234	0.11813775
47	0xbdfaaceb	-0.12240013
48	0x3dd501fb	0.10400768
49	0x3b9ee91f	0.0048495675
50	0xbe05d0b4	-0.13067895
51	0x3cca472c	0.02469214
52	0x3d0f9b05	0.035059948
53	0x3d1a1f96	0.03762778
54	0xbd8f4d33	-0.069971465
55	0x3d89544b	0.06705531
56	0xbdea3c14	-0.1143724
57	0x3d42ce11	0.0475598
58	0xbd2e4c0a	-0.042552985
59	0xbbcea1b7	-0.006305899
60	0xbdd12322	-0.10211779
61	0xbdf360dd	-0.118837096
62	0x3d8e4b5d	0.06947968
63	0xbd52d5fb	-0.0514736

rnn.bias_hh_l0 f4 [64]
0	0x3d9bc150	0.07605231
1	0xbd83439f	-0.06409382
2	0x3d53da98	0.05172214
3	0xbd9cbb67	-0.07652932
4	0x3dc4f378	0.096167505
5	0x3da94597	0.08265226
6	0xbd24c484	-0.040226474
7	0xba3dee43	-0.00072452816
8	0x3de6ece4	0.11275652
9	0xbbbd32cb	-0.0057738773
10	0xbceaeb28	-0.028676584
11	0xbdd3f1e5	-0.10348872
12	0x3de0ec78	0.10982603
13	0x3c611ca2	0.013739737
14	0x3d5bf306	0.053698562
15	0x3d01d7c6	0.03169992
16	0x3d84bf75	0.0648183
17	0xbd995c24	-0.074882776
18	0xbdeee083	-0.11663916
19	0x3defe300	0.11713219
20	0x3de3aa57	0.11116474
21	0xbd5f550b	-0.054524463
22	0xbdc0341e	-0.093849406
23	0xbbeb9c07	-0.007190231
24	0xbc4ba7db	-0.012430157
25	0x3d2ea101	0.042634014
26	0xbdee7ab4	-0.116444975
27	0xbd9380f8	-0.07202333
28	0xbcf0ac59	-0.029379057
29	0xbc0c2ae7	-0.008555151
30	0x3e023686	0.12716112
31	0x3d97fa45	0.07420782
32	0x3d8fcc8c	0.07021436
33	0xbd0c9808	-0.034324676
34	0x3d8f1df7	0.06988137
35	0xbde77946	-0.11302428
36	0xbde23943	-0.11046078
37	0xbd05f7ef	-0.03270715
38	0xbd5479a1	-0.051873807
39	0xbd9a66e2	-0.075391546
40	0xbd7837d5	-0.06060012
41	0x3db0a28f	0.086247556
42	0xbd19e53b	-0.037572127
43	0xbc9852d3	-0.018594181
44	0x3d94e4b3	0.072701834
45	0xbdbd4842	-0.09242298
46	0xbd5de344	-0.054171816
47	0xbd1849eb	-0.03717987
48	0xbd1330e8	-0.035935313
49	0xbd0f7ece	-0.03503304
50	0xbd899b03	-0.06719019
51	0x3db2ecd3	0.08736577
52	0x3dc2c09a	0.09509392
53	0xbda57489	-0.08078868
54	0xbdb1bc4d	-0.08678494
55	0xbc92aacd	-0.01790371
56	0x3d413f3b	0.047179442
57	0xbcd3dcf2	-0.02586219
58	0xbcdf4254	-0.027253307
59	0x3c765478	0.015034787
60	0x3d599c9e	0.053127877
61	0x3d75227a	0.059847333
62	0xbd8c95a4	-0.06864479
63	0x3dbd6cc7	0.09249263

fc.weight f4 [1, 64]
0	0x3dbce672	0.092236415
1	0xbde54e48	-0.111965716
2	0x3daa5da5	0.083186425
3	0xbe08b0e8	-0.13348734
4	0x3df7860c	0.12086114
5	0xbdc21630	-0.09476888
6	0xbd9d4f50	-0.07681143
7	0xbd1d6443	-0.038425695
8	0x3d09debc	0.03365968
9	0x39c05699	0.00036685614
10	0xbd3d713a	-0.04625056
11	0xbd01f40c	-0.03172688
12	0x3d50c90b	0.05097298
13	0xbdcbbb6b	-0.099478565
14	0xbd9814e5	-0.0742586
15	0x3a849938	0.0010116464
16	0xbd8cb96d	-0.06871305
17	0xbcf87a65	-0.0303318
18	0xbd2113ae	-0.03932541
19	0xbd7ed9d5	-0.06221946
20	0xbd4cbae2	-0.049982913
21	0xbda88806	-0.082290694
22	0xbcf3906d	-0.029731954
23	0xbde3669d	-0.11103556
24	0x3a88d0f0	0.0010438245
25	0x3ca8e688	0.020617738
26	0xbd78c80e	-0.060737662
27	0xbdd1e742	-0.10249187
28	0x3bdad853	0.00667862
29	0x3daadb0b	0.083425604
30	0x3d98cd89	0.07461078
31	0x3d11ec2b	0.035625618
32	0x3b8e81ce	0.00434897
33	0x3bddaaa5	0.006764727
34	0x3de6b199	0.11264343
35	0x3d3e6a79	0.04648826
36	0xbc4e8896	-0.012605807
37	0xbdcb86db	-0.09937831
38	0x3df8a91a	0.121416286
39	0xbc08a945	-0.008341138
40	0x3d4187db	0.047248702
41	0x3d735856	0.059410416
42	0xbc9e1025	-0.019294808
43	0xbdc14d23	-0.09438541
44	0x3bf01cda	0.007327658
45	0xbd54fbc4	-0.051997915
46	0x3c3752a8	0.01118914
47	0xbda4cf78	-0.08047384
48	0x3d1715f8	0.036886185
49	0x3d301122	0.04298509
50	0xbda461fd	-0.08026502
51	0x3c5505a3	0.013001832
52	0xbde8484a	-0.11341913
53	0x3dbaeff3	0.09127798
54	0xbd6f733e	-0.058459513
55	0xbdfee3a1	-0.124457605
56	0xbdb70c36	-0.08937876
57	0x3da098b6	0.07841627
58	0x3dd812d2	0.10550465
59	0xbce7453a	-0.028231252
60	0xbcbd1db0	-0.023085445
61	0x3c84bfdd	0.016204769
62	0xbd8343ce	-0.06409417
63	0x3df6328f	0.12021362
